BC_NN2.pt (torch_old, 116965 bytes, 8 tensors)

model_inner.0.weight f4 [128, 30]
000000 47 ed ca bc a8 04 23 be 99 de cf bd 06 da 2f 3e
       -0.024771346 -0.15919745 -0.10149879 0.17173013
000010 16 b9 cd bd 6f 91 5e 3d ee 93 46 be e2 62 7d 3d
       -0.10045068 0.054337915 -0.19392368 0.06186188
000020 b6 bd 1e 3c 2b 3a 83 3d 81 92 1a be 81 bb 27 3e
       0.009688785 0.06407579 -0.1509495 0.16380121
000030 03 13 fc 3c 79 d7 fd 3d 35 80 f8 bc 9f d1 35 3e
       0.030770784 0.12394614 -0.030334571 0.17755745
000040 f9 d5 db 3d cb cb e3 bc 64 22 94 3a 58 53 8f 3d
       0.107341714 -0.027807137 0.0011301753 0.069983184
000050 f4 11 24 3d 31 45 56 3d a4 dd 08 be 7d f8 cf bd
       0.040056184 0.05231208 -0.13365799 -0.10154817
000060 42 ad 1a 3d bf 38 83 3d 21 d1 f2 bd 71 7b e0 bc
       0.037762888 0.06407308 -0.118562944 -0.027402611
000070 6d 82 a9 bd 5e ee 69 3d 70 0b a0 3d 4a 13 18 3e
       -0.0827683 0.05711209 0.078146815 0.14851108
000080 d6 18 f5 bd 92 ad 27 be 18 87 e5 bc f4 18 0e bd
       -0.11967628 -0.16374806 -0.02801852 -0.034691766
000090 f6 9e ef bd f0 03 f4 bd 9c 09 f5 3d 91 24 34 be
       -0.11700241 -0.119148135 0.119647235 -0.17592074
0000a0 00 b4 c7 3b d0 43 88 bc d0 43 75 3c a0 70 03 3e
       0.0060944557 -0.016633898 0.014969781 0.12835932
0000b0 16 50 1a 3e 78 b0 de bd 78 88 a2 3c 5a 80 20 3e
       0.15069613 -0.108735025 0.019840464 0.15673962
0000c0 2c 1a e7 bd 66 5c 03 3e da 57 26 3e 52 c3 8a bd
       -0.11284289 0.12828216 0.1624445 -0.06775536
0000d0 cc 02 db 3d df bb 8e bd 5d b3 b6 bd 54 71 b2 bd
       0.10693893 -0.06969427 -0.089209296 -0.08713022
0000e0 68 55 67 bd 0c 33 30 be d0 13 6b 3d 48 38 8f 3d
       -0.056477934 -0.17206973 0.05739194 0.06993157
0000f0 e6 1f 9a bd 88 02 0c be ad be 54 bd 36 cf 4e 3e
       -0.075256154 -0.1367284 -0.051939655 0.20196232
000100 90 67 a5 3d 5c 5e 3e 3e b4 de 15 3c 34 ef 96 3d
       0.080763936 0.18590683 0.009147335 0.07369843
000110 ae a7 93 3d ac 41 16 bc 5e 32 62 3e 5b f8 4e bd
       0.07209717 -0.009170931 0.22089526 -0.05052982
000120 de ef 98 3d 49 a5 ec 3c 2c de 84 bd 5b fb bf bd
       0.07467626 0.028887408 -0.064876884 -0.09374114
000130 8e 0f a0 3d ed 89 76 bd b1 1d c4 bd 00 08 66 bb
       0.07815467 -0.06019013 -0.09575976 -0.0035099983
000140 18 ea b5 3d 4c ed 59 3e 4c d3 75 bc 00 ba 58 bd
       0.088825405 0.21281928 -0.01500399 -0.05291176
000150 23 fa b7 3d 74 3c 66 bd 68 2b 0a be ce 11 0c 3e
       0.08983257 -0.056209996 -0.1349312 0.13678667
000160 dd 96 21 3e a1 e5 cc 3d 28 15 de bd a0 5b 64 bc
       0.15780206 0.10004736 -0.10843879 -0.013937861
000170 c0 bd 2e 3d e0 7c f9 3c 80 0f 9e bc d2 6e 07 3e
       0.04266143 0.030455053 -0.0192945 0.13225868
000180 3e 20 30 3e 1e c8 33 be 38 38 d5 bc 44 e0 85 bd
       0.171998 -0.17556807 -0.026027784 -0.06536916
000190 d1 5d ab bd 2b 27 f2 bd d6 3a 0b be 34 08 8f 3d
       -0.083675034 -0.11823877 -0.13596663 0.069839865
0001a0 40 a5 5a bc e8 5b 67 bd 40 45 b0 bd ec f5 be 3d
       -0.013345063 -0.056484133 -0.086069584 0.093242496
0001b0 78 38 d7 bc c8 d9 52 3d 00 1c fa bc 88 d9 00 be
       -0.026272044 0.051477224 -0.03053093 -0.12582982
0001c0 c9 82 d8 bd c0 a4 01 3b ac 77 ad 3d 98 56 b8 3d
       -0.1057182 0.0019782037 0.08470091 0.090008914
0001d0 d1 95 37 be b7 7d 18 be 70 2d 98 bc 22 6e 05 3e
       -0.17928244 -0.14891706 -0.018576354 0.13030294
0001e0 69 f3 0b 3e b6 f8 87 3d d6 4f 84 bc 9e d3 03 be
       0.13667072 0.06639235 -0.01615135 -0.12873694
0001f0 c2 df 3d bc 95 63 21 3d bf 4b ef 3d c9 f0 53 3e
       -0.011588993 0.03940161 0.11684369 0.20697321
000200 42 86 d4 3d 94 61 3f 3e 0d 06 4b 3e ba d9 a9 3d
       0.1037717 0.18689567 0.19826527 0.08293481
000210 7c bb 2e 3e dc fc 10 bd 57 84 0a 3b fb fa 36 3e
       0.17063707 -0.035397395 0.002113601 0.17869179
000220 7c 70 31 3e c6 ed ce 3d 20 ec 17 3e 3b d8 9e bc
       0.17328066 0.101039454 0.14836168 -0.019390216
000230 c7 d0 5e 3e 71 bd 86 bd a6 b2 c5 bd bd 1d 85 3d
       0.2175933 -0.06579102 -0.09653215 0.06499813
000240 36 f5 a0 bd 1b 76 02 3e 9a 5d 9d bc f9 b3 06 3e
       -0.0785927 0.12740366 -0.019209672 0.13154592
000250 b2 6c 55 3e 3e e7 81 3d 1b f4 8b bd 1f 8a 20 3e
       0.20842245 0.06342934 -0.06833669 0.15677689
000260 5b 53 92 3d 83 0b 41 3e c7 bb 11 3e c5 a8 2e 3e
       0.07144805 0.18852048 0.14231788 0.17056568
000270 e6 de 03 be 46 2f 15 3e 67 7a fe bc 7c c3 53 3e
       -0.12877998 0.14568815 -0.031064225 0.2068004
000280 7d 41 1f 3e 04 3a 2e 3e 54 a7 20 bd b4 cf 8f 3d
       0.15552326 0.17014319 -0.039222077 0.07022038
000290 09 4c 3f 3e 9e 97 ff 3d f0 8b 42 bd 60 f5 77 bd
       0.18681349 0.124800906 -0.047496736 -0.060536742
0002a0 a9 81 19 3d b0 d0 de bd a6 ba 1d 3e c0 ef 07 3e
       0.03747717 -0.10879648 0.15403232 0.13275051
0002b0 c8 2d e3 bc 3b a9 1d 3e 80 e7 03 be f1 3f 65 bd
       -0.027731791 0.15396588 -0.12881279 -0.055969182
0002c0 69 5c 3d 3e 60 f9 0c 3e be 99 c8 3d c4 1f 34 bd
       0.18492283 0.13767004 0.09794949 -0.043975607
0002d0 fa bf 3b be 14 4f 06 be 88 e3 6f bd 3d 15 20 3c
       -0.18334952 -0.13116103 -0.0585666 0.009770689
0002e0 16 ef a9 3d 7e 46 bb 3d f0 88 aa 3d ce a3 12 3e
       0.08297555 0.09144305 0.083269 0.14320299
0002f0 42 f2 f1 bd 94 bb 77 bd 72 8f cf 3d f2 2a 08 be
       -0.11813785 -0.060481623 0.10134782 -0.13297632
000300 fb 90 62 3d 2c 3e d0 bd 6e 75 24 be 1a 64 66 3c
       0.055314045 -0.10168108 -0.16060421 0.014061952
000310 16 77 3c bd 50 6a 15 bd 2f cc 9f bd 85 8b 47 3c
       -0.046012007 -0.03647834 -0.07802617 0.01217926
000320 b7 66 12 bc 17 0b cf bd 5d 16 92 bd ad a4 9a 3c
       -0.008935622 -0.10109537 -0.07133172 0.018877352
000330 06 fe f5 3d 4c ca 7c 3d 0d 0b 91 bd 39 cc 84 bd
       0.12011342 0.061716363 -0.07082186 -0.06484265
000340 67 f5 d5 bd 3f 69 ad 3d 6c bc aa bc c3 ea 66 3d
       -0.104471974 0.0846734 -0.0208418 0.05637623
000350 24 dc 80 3d 69 2c 0f 3e 99 8f 27 be 06 32 00 be
       0.062919885 0.13981785 -0.16363372 -0.12519082
000360 4c 36 dd bd 69 f7 18 bd a8 a5 d4 bd 93 f4 cd bb
       -0.10801372 -0.037345324 -0.10383159 -0.006285259
000370 a2 84 96 bb cf 35 02 3d 83 2a 00 3e 27 02 d6 bd
       -0.004593448 0.031789597 0.12516217 -0.10449629
000380 29 52 0d be a7 6b cf bc c1 7a 09 be ad b3 d5 3d
       -0.13800873 -0.025319887 -0.13425733 0.10434661
000390 56 56 0c 3e 48 98 47 3d a0 d8 0b 3e be dd 26 bc
       0.1370481 0.04872921 0.13656855 -0.010184703
0003a0 66 82 29 3e 3c 1b f3 bd fd e9 38 be 64 42 a5 bd
       0.1655365 -0.11870429 -0.1805801 -0.08069304
0003b0 75 9e a6 3c e6 68 dc 3d 7b 82 1b be c4 a2 ab bd
       0.02033923 0.10762195 -0.15186493 -0.083806545
0003c0 24 a2 af 3d 70 e9 79 3c 30 78 0c 3e 6c 4f fd 3d
       0.08575848 0.01525341 0.13717723 0.12368664
0003d0 20 39 ed 3d d8 98 a4 bc cc b3 13 3d 40 08 cc bb
       0.11583161 -0.020092413 0.03606014 -0.0062265694
0003e0 40 b2 39 be 68 b4 e5 bd bd 12 3a be 8e 72 3a 3e
       -0.18134403 -0.112160504 -0.1817121 0.18207762
0003f0 28 78 9b 3c e4 49 32 be e9 88 b4 bd 6e 6d 18 be
       0.018978193 -0.17411 -0.08815176 -0.14885494

model_inner.0.bias f4 [128]
000000 83 16 1b 3e b5 a9 df bd 29 8f c9 bd 4b 78 1d be
       0.15145306 -0.10921041 -0.09841759 -0.1537792
000010 65 2d 13 3e 96 66 b3 3d 4e 54 8b 3d 3f 53 c6 bd
       0.14372785 0.08759801 0.06803189 -0.09683847
000020 44 60 3d bd 71 b0 10 3d d4 a1 90 bd 6d ac af 3d
       -0.046234384 0.035324518 -0.07062116 0.085778095
000030 8a c0 12 be 02 b1 2a be 2f 75 0a 3d ab 4a a0 bd
       -0.1433126 -0.16669086 0.03380316 -0.07826742
000040 76 e6 fc bd c7 90 ac 3d 6f 08 34 be b7 cb e8 bd
       -0.123486444 0.084260516 -0.17581342 -0.113669805
000050 2e 77 da 3d 09 95 ba bd 53 c6 b1 3d b8 aa 3c 3d
       0.10667263 -0.091104575 0.086804055 0.046061248
000060 90 24 05 3e b4 45 18 3e 4e b3 27 3d 4d 94 1c be
       0.13002229 0.1487034 0.040942483 -0.15290947
000070 17 23 1a 3e d8 fb ef bc 6f a2 1a be f5 3d 5b 3e
       0.15052448 -0.029294893 -0.15101026 0.21410353
000080 84 d6 2f be c2 14 8a bd 5d 37 61 3e cc d6 e5 bc
       -0.17171675 -0.067422405 0.21993776 -0.028056525
000090 9e e2 16 bd d3 f8 e5 bd 59 cb 4d 3e d8 10 e8 3d
       -0.036837213 -0.112291 0.20097102 0.11331338
0000a0 2b 31 d9 bd ca 85 b4 bd 42 4c 8f bd 8f ef 18 bd
       -0.10605081 -0.08814581 -0.06996967 -0.037337836
0000b0 a2 31 24 bd 3c 30 74 bd 74 4f 2c be 37 57 19 bd
       -0.040086396 -0.059616312 -0.16827184 -0.03743669
0000c0 48 d3 70 3a f3 b8 cb bd 82 da 5c 3d 0f 19 2f 3e
       0.0009186757 -0.09947386 0.053919323 0.17099403
0000d0 7b 24 5d 3c bb 5c 25 3e 02 b4 3e 3d af 18 01 3e
       0.013497467 0.16148655 0.046558388 0.12607072
0000e0 0b af 4e be 4a c7 30 be 54 03 06 be 29 39 2e 3e
       -0.20183961 -0.17263523 -0.13087207 0.17013992
0000f0 78 bc 9e 3d dc d3 b2 bd 1c f9 5e 3b 79 ad 53 be
       0.07750791 -0.08731815 0.0034022992 -0.20671643
000100 a3 c7 19 3e b5 74 97 bc a0 ad dc 3c e2 9c 26 be
       0.15017562 -0.018488267 0.02693826 -0.16270784
000110 68 4f 1a 3e 98 ec df bd 5d ac 43 3e 2a 73 22 3e
       0.15069354 -0.109337986 0.1910872 0.15864244
000120 91 e3 40 3d cd 2a 39 3e 4a 7f 09 be 44 64 28 3d
       0.047092024 0.18082733 -0.13427463 0.041111246
000130 02 4e 68 3d 41 01 1e 3e ba 5b e9 3d 98 87 30 be
       0.05671502 0.15430166 0.113944486 -0.17239225
000140 cb 0a 4c bd c8 e9 69 bd 6e fc 1e 3e f8 d2 98 bd
       -0.04981498 -0.057107717 0.15525982 -0.07462114
000150 f1 1b 17 be b4 73 1c 3e b9 4c 9b 3d 9b e0 f2 3d
       -0.14756753 0.15278512 0.07582993 0.11859246
000160 3b e6 07 be ae d6 84 bd a5 4d 63 3e 90 3e 05 bd
       -0.1327142 -0.064862594 0.22197588 -0.032530367
000170 9e 78 1d be f4 33 68 3e e2 71 09 be ce c4 53 3e
       -0.15378043 0.22676069 -0.13422349 0.20680544
000180 22 bc 0e 3e 56 3d 9f 3d cc 2e 24 3c 74 e3 3b 3e
       0.13938954 0.07775371 0.010020923 0.18348485
000190 dc 83 57 3e 93 f0 9d 3c f0 62 42 bd 2b 1f 27 be
       0.21046394 0.019279754 -0.047457635 -0.16320483
0001a0 0d 45 0b 3e 68 83 3a be b0 8d da bd 24 4b 23 bd
       0.1360056 -0.1821419 -0.10671556 -0.03986658
0001b0 57 3b e1 3d db 75 28 bd 1f 32 ac 3c 2f ad 37 be
       0.10997646 -0.04112802 0.021019993 -0.17937158
0001c0 85 f6 08 bd 2a 1f 33 3e 87 f1 a7 3d 9f 4e 42 3e
       -0.033438224 0.17492357 0.082003646 0.18975304
0001d0 35 9c 2a 3e 8f 9e 42 3d d7 44 be 3d 11 68 f9 3d
       0.16661151 0.047514495 0.09290474 0.12178052
0001e0 05 3e b3 bc 22 5c 43 be 0b 4f 3a 3d 9a 39 c3 bd
       -0.02188016 -0.19078115 0.045485537 -0.09532471
0001f0 2f 89 de 3d 9b 36 4f 3e 56 55 4b be d4 9a 03 3e
       0.108660094 0.20235674 -0.19856772 0.12852031

model_inner.2.weight f4 [128, 128]
000000 ee 38 85 bd 39 27 97 3d ba ec 50 3d de 2c 26 bd
       -0.06504999 0.07380528 0.05100701 -0.040570132
000010 75 72 74 bd 9f 3d 3f bc 7c 04 4e 3d e3 be 15 3d
       -0.059679467 -0.011672406 0.050297245 0.036558997
000020 a4 21 b8 3c ae 6d 6b bd 74 d3 f7 bc a3 ed 31 3d
       0.022476979 -0.057477646 -0.030252196 0.04343952
000030 24 ab ef 3c b8 36 42 3c 03 ed 85 bc ff 57 87 bd
       0.02925641 0.011853866 -0.016348368 -0.06608581
000040 24 6d a4 3c 92 ed 72 3d 5c b9 57 bd b0 23 92 3c
       0.020071574 0.059308596 -0.052667007 0.017839283
000050 39 a5 9d bc 8b ed 72 3d a4 98 76 bd 84 c2 ee 3c
       -0.019243823 0.05930857 -0.060204163 0.029145487
000060 5c b3 0d 3d 31 e3 36 3d e9 e2 0c bd ad bf 0b bd
       0.03459488 0.04465026 -0.034396086 -0.034118343
000070 a6 fa 5e bc ce 18 51 3d 4b 9f a0 bc c6 fd 84 bd
       -0.013609564 0.051049046 -0.019607207 -0.06493716
000080 b6 6e 7a bd e8 01 af 3c 79 bf 7d bd 6e f5 39 bc
       -0.06114074 0.021363214 -0.06195018 -0.011350019
000090 4f 49 45 3d 89 fc 9e 3d df 5b 4f 3d c7 ad a5 3d
       0.048165616 0.07763011 0.050624724 0.08089786
0000a0 69 ea 47 3d 48 2f 23 bc ee 85 59 bd 7c 33 88 3d
       0.048807535 -0.009960003 -0.05310624 0.06650445
0000b0 fc 44 96 3d aa 0d 83 bd c7 b8 88 3d 19 7d b3 bd
       0.073373765 -0.063990906 0.066758685 -0.08764095
0000c0 2c 0d 2a bd ef 05 8a 3d ba 43 86 3d 60 0d e8 bb
       -0.041516468 0.06739413 0.065558866 -0.0070816725
0000d0 c2 7e 72 bb cc d3 a1 3d 85 aa 84 3c 47 28 45 bb
       -0.0037001823 0.07901725 0.016194591 -0.0030083822
0000e0 78 4c 12 bd f4 07 ce bc 80 31 91 3a af 51 87 3d
       -0.035717458 -0.025150277 0.0011077374 0.06607377
0000f0 ea 5d 1e bd 97 43 14 bc c1 ac ac 3d 3e 4e 65 bc
       -0.038663782 -0.009049318 0.08431388 -0.013995705
000100 3b 7f 0d bc 03 72 77 3d 68 4a 5b 3c 66 54 96 3d
       -0.008636291 0.060411464 0.013384439 0.073403165
000110 57 9d 72 bd 65 2f 81 bd 13 65 be bd 2b 74 83 bd
       -0.059232082 -0.06307868 -0.09296622 -0.06418642
000120 51 47 0e 3d d4 d1 e1 bc 33 01 90 3c 15 7b 4a bd
       0.03473598 -0.027565874 0.017578697 -0.049433786
000130 44 22 9c 3d a7 2a 45 3d 35 f6 a5 3d c3 4f 8c 3d
       0.07623723 0.04813638 0.08103601 0.06851151
000140 d7 3d 05 bd 8b 3a 55 bd c0 cb 66 3a b2 d0 02 3d
       -0.03252968 -0.052057784 0.0008804165 0.03193731
000150 51 35 aa bd c3 00 dd 3c 4e c0 97 3d 09 fe f8 3c
       -0.083109505 0.026977902 0.07409726 0.03039457
000160 cc 75 aa bd 80 c6 a1 3a cb d1 8d 3d a9 53 33 bd
       -0.08323249 0.0012342483 0.069247805 -0.043780956
000170 15 7b 62 3c 43 28 a6 bd 9a 79 88 bc 16 47 b7 3c
       0.01382329 -0.08113148 -0.016659547 0.022372764
000180 79 5e 97 bd 11 ea 4b bb 52 d5 72 3d 57 70 25 bc
       -0.07391066 -0.0031114856 0.05928547 -0.010097585
000190 82 50 3e bc d1 1f 7c 3c 67 bb 75 3d e7 a6 b8 bd
       -0.011615874 0.015388445 0.059993174 -0.09016209
0001a0 d6 24 79 bc 54 c0 89 bd 9c c3 21 bd d7 07 3c bc
       -0.015206536 -0.06726137 -0.03949319 -0.011476479
0001b0 0e 0f 5a bc ba ea 93 3d 18 ba 45 bd 00 d1 ec 39
       -0.013309253 0.07222505 -0.048273176 0.00045169145
0001c0 9f b2 2f bd b2 51 84 bd 5a bd 87 3d a3 8f 06 3d
       -0.042894956 -0.06460895 0.06627913 0.032851826
0001d0 63 c6 b0 3c a5 c6 2e 3d a9 3c aa bd 4e 32 a0 3c
       0.021578973 0.04266991 -0.08312351 0.019555237
0001e0 58 dd b1 bc c1 b3 c1 bd b4 1f 8f bd 09 02 69 bd
       -0.02171199 -0.094581135 -0.06988469 -0.056886707
0001f0 99 14 ae bd ee 64 5f 3d 1d 71 5f bd f1 0a a2 3c
       -0.085000224 0.054539613 -0.054551233 0.019780608
000200 1f ef 8b 3c e0 2a 32 bc 3f 2e 1f bd c0 11 b0 bc
       0.017081795 -0.01087448 -0.038862463 -0.021492839
000210 ab 8e a1 3d 25 18 ae bc 45 e8 a8 3c e0 cc a9 3c
       0.0788854 -0.021251747 0.020618567 0.020727575
000220 2c 52 91 bc 22 85 8a bd 1a 10 42 3d d6 7f d6 3d
       -0.017739378 -0.06763674 0.047378637 0.104736015
000230 3e 8c 08 bd 1c 4e 87 bc 25 17 1d 3d d3 c4 5a bd
       -0.03333687 -0.016516738 0.03835215 -0.053410362
000240 30 ff ba 3c 2c 9c 08 3b f3 d8 98 3d 40 17 e2 ba
       0.022826761 0.0020845039 0.07463255 -0.0017249361
000250 6d ae 83 3a ca ac e1 bd cb c8 c4 bc f0 c0 eb bb
       0.001004649 -0.11019285 -0.024021527 -0.007194631
000260 7a c4 50 bd 27 82 00 bb 70 9f b4 bc 9c 5c b8 bc
       -0.050968625 -0.0019608827 -0.022048682 -0.022505097
000270 60 58 cb 3d c8 38 57 3c af 17 af bd a4 dc 8e 3d
       0.099289656 0.013136096 -0.08549439 0.069756776
000280 d6 29 57 3d 0b 58 16 bd cc d1 2d bd a3 ec 12 3d
       0.052530132 -0.036705058 -0.042436406 0.035870206
000290 37 65 d3 3c fc c1 01 3d 5c 5d 74 3d ee f7 a5 3d
       0.025805099 0.03167914 0.059659347 0.081039295
0002a0 8f d8 0a be 38 77 e3 bd 19 ce 5d bd d2 22 b8 bd
       -0.13559173 -0.111067235 -0.05415163 -0.089910164
0002b0 24 a9 7e bd 4e 6e 29 3d 11 63 80 3d bb 8a b0 3c
       -0.062173024 0.04136496 0.062688954 0.021550527
0002c0 90 6d c6 bc d6 79 af bd ec 6d 38 3d 92 e7 be 3d
       -0.024222165 -0.0856816 0.045026705 0.09321512
0002d0 53 6a 00 bd 6e 31 e1 3c e9 7c f8 3c 68 4c 89 bc
       -0.0313514 0.02748939 0.030333 -0.016760066
0002e0 90 39 f0 3b b0 ea 56 bc 98 71 89 bc c8 e1 68 3d
       0.0073310807 -0.013117477 -0.016777799 0.056855947
0002f0 4c 1b cb bb e2 61 9c bd 3c 48 b5 3d 38 b4 e6 bd
       -0.0061983224 -0.07635857 0.08851668 -0.11264843
000300 83 6e 65 3a b4 02 1f 3d 80 d3 92 bb 1e 1b 82 bd
       0.0008752124 0.038820937 -0.004480779 -0.063528284
000310 a7 d6 13 3d 23 7c 5b bd a6 fa 41 3d bb 9e fd 3d
       0.03609338 -0.053585183 0.047358178 0.12383791
000320 40 44 76 bd 08 b4 46 3c 9a f4 28 bc 70 4e ac 3c
       -0.060123682 0.012127884 -0.010312224 0.021033496
000330 f8 3c 8f 3d 35 d6 19 3d 14 31 f5 3c 40 65 ff bd
       0.06994051 0.0375578 0.029930629 -0.12470484
000340 b0 dd 6a 3c c0 17 f2 ba 17 c7 e4 3d ce b9 b1 bd
       0.014335081 -0.0018470213 0.11170786 -0.086780176
000350 2c d0 f5 bd da 18 ad 3d fe 2b 67 bc bb 70 8f 3d
       -0.12002596 0.08452006 -0.01410961 0.070039235
000360 23 af 6e 3d 28 f5 0a 3c 3e c5 d6 bb a4 f2 ac bc
       0.058272492 0.008481301 -0.006554275 -0.021111794
000370 d2 cd 88 bd 1d d0 66 bc 47 f4 c0 bd e2 2c ca 3c
       -0.06679882 -0.014087704 -0.09421592 0.024679605
000380 fd 4c 91 3d a4 11 c1 3c e2 36 d3 3c f3 d1 6d bc
       0.070947625 0.023567982 0.025783006 -0.014515388
000390 eb 06 b2 3d 98 bd bc 3c 39 52 b4 3c bd 57 5e bd
       0.08692726 0.023039624 0.022011863 -0.054282892
0003a0 8e 42 93 3c 32 4d 84 bd 1d 60 6e bd 5e 2e cf 3d
       0.017976072 -0.06460036 -0.05819713 0.10116266
0003b0 8b a0 b4 3d 89 cb a0 bd e9 1e b9 3d 80 79 e3 3b
       0.08819684 -0.07851321 0.09039099 0.006941974
0003c0 c7 7b 5e 3c fa 12 e0 3d 6d e1 9b 3d 32 b8 98 3d
       0.0135793155 0.109411195 0.07611356 0.074570075
0003d0 e9 c5 f4 bc cd 47 d7 3d a9 73 ab 3b 4e 2d 4d 3d
       -0.029879527 0.10511742 0.0052322936 0.050092034
0003e0 62 ec 22 bd 16 cd ae bb 0c 68 c4 3d ec 5f 33 3d
       -0.039776213 -0.0053345067 0.09590158 0.04379265
0003f0 4c 32 5e bd 88 8e d3 3d 52 ab f3 bc 95 a1 9e bd
       -0.054247186 0.1032992 -0.029744778 -0.07745663

model_inner.2.bias f4 [128]
000000 b0 c9 79 bd cb d3 b5 3d 67 6c fb 3d ec 3e 35 3c
       -0.06098336 0.08878287 0.122765355 0.011062365
000010 b4 2f 0e bc 8a 78 96 bd f7 88 22 3d 30 97 6e 3d
       -0.0086783655 -0.0734721 0.0396814 0.058249652
000020 25 88 d6 3d 4d ba a2 bd 69 63 d7 3d 0d 3c e5 3d
       0.10475186 -0.0794569 0.10517008 0.111930944
000030 21 07 64 3c b8 2b 31 bd 4e 7d d4 3c 26 e2 5d bc
       0.013917715 -0.043254584 0.025938656 -0.0135426875
000040 56 2c d6 3d c1 a4 de bc 12 16 05 3d 87 fc cb 3d
       0.10457675 -0.02717817 0.03249175 0.09960275
000050 d8 33 00 3c b7 24 a0 bd 89 7a 7f bd 21 ae d6 3c
       0.0078248605 -0.07819503 -0.062372718 0.026206078
000060 32 d3 8f bd 2e 7d a8 bd 4f 8c 0a 3c b5 82 a6 bc
       -0.07022704 -0.08227001 0.008456304 -0.020325998
000070 0a 1a e7 3d df c4 d8 3d ee 5a 76 bc e0 dc c6 3b
       0.112842634 0.10584425 -0.015036328 0.006068811
000080 5f 5c b1 3d 8f 3a 1e 3d d0 c9 7f 3d c0 86 aa 3a
       0.086601965 0.038630065 0.062448323 0.0013010129
000090 3d 89 4b 3c 5e ef 94 3d 94 56 be 3d ae d9 c2 3c
       0.012422857 0.07272218 0.09293857 0.023785438
0000a0 38 4c 2d bd c0 7c 6a 3b 8b 7d a9 3c 21 81 96 3d
       -0.042309016 0.0035779923 0.020689746 0.07348848
0000b0 df 58 51 bd 8a 8a f3 3d 68 a9 88 bd 03 0d a4 bd
       -0.051110145 0.118916586 -0.06672937 -0.08010294
0000c0 cc 78 ef bc a8 57 a9 3c 92 0d 52 bd 56 ce eb 3d
       -0.029232405 0.02067168 -0.051282473 0.11513965
0000d0 ec f3 9e bd 4c 49 97 bd 34 26 4b bd 7b ab 3c bd
       -0.07761368 -0.07387027 -0.04959698 -0.046061974
0000e0 fc 75 75 bc 6d 68 d3 3c 67 5c 9c 3c ba 67 47 3c
       -0.014981743 0.02580663 0.01908703 0.012170726
0000f0 0d 00 88 3b be 22 cc 3c a9 69 9c bd f9 7e 5a bd
       0.0041503967 0.02491891 -0.076373406 -0.053343747
000100 55 ea 56 bd 04 c2 b3 bd d3 a8 30 bd 85 91 c3 3d
       -0.05246957 -0.0877724 -0.043129753 0.0954924
000110 80 72 5a bc fc f3 0b bd 87 87 e2 3d ba 91 ee 3d
       -0.013332963 -0.03416823 0.11061006 0.11648889
000120 e0 22 1e 3d 97 8a 1d 3d 4c e4 a9 bc 1d 8a 9b bd
       0.03860748 0.038462248 -0.020738743 -0.075947024
000130 28 ea e6 3d bf 7f f0 3d cc 64 4b 3c b6 1a 6f bd
       0.112751305 0.11743116 0.012414169 -0.058375083
000140 96 e2 0b bd 66 f3 b1 bb 9f 9f 06 bd 6f 48 c6 3d
       -0.034151636 -0.0054306267 -0.03286707 0.09681784
000150 37 8d d4 3d 77 db ed bc 3c 68 9e 3d bf 93 18 3c
       0.10378497 -0.029035313 0.07734725 0.009312569
000160 c1 07 9a bd da 43 ae bd cd 52 a2 bd ae 93 77 3d
       -0.0752101 -0.085090354 -0.07925949 0.060443573
000170 ba 9f 93 bd 89 83 c6 3d 7b 3a 52 3d e9 cc a0 bd
       -0.072082 0.09693057 0.051325303 -0.078515835
000180 f3 2e af 39 64 06 f8 3d bf 30 a8 bd 2f c0 3f bd
       0.0003341358 0.12110594 -0.082124226 -0.04681414
000190 91 9e a3 3d 00 d5 00 3d 43 46 bd 3d 18 a9 da bc
       0.079892285 0.031453133 0.09241917 -0.026691958
0001a0 63 9b 65 3d 9f 18 ba 3d 72 76 a6 bd ac cd 9e bd
       0.05605639 0.09086727 -0.081280604 -0.077540725
0001b0 6e 11 4a bd 4c 8d d0 3d 65 58 69 3d dd af 81 bd
       -0.04933303 0.101832 0.056969065 -0.063323714
0001c0 6b 5b 2c bd ec 51 be 3d 42 e5 8e 3c 6c 39 5a 3d
       -0.04207937 0.09292969 0.017443303 0.053277418
0001d0 cd 51 03 3d d2 55 d5 3d 40 c6 16 3d 7f 7c 79 3d
       0.032060433 0.104167596 0.03681016 0.060909744
0001e0 8b 2d 3a 3d 22 65 f8 3d 70 51 f7 3c 19 94 f2 3d
       0.04545359 0.121286646 0.0301902 0.11844654
0001f0 ee af 8c bd e1 34 8a 3d 56 d5 8e 3a 5a 3f a9 3d
       -0.068694934 0.06748367 0.0010897319 0.082640365

model_inner.4.weight f4 [64, 128]
000000 f0 5f b1 3b 88 26 fa 3c 69 90 14 bd 68 58 68 bc
       0.005413048 0.030535951 -0.036270533 -0.014181234
000010 61 79 b3 3d 00 a4 a7 ba 08 ab e3 3c de 07 05 3d
       0.087633856 -0.0012789965 0.027791515 0.032478206
000020 ac 18 95 bc b8 07 99 bd 54 b8 e5 bc 3b 16 9c 3d
       -0.018200241 -0.07472175 -0.028041996 0.076214276
000030 c0 86 ff ba d1 95 ad bd d3 80 35 bd 58 7e 7e bd
       -0.0019495115 -0.08475841 -0.04431231 -0.06213221
000040 f8 84 6e bd 40 e2 db 3a 97 bc a2 3d a0 8c 82 3c
       -0.058232278 0.0016775802 0.07946127 0.015936196
000050 e6 bd 0e 3d 03 d4 a9 3d 38 c5 93 bd 62 8e 9f bd
       0.03484907 0.08292391 -0.07215351 -0.07790829
000060 ef 5d a9 3d f8 3b d0 3c 2c 2a d5 bc e8 0e 78 bd
       0.082698695 0.02541922 -0.026021086 -0.06056109
000070 35 df ac 3d 85 a5 52 bd 00 0a ba 3a 5a 56 a5 bd
       0.08441011 -0.051427383 0.0014193654 -0.08073111
000080 54 bb 7a bd a8 f8 ba 3c 9c d4 a3 3c 20 6e 1d 3b
       -0.061213806 0.022823647 0.019998841 0.0024021938
000090 4e f8 0d 3d 97 35 1b bd ec 1b 0c 3d f9 85 9e bd
       0.03466063 -0.037892904 0.034206316 -0.07740397
0000a0 e2 7a 78 3d cb e8 61 bd 2b 78 0c bd 4a 57 5c bd
       0.060664065 -0.05515365 -0.03429429 -0.053794183
0000b0 40 76 c4 bc 00 3e 33 b9 8e c2 68 3d ac 28 02 bd
       -0.023982167 -0.00017093867 0.056826167 -0.03177707
0000c0 00 7b a7 39 b6 36 af bd f3 d6 a4 3d 70 6a a1 3b
       0.00031944364 -0.08555357 0.08048811 0.0049260184
0000d0 ec 4c df bc 0f dd a1 bd b3 63 87 3d 4a 96 66 bd
       -0.027258359 -0.07903492 0.06610813 -0.05629567
0000e0 d0 91 5a 3c 80 71 1f ba 23 ea 9e 3d 00 b8 07 39
       0.0133404285 -0.00060822815 0.07759502 0.00012943149
0000f0 f0 19 b0 bb 16 b4 d4 bc 5a 4b 36 3d f0 99 b6 3b
       -0.0053741857 -0.025964778 0.044505455 0.00557255
000100 50 6c 06 3c 10 f0 8c 3c 26 df 26 3d 3a 77 28 3d
       0.008204535 0.017204314 0.040740155 0.04112933
000110 f4 11 c5 bc fb 5e 9a bd 00 cc 21 b9 04 2a 96 bd
       -0.024056412 -0.07537647 -0.00015430152 -0.073322326
000120 48 6d 3d 3c fe 63 8c bd 64 0d 8a bc d1 dd 92 3d
       0.011561699 -0.068550095 -0.016852088 0.07171214
000130 00 ef 91 3b c8 3d b4 bd f0 0c b3 bb 57 2d 2b bd
       0.00445354 -0.08800846 -0.0054641888 -0.041791286
000140 20 c5 1b bb 38 d1 c9 3c c2 e7 72 3d dc 4e 5c bd
       -0.0023768619 0.024635896 0.059303053 -0.053786144
000150 b0 e8 7f bc 41 55 82 3d 3c a3 7e bd a6 e4 4e bd
       -0.015619442 0.06363917 -0.06216739 -0.050511025
000160 6a 95 23 bd 74 9f aa bd 54 bb cc bc 60 a8 ad bc
       -0.039937414 -0.083311945 -0.024991669 -0.021198452
000170 ef 88 03 bd 34 a4 48 bd d2 32 95 bd 85 8b 9b bd
       -0.032113012 -0.04898472 -0.07285084 -0.075949706
000180 31 2a 8f 3d 45 31 95 3d bb 2a b3 bd d6 d6 21 3d
       0.06990469 0.07284788 -0.087483846 0.039511524
000190 38 f4 50 bc 13 1e 4a bd f5 23 a8 3d 00 78 bf ba
       -0.012753539 -0.049345087 0.08209983 -0.0014607906
0001a0 20 ee f2 bc 9b 44 91 3d 9e cc 8f bd c7 a4 a4 3d
       -0.029654562 0.070931636 -0.070214495 0.08039241
0001b0 b1 82 07 bd 97 6c a1 bd 20 50 54 bd 8a 80 1e 3d
       -0.03308362 -0.0788204 -0.051834226 0.038696803
0001c0 f6 d4 5d bd 72 b6 0b 3d 68 ae 21 bd d8 d8 79 bc
       -0.054158174 0.03410954 -0.039472967 -0.0152494535
0001d0 17 83 80 3d bc 0e a9 bd cc b9 03 3d fa 67 41 3d
       0.062750034 -0.082547635 0.03215961 0.0472183
0001e0 72 b4 45 3d c4 f9 a8 3c ec 26 0e 3d e0 69 29 3b
       0.04826779 0.02062691 0.034705088 0.002585046
0001f0 da 98 33 3d 0b cf 30 bd ac d2 07 3d b3 75 ab 3d
       0.043846942 -0.0431662 0.033159897 0.08372059
000200 13 ff 1c bd 74 ec eb 3b 8a 33 23 3e 11 73 ec 3c
       -0.038329195 0.0071998183 0.1593763 0.028863462
000210 14 b0 b5 3d 1a 7a fe bd a9 e7 26 39 be a8 08 3e
       0.08871475 -0.12425633 0.00015917294 0.1334562
000220 a8 fd d6 3d c0 6b e9 bd 22 4e cc 3c 24 a6 85 3d
       0.104976 -0.11397505 0.0249396 0.065258294
000230 86 1a c4 3c 28 23 3c 3c db 8c e7 3d a7 79 75 bd
       0.023938429 0.011482991 0.11306163 -0.05993047
000240 53 14 26 3e a6 a9 a1 bd 1c c7 cc 3c 69 df 10 3e
       0.1621869 -0.07893686 0.024997286 0.14147724
000250 da 05 c7 bd 4f 32 a6 3b 9b ed 6e 3d 81 0d 17 3c
       -0.09717913 0.005071915 0.058332067 0.009219528
000260 72 bb 07 be f8 75 d0 3c 3a 2f 0a be ce c6 05 bd
       -0.13255098 0.025446877 -0.13494578 -0.032660298
000270 3b e7 1c 3e 1c d9 d6 3d 73 b1 8d bb c2 87 b3 bd
       0.15322582 0.10490629 -0.004324132 -0.08766128
000280 7c 75 44 3d 9f 4d c7 3d 6c af 2a 3d 00 81 94 bd
       0.047963604 0.09731602 0.0416712 -0.07251167
000290 bd 1b c5 bd 47 5a 2a bb c8 72 99 bb 0e 27 a8 3c
       -0.09624431 -0.002599375 -0.0046828724 0.020526435
0002a0 d4 bb dd 3c 70 9b d7 3b c1 f6 b8 3d 56 91 cd 3c
       0.027067102 0.006579809 0.090314396 0.025093716
0002b0 84 7d 04 bd 66 36 0f 3d 4c 7b cb bc 00 a9 a4 bb
       -0.032346264 0.034963988 -0.024839066 -0.005025029
0002c0 dc db 8d bd 3e 51 8c bd 10 ac c5 bb a0 45 f6 3d
       -0.069267005 -0.06851433 -0.0060324743 0.12024999
0002d0 33 f4 4a 3a 6e fc 8b bd 03 29 05 be 0b 5c c0 3d
       0.0007742077 -0.068352565 -0.13003926 0.09392556
0002e0 bd e7 d8 bd 2b a2 8a 3c ce 3a 1c 3c e2 c7 3e bd
       -0.105910756 0.01692303 0.0095355045 -0.04657734
0002f0 83 74 aa 3d 4e ab 13 3c 46 51 af 3c 08 85 cd 3c
       0.08323004 0.00901301 0.021401059 0.025087848
000300 32 d1 63 3d b2 58 48 bd a1 c7 af bd d1 74 0c 3e
       0.055619426 -0.04891271 -0.08582998 0.13716437
000310 4d aa be 3d fd a8 73 bd 40 7b e9 3d 10 b2 d7 3d
       0.09309826 -0.05948733 0.11400461 0.105320096
000320 a0 6c 7f 3d 0d a5 08 bc 6a 35 7d bd 6f b1 1f bd
       0.062359452 -0.008340132 -0.061818518 -0.038987573
000330 4a ce ba 3d 19 b0 de bc d3 80 62 3d 0f 6d a7 3d
       0.09121378 -0.02718358 0.055298638 0.08175098
000340 c2 1b ff bb 98 31 5f 3d dc 7b 85 bd b4 95 8e 3d
       -0.0077852914 0.054490656 -0.06517765 0.06962147
000350 2e f5 d4 3d ea b6 c6 3d 7f 62 e5 3d 41 d3 19 3d
       0.10398327 0.09702857 0.11200427 0.037554983
000360 22 f5 cd bd 4d 1f 57 3d a9 3b 89 bd ba 98 71 3d
       -0.10056521 0.052520085 -0.067008324 0.058983542
000370 a8 38 7a bd 8c 23 9c 3d 16 f6 e1 3d cc be f7 bd
       -0.061089188 0.076239675 0.11033265 -0.120969385
000380 5e 14 b3 bc 72 78 04 3e e0 b8 37 bd 5a fa c9 bb
       -0.021860298 0.12936571 -0.044854045 -0.0061638774
000390 e5 0e b1 bd 8f b8 ed 3c 2a 52 d5 3d 25 3c 7d bd
       -0.08645419 0.029018668 0.10416062 -0.061824936
0003a0 7d 6a d1 3c 5b 2e cb 3c 7c b8 7b 3d b0 c9 12 3c
       0.025563473 0.024802377 0.061455235 0.008959219
0003b0 96 44 0d be b0 80 bb 3d 62 84 00 bd ac aa c4 bd
       -0.13795695 0.091554046 -0.03137625 -0.096028656
0003c0 f8 b5 84 bc 2a b6 cc 3d b6 09 24 bd ef 7d e2 3d
       -0.01620005 0.099956825 -0.040048324 0.11059176
0003d0 69 be 9c 3d 3a b8 af bc 85 29 37 3d 21 b1 c4 3c
       0.07653505 -0.02145015 0.04471733 0.024010243
0003e0 f2 a7 a7 3d 4c 11 08 3d 83 a8 01 3c 1e a5 bc 3d
       0.0818633 0.03321962 0.0079137115 0.09211181
0003f0 00 1a fe ba f8 ee b2 3d d9 7a d3 bd 48 a7 1a 3d
       -0.0019386411 0.08736986 -0.10326166 0.037757188

model_inner.4.bias f4 [64]
000000 a2 ef 8a bd eb b9 48 3d e2 28 ef bc 2d 0c b3 3c
       -0.067839876 0.04900543 -0.0291943 0.021856392
000010 32 56 95 bc 09 e1 6f bb bc 9c 98 3d 1a 91 6a 3d
       -0.018229578 -0.0036602637 0.0745177 0.057267286
000020 fb 26 20 3c 05 c5 44 3d 2f e3 46 3d 99 00 44 3d
       0.009774919 0.048039455 0.048556503 0.047852132
000030 81 66 3e 3d 0c 29 96 bd e9 09 eb bb 46 3b d0 3c
       0.046484474 -0.07332048 -0.0071728122 0.025418889
000040 fc 8f 11 bd 98 c4 d7 bc 08 07 77 bd d8 e0 f6 3c
       -0.035537705 -0.02633886 -0.06030944 0.03013651
000050 4d fb a8 3d d7 3d 25 3d 95 dd 98 bd df 57 68 3d
       0.08251057 0.04034218 -0.074641384 0.056724425
000060 02 1c 63 bd 1b 2b 7d 3d 11 11 99 bd 63 70 ff 3c
       -0.055446632 0.061808687 -0.07473958 0.03118152
000070 b2 13 b7 3d e3 f1 9d bd dd ee 45 bc 88 83 05 bd
       0.089393035 -0.07712152 -0.012080875 -0.03259614
000080 e6 61 ff bb 2c 8c 69 3d 30 f0 9c 3d 74 12 30 bd
       -0.007793653 0.057018444 0.07663 -0.04298635
000090 ed 82 51 3d 66 ec 9b 3c de f1 82 bd 10 fd 38 bd
       0.05115025 0.019033622 -0.06393789 -0.045163214
0000a0 9e 69 12 3d eb 8e d4 3c 24 c8 3c bd cc ab dd 3d
       0.035745256 0.025947055 -0.046089306 0.10823783
0000b0 0b 21 3c 3d 45 01 bd bc 85 fa 0c bd 88 9b 7c 3d
       0.04592995 -0.023071894 -0.0344186 0.061671764
0000c0 5a ef 15 3d a6 65 9f bc 4d a6 fb 3c 9e da 63 3c
       0.036605217 -0.01945765 0.030718947 0.013907103
0000d0 14 6f df bc ca f2 94 3d ed 2c e4 bc 64 81 dd 3d
       -0.027274646 0.07272871 -0.027853454 0.10815695
0000e0 7c 74 47 3d 48 c7 ec 3c f6 f1 05 bd 30 cb 75 3d
       0.048695073 0.028903618 -0.032701455 0.060008228
0000f0 e6 83 8c bd a8 af 8a 3d db 02 1c 3d 07 b1 f4 bb
       -0.06861095 0.06771785 0.03808866 -0.0074673924

model_inner.6.weight f4 [2, 64]
000000 50 c8 ed 3c a2 1a b8 3d a0 5f 1c bc df f4 3d 3e
       0.02902618 0.08989455 -0.009544283 0.18550442
000010 18 03 92 3d a2 ee e3 3d d8 a1 94 3d ac 5a e4 bd
       0.07129496 0.111295 0.07257432 -0.11150107
000020 9a 2e 1f 3d 2d 34 cd 3d 03 68 62 3c ee 7b c9 bd
       0.038862802 0.10019717 0.013818744 -0.09838091
000030 06 a2 23 3e 36 53 44 3d b5 89 c7 3d 4b 11 82 3d
       0.15979776 0.04793092 0.097430624 0.063509546
000040 d0 94 28 be 01 40 fc bd be 34 e6 bd 60 db aa 3b
       -0.16463017 -0.12316895 -0.112405285 0.00521414
000050 3c 8b 1e bc fa d4 29 be 91 8f c2 bd 0b f3 21 3d
       -0.009676751 -0.1658515 -0.09500039 0.039538424
000060 82 ba f5 3d 05 bc dc 3d 16 0f ac bd b7 7a 40 be
       0.11998464 0.107780494 -0.08401315 -0.18796812
000070 c1 ba 34 3e 8c 57 d9 bd 15 a3 99 bd 28 7a 38 bd
       0.17649366 -0.10612401 -0.075018086 -0.045038372
000080 e6 1a 0e 3e b0 f4 c7 bd 88 08 09 3e 4f 1f d8 bd
       0.13877448 -0.09763467 0.1338216 -0.10552847
000090 76 b2 3c 3e 5f 43 35 3e d4 4f 62 3d a8 03 ad bd
       0.18427452 0.17701481 0.05525191 -0.08447963
0000a0 cf 07 1b be f8 f0 36 3e 0a 6e c2 bd 90 0b dc 3d
       -0.15139697 0.1786536 -0.094936445 0.10744393
0000b0 84 4c 44 be ed 84 1d be a2 e7 48 3e 80 8f 33 bd
       -0.19169813 -0.15382738 0.19619611 -0.043838024
0000c0 dc ab ad bd 03 12 e8 bd 99 93 bc bd 8a cc 28 3e
       -0.08480045 -0.113315605 -0.092078395 0.16484275
0000d0 ba 86 a7 bd f1 03 0b be 97 af b9 bd b0 eb 25 3e
       -0.08179994 -0.13575722 -0.09066694 0.16203189
0000e0 c3 8e 40 3d bb ca 0b 3e d3 94 11 3e 09 99 aa bd
       0.04701115 0.13651554 0.14216928 -0.083299704
0000f0 a8 a0 e8 3c d1 78 14 be 58 04 2e be 15 2f 75 3d
       0.02839692 -0.14499213 -0.16993845 0.059859354
000100 d8 3d fc 3c 39 93 46 bd d4 8a 69 3d aa d5 6f 3c
       0.030791208 -0.048480246 0.057017162 0.014638344
000110 b8 57 3f be dc d6 b2 bd b2 8e 72 bd 95 e5 a1 3d
       -0.18685806 -0.087323874 -0.059218116 0.079051174
000120 50 60 8c 3d a6 1c cb bd 3f 8a 0f be 86 7d 1f 3e
       0.06854308 -0.09917574 -0.1401758 0.15575227
000130 88 37 aa bd e7 97 21 bc 2f 1b e1 bd a9 0b 7e 3d
       -0.08311373 -0.0098628765 -0.10991513 0.06202284
000140 7b e9 ac 3d 30 e2 b3 3d b9 71 1d 3e 88 7c 54 3d
       0.0844297 0.08783376 0.15375413 0.051876575
000150 4d 21 1b be 1c 08 df 3d 33 1d 9f 3d aa e1 f7 bd
       -0.15149422 0.108902186 0.07769241 -0.12103589
000160 64 0b c7 bd 43 3e 29 be bc 2e 8a bd 51 12 09 3e
       -0.097189695 -0.16527657 -0.06747195 0.13385893
000170 c8 6f b2 3b 0a 5e 2f 3e bb 25 22 3e 98 32 f6 3d
       0.0054454543 0.17125717 0.15834706 0.12021369
000180 91 0f 38 be b9 89 38 3e aa 4d dc bd 32 2d 3e 3d
       -0.17974688 0.18021287 -0.10757001 0.04642982
000190 64 30 04 be b0 8f 6e 3d 5c 58 68 bd 32 1a b4 3d
       -0.12909085 0.0582425 -0.05672489 0.08794059
0001a0 64 00 e9 3d b1 22 30 be 04 35 2a 3d 6a f9 41 bd
       0.11377028 -0.17200734 0.041554466 -0.047357
0001b0 d4 5b 3b 3e 68 0d 53 3d 93 bd 9e 3c 8b 1f ae 3d
       0.18296748 0.051526457 0.019377505 0.0850211
0001c0 ac 53 18 3e a7 80 40 3e 57 9b ab 3d 2b f3 d7 bd
       0.14875668 0.18799077 0.08379238 -0.105444275
0001d0 a4 10 82 bd 59 e0 ee 3d bf c0 c3 3d 93 53 2f bd
       -0.0635083 0.11663885 0.09558248 -0.042804312
0001e0 b8 90 ed bd b1 8c e3 bd f5 55 d0 bd ed 5e 44 3d
       -0.115998685 -0.11110819 -0.10172645 0.04794209
0001f0 7e c3 94 3d dd 37 42 3d 45 a3 d2 3d 72 1c e1 3d
       0.0726385 0.047416557 0.102850474 0.10991754

model_inner.6.bias f4 [2]
000000 f1 3c 88 3c 54 8a 43 3d
       0.016630622 0.04773934
