save/BCNN_BreastCancerWisconsin_e200.pt (torch_old, 116948 bytes, 8 tensors)

hidden_model.0.weight f4 [128, 30]
0	0x3bc642ab	0.006050428
1	0xbc5008a0	-0.012697369
2	0x3a13d469	0.00056392566
3	0xbc09a2a4	-0.008400593
4	0xbc21feb1	-0.009887383
5	0x3cd66d12	0.026175056
6	0xbc887975	-0.016659478
7	0xbc901b26	-0.01759107
8	0xbb70a67c	-0.0036720326
9	0x3ca0ee8b	0.019644996
10	0xbd13e9cd	-0.03611164
11	0x3c1185e3	0.008882019
12	0xbcd40182	-0.025879625
13	0xbca3860a	-0.019961376
14	0xbb962205	-0.004581692
15	0x3c9429c4	0.018086322
16	0x39e8eb70	0.00044425903
17	0xbb1ad9be	-0.002362832
18	0x3c4aaf86	0.01237095
19	0x3c70f5c4	0.014707033
20	0xbcc90c3c	-0.024541967
21	0xbc3fd19e	-0.0117076915
22	0xbc3cae19	-0.0115161175
23	0xbca18d22	-0.019720618
24	0xbca0294c	-0.019550942
25	0x3b9ad60d	0.004725224
26	0xbc02846a	-0.00796614
27	0xbc1f96a8	-0.009740509
28	0xbc8612a6	-0.016366314
29	0xbbfad89c	-0.0076552164
30	0x3ba5fe27	0.0050656977
31	0x3bac4399	0.0052570817
32	0x3c32a494	0.010903496
33	0x3c807c76	0.015684348
34	0x3c9195dc	0.017771654
35	0xbc50095e	-0.012697546
36	0x3c965c2f	0.018354503
37	0x3cb05ea3	0.021529501
38	0x3ba11afd	0.0049165473
39	0xbb98c0bb	-0.004661647
40	0x3d1cde03	0.038297664
41	0xbb650b47	-0.0034949349
42	0x3ccf7713	0.025325334
43	0x3cae0b4f	0.021245627
44	0x3c10ae80	0.008830667
45	0xbc672740	-0.014108479
46	0x3a9f654a	0.0012160924
47	0x3bad08b7	0.00528058
48	0xbbf1853d	-0.0073706196
49	0xbc3bf606	-0.011472231
50	0x3cee3dec	0.029082261
51	0x3b35076a	0.0027622827
52	0x3ce192aa	0.027535755
53	0x3cca6346	0.02470554
54	0x3d06d5da	0.03291879
55	0xb9b87683	-0.00035183513
56	0x3c7a8b5c	0.015292015
57	0x3cb91bbb	0.02259623
58	0x3cc6f62c	0.024287306
59	0x3c58c4a2	0.013230475
60	0x3d795ab1	0.060877506
61	0x3d210bbb	0.039317828
62	0x3dd368ba	0.103227094
63	0x3db7bcbe	0.089715466
64	0xbceb6c80	-0.02873826
65	0xbb36ad86	-0.0027874424
66	0x3db4e255	0.08832232
67	0x3d824168	0.063601315
68	0x3b200e93	0.002442275
69	0xbda0c14b	-0.07849368
70	0x3d5bf21a	0.053697683
71	0x3cc0b871	0.023525449
72	0x3d4daf0e	0.050215773
73	0x3d583a6d	0.052790094
74	0x3b87e230	0.0041468367
75	0xbd90ab57	-0.070639305
76	0x3ae4326b	0.0017410045
77	0x3ce3e904	0.027821071
78	0xbd2028ed	-0.03910153
79	0xbd0bf97e	-0.03417348
80	0x3e0b3975	0.13596137
81	0x3dbc61ca	0.09198339
82	0x3b9d4dea	0.004800548
83	0x3ddbd6f8	0.107343614
84	0x3df11b18	0.11772746
85	0x3d811bbb	0.06304117
86	0x3cb72709	0.02235748
87	0x3e172d43	0.1476336
88	0x3d45dbd4	0.048305348
89	0x3d83e118	0.064394176
90	0xbc0163e2	-0.007897349
91	0x3ab02b96	0.0013440724
92	0x3b2b09c5	0.0026098352
93	0xbd3518c3	-0.044213068
94	0x3d02ed16	0.031964384
95	0x3d0fdd58	0.0351232
96	0x39181c10	0.00014506304
97	0xbdb511ec	-0.08841309
98	0x3daf930f	0.08572971
99	0x3dc03c15	0.0938646
100	0xbdd54be3	-0.10414865
101	0x3d0bca54	0.034128502
102	0xbd8b53a4	-0.068030626
103	0xbd6746e6	-0.0564641
104	0xbd19b7c9	-0.037528787
105	0x3da65944	0.08122495
106	0x3bde7744	0.00678912
107	0xbcea9872	-0.028637145
108	0x3d6220a2	0.055206902
109	0x3d362d57	0.044476833
110	0xbca287c9	-0.019840138
111	0x3cbd809a	0.023132611
112	0xbd8a225a	-0.06744833
113	0xbd89ffeb	-0.067382656
114	0x3b1a9c51	0.0023591707
115	0xbb8dd9a5	-0.0043289238
116	0xbc1b0c11	-0.009463326
117	0xbd8f8ed1	-0.07009662
118	0xbd8922af	-0.066960685
119	0xbd00c041	-0.031433348
120	0x3c3ac753	0.011400062
121	0x3c1e35ce	0.009656383
122	0xbc50f801	-0.012754441
123	0xbd02e40f	-0.031955775
124	0x3c68baac	0.014204662
125	0x3d7dabf0	0.06193155
126	0xbcb655b4	-0.022257663
127	0xbd277651	-0.04088432
128	0x3cd90d1e	0.026495513
129	0x3afb3291	0.001916485
130	0xbd879237	-0.06619685
131	0x3cbe87f4	0.023258187
132	0xbd304083	-0.043030273
133	0xbd12507a	-0.03572128
134	0xbc2949fc	-0.010332581
135	0x3d3b9dc7	0.045804765
136	0x3bfe2f57	0.007757108
137	0x3bc238cc	0.005927181
138	0x3cc2481d	0.023716027
139	0x3cbfef70	0.023429602
140	0x39d8244f	0.00041225782
141	0xbd39fc28	-0.04540649
142	0xbd562d95	-0.052289564
143	0xbd1c79dd	-0.038202155
144	0xbccd217f	-0.025040386
145	0xbc8a9542	-0.016916875
146	0xbccba9c7	-0.02486123
147	0xbd283cc9	-0.041073594
148	0xbcda751f	-0.026667176
149	0x3ba80251	0.0051272293
150	0x3c026133	0.007957744
151	0x3d8c0480	0.06836796
152	0x3d0d32fc	0.03447245
153	0x3d1b710a	0.0379496
154	0x3d8bd001	0.06826783
155	0xbca1f954	-0.01977221
156	0x3d782257	0.060579624
157	0x3d3b98e8	0.04580012
158	0xbb2fbcce	-0.0026815417
159	0xbd34f332	-0.04417724
160	0x3deab520	0.11460328
161	0xbc3dc3c3	-0.011582318
162	0x3d94c559	0.072642036
163	0x3d85438c	0.06507024
164	0x3ce2d8fa	0.027691353
165	0xbd40f7e7	-0.047111418
166	0x3c2cdf7e	0.010551332
167	0xbbd805a4	-0.0065924693
168	0xbc08bbb7	-0.008345536
169	0xbd0a1b52	-0.03371746
170	0x3db7de2b	0.08977922
171	0x3dc758e8	0.097337544
172	0x3d7b2dc1	0.06132293
173	0x3d938f41	0.07205058
174	0x3d813186	0.06308274
175	0x3c9531a0	0.01821214
176	0x3d2f031b	0.04272757
177	0x3c1d2e6f	0.00959359
178	0x3d7077d6	0.058708034
179	0x3d62f12b	0.055405777
180	0xb6316c79	-2.6438195e-06
181	0x2cf1c0ec	6.8710506e-12
182	0xbaaf1478	-0.0013357541
183	0x2d8277ff	1.4832578e-11
184	0x2bb14c8c	1.2597852e-12
185	0x33d7fb95	1.005748e-07
186	0xb155ae72	-3.109474e-09
187	0x38f004dd	0.00011444998
188	0x37930169	1.7524422e-05
189	0xadf37295	-2.7676786e-11
190	0x2c9d4531	4.46989e-12
191	0xbb14d3cc	-0.0022709249
192	0xb234f9b9	-1.0534159e-08
193	0xb90b8b70	-0.00013308018
194	0xac63d09b	-3.237444e-12
195	0xb95d6cd5	-0.00021116745
196	0xb87774b8	-5.8998092e-05
197	0xb59f74a9	-1.1880376e-06
198	0x3a3eb430	0.0007274775
199	0x2d05f9a2	7.615604e-12
200	0xb86e31dc	-5.6790057e-05
201	0xb049d33a	-7.3423545e-10
202	0xba5262df	-0.0008025597
203	0xae6f41c7	-5.440073e-11
204	0xacb1acfa	-5.049847e-12
205	0xba509208	-0.00079563307
206	0x372abf3d	1.0177316e-05
207	0x2f0d1aea	1.2833437e-10
208	0xb17cf1df	-3.6808314e-09
209	0xae8708c0	-6.1406435e-11
210	0x3c1ef3e2	0.009701701
211	0x3cc01ffb	0.02345275
212	0xbae96830	-0.001780754
213	0x3c750ee2	0.014957162
214	0x3c42655e	0.011864988
215	0xbccde4e5	-0.02513356
216	0x3c95c9b0	0.018284649
217	0x3cf127e4	0.029437967
218	0xbb6ffc75	-0.0036618982
219	0xbc360a1d	-0.01111081
220	0x3d37a209	0.044832263
221	0xbbd3b35d	-0.0064605908
222	0x3cf8c83d	0.030368919
223	0x3cd121db	0.025528839
224	0x3c3915f4	0.011296738
225	0xbc8f330d	-0.017480398
226	0x3a99453a	0.0011693605
227	0x3b67adda	0.0035351426
228	0xbc0e7114	-0.008693952
229	0xbc5a43ad	-0.013321799
230	0x3d045324	0.03230585
231	0x3c9d4a99	0.01920061
232	0x3ccb4fde	0.024818357
233	0x3cba1a21	0.022717537
234	0x3d3236aa	0.043509163
235	0x3ad89775	0.001652463
236	0x3c86aa96	0.016438764
237	0x3d15ca0a	0.036569633
238	0x3cd562cd	0.026048088
239	0x3c48b664	0.012250517
240	0xbc1857e9	-0.009298303
241	0xbc9521da	-0.018204618
242	0x3c1d97d8	0.009618722
243	0xbbf7d647	-0.0075633856
244	0xbb85ac53	-0.0040793805
245	0x3ce4afdd	0.02791589
246	0xbcdd37b8	-0.027004108
247	0xbbbb4441	-0.0057149236
248	0x3c8b885b	0.017032793
249	0x3d11dab3	0.03560896
250	0xbd477c8d	-0.048702765
251	0x3c6f265f	0.014596551
252	0xbd00b642	-0.031423815
253	0xbcda8bf7	-0.026678069
254	0xbb822cea	-0.0039726393
255	0x3cb04f7b	0.021522274

hidden_model.0.bias f4 [128]
0	0x3d819d2a	0.06328805
1	0xbd3621c2	-0.044465788
2	0xbdf589f5	-0.11989204
3	0x3e100980	0.14066124
4	0x3dd91047	0.10598808
5	0xbe14bca2	-0.14525083
6	0x33b3973f	8.3628485e-08
7	0xbd4ceb2b	-0.05002896
8	0x3d9f0616	0.07764833
9	0x3e11fbc2	0.14256194
10	0x3ccfb93a	0.025356878
11	0x3cb97ba8	0.022641972
12	0xbdf3b317	-0.11899393
13	0x3e192e67	0.14959107
14	0xb9b3edb6	-0.0003431865
15	0xbe0a3918	-0.13498342
16	0xbb0ce357	-0.002149781
17	0xbc766438	-0.015038542
18	0xbd544646	-0.05182483
19	0xb7d49212	-2.5340389e-05
20	0xbdaa8d1b	-0.08327695
21	0xbdfaedba	-0.12252374
22	0xbe3b1205	-0.18268593
23	0x3e52ec40	0.20597935
24	0x3e431df1	0.1905439
25	0xba255b4c	-0.0006307855
26	0x3d59881c	0.05310832
27	0x3e5f0c1c	0.21781963
28	0xad007894	-7.302731e-12
29	0x3cf00207	0.029297842
30	0xbc44eb18	-0.012018941
31	0xbda4959d	-0.08036349
32	0x3d49e25f	0.04928815
33	0xbd72b50e	-0.0592547
34	0x369fad59	4.7587496e-06
35	0x39d84a72	0.00041254197
36	0x3e181a76	0.14853844
37	0x34de2572	4.1377967e-07
38	0xbadab99e	-0.0016687398
39	0x2e68dcc1	5.294676e-11
40	0x3da132e5	0.078710355
41	0x3bac2d78	0.0052544437
42	0x3e35e8bc	0.17764562
43	0xbe1833f3	-0.14863567
44	0xb73e278e	-1.1334092e-05
45	0x3308b990	3.1833736e-08
46	0xbe4b6c9c	-0.1986565
47	0x3e133b6f	0.14378141
48	0x3e3d3003	0.18475346
49	0xbdc887dc	-0.09791538
50	0xba290a99	-0.00064484176
51	0x3da69b1b	0.08135053
52	0x378ede4e	1.7031238e-05
53	0xbb18bf4c	-0.0023307381
54	0x368392f5	3.9212123e-06
55	0x32e45663	2.6581978e-08
56	0x3e04406e	0.12915203
57	0xbba21776	-0.0049466444
58	0x2d96ba34	1.7135716e-11
59	0x3952ea89	0.00020114532
60	0x3e598b1c	0.21244472
61	0xbd0c4ea0	-0.03425467
62	0x3dab3c29	0.08361084
63	0x3e471582	0.19441798
64	0x3da0a9c0	0.07844877
65	0x3e34ff62	0.17675546
66	0xbd797231	-0.060899917
67	0xbe2dd564	-0.16975933
68	0x3de516c8	0.11185986
69	0x3de67ea0	0.112546206
70	0xbd1990e7	-0.037491705
71	0xbac25723	-0.0014826994
72	0x3e0e3ce2	0.13890412
73	0x3e80f33e	0.2518558
74	0x3e0a106d	0.13482828
75	0x3ddda551	0.10822547
76	0xbd1f3a26	-0.038873814
77	0x2bf266f0	1.7223705e-12
78	0x374965fa	1.2004277e-05
79	0x3c87a665	0.016558835
80	0x3d7e8894	0.06214197
81	0xb77f4df8	-1.5217338e-05
82	0x3e3b786c	0.18307656
83	0xbc51829d	-0.012787488
84	0xbddbfef4	-0.10741988
85	0xba0860d9	-0.00052024197
86	0x3e3b61c5	0.18299015
87	0x3e7d779a	0.24752656
88	0xbe09f325	-0.13471659
89	0xbd44ed61	-0.048077945
90	0x3d17c726	0.037055157
91	0x3d0c6219	0.03427324
92	0x3dad9e47	0.08477455
93	0xba026c3a	-0.00049752335
94	0x3e7f8414	0.24952728
95	0x3e4a56fd	0.19759746
96	0xbd904074	-0.070435435
97	0xbd1f22f8	-0.03885171
98	0xbd9a5b19	-0.07536907
99	0xbe015df7	-0.12633501
100	0x2f467c33	1.805212e-10
101	0xbcac91cb	-0.021065613
102	0x3d0c73c3	0.034290086
103	0x3e117bc9	0.14207377
104	0xbbf4276c	-0.0074509885
105	0xb9bda475	-0.0003617142
106	0x3cd1c259	0.025605367
107	0x3ada3d1c	0.0016650292
108	0xbdcee103	-0.10101511
109	0xba58e488	-0.00082738
110	0x3da8056a	0.08204158
111	0xaf6cd33f	-2.1539125e-10
112	0x3e1676db	0.14693777
113	0xb85a7571	-5.2084626e-05
114	0xb9308b57	-0.00016836576
115	0x3e387e5c	0.18016952
116	0xbdccbb92	-0.09996714
117	0x3df4ef5e	0.11959718
118	0xbafed9f7	-0.0019443621
119	0x3e1edb8e	0.15513441
120	0x3c81de3d	0.015853042
121	0xbd9519ab	-0.072802864
122	0xbe488ecc	-0.19585723
123	0xbcf26d52	-0.029593144
124	0x3c80a827	0.015705181
125	0x3e28f8ee	0.16501209
126	0xb90e4d85	-0.00013571054
127	0x3c1de042	0.009635987

hidden_model.2.weight f4 [128, 128]
0	0x3c54a48b	0.012978683
1	0xbc250a1f	-0.010073214
2	0xbcdb6724	-0.02678258
3	0x3d1cbb03	0.038264286
4	0x3cbe375d	0.023219759
5	0xbd04ba68	-0.032404333
6	0xaa89c05c	-2.4469565e-13
7	0xbc4d4397	-0.012528322
8	0x3c8d6b88	0.017263189
9	0x3cdddc38	0.027082548
10	0x3b5a6347	0.0033323334
11	0x3bf05556	0.0073343916
12	0xbd0619fa	-0.032739617
13	0x3ceeb209	0.029137628
14	0xb8a48cd6	-7.846362e-05
15	0xbce0650e	-0.027391937
16	0x318ad9e4	4.0411e-09
17	0xbc231f3b	-0.009956176
18	0xbc7e0d31	-0.015506075
19	0xaf5267b4	-1.9136231e-10
20	0xbcab4642	-0.020907525
21	0xbcf2dc92	-0.029646192
22	0xbd4c9d94	-0.049954966
23	0x3d10faa4	0.03539528
24	0x3d1db2a8	0.038500458
25	0xb8541077	-5.0560073e-05
26	0x3c88df90	0.016708165
27	0x3d41c77f	0.047309395
28	0xb0a0cd09	-1.1699807e-09
29	0xbbdd77b3	-0.006758654
30	0xbb44bdfd	-0.0030020468
31	0xbc86f09b	-0.016472152
32	0x3c0fd4d5	0.00877877
33	0xbcb3f76a	-0.021968562
34	0x2f43fe9a	1.78256e-10
35	0x38c36b02	9.318256e-05
36	0x3cd3f340	0.025872827
37	0xb4be8e9c	-3.549402e-07
38	0x2f3c5dc4	1.7131813e-10
39	0x3103b663	1.9166684e-09
40	0x3c8a1410	0.01685527
41	0x3a9c6467	0.0011931778
42	0x3d233638	0.03984663
43	0xbcf8e786	-0.030383836
44	0x339f7fa3	7.4272315e-08
45	0x34a8bc02	3.1429232e-07
46	0xbd3a06cc	-0.04541664
47	0x3cbc39b0	0.022976726
48	0x3d16625e	0.036714904
49	0xbca08d6c	-0.019598685
50	0xb9372718	-0.00017466804
51	0x3c7431df	0.014904468
52	0xb79c34f6	-1.8621311e-05
53	0xae020e1c	-2.957111e-11
54	0xb714cd4f	-8.86929e-06
55	0x3461b728	2.102139e-07
56	0x3ce79851	0.028270872
57	0xba91c430	-0.001112109
58	0xad9bc920	-1.7710777e-11
59	0x38f6bd36	0.000117654374
60	0x3d21d59b	0.03951035
61	0xbc1b2190	-0.009468451
62	0x3ca3ce3f	0.019995807
63	0x3d227a8a	0.039667644
64	0x3c891d57	0.016737623
65	0x3ce09c5c	0.027418308
66	0xbcce104a	-0.025154252
67	0xbd2b2099	-0.041779134
68	0x3cb4ccc4	0.022070296
69	0x3ca1757b	0.01970934
70	0xbc983876	-0.01858161
71	0x2d877080	1.5397683e-11
72	0x3cda82a1	0.026673617
73	0x3ccd37ed	0.025051082
74	0x3cc4b872	0.024013732
75	0x3c9582bf	0.018250821
76	0xbc0c51a2	-0.008564385
77	0x2d405a25	1.09339525e-11
78	0x353a5721	6.941719e-07
79	0x3b992581	0.0046736603
80	0x3c3db7b9	0.011579447
81	0x2db45c73	2.0504686e-11
82	0x3cd90915	0.026493588
83	0xbb484039	-0.0030555858
84	0xbcc60ac1	-0.02417505
85	0xb9c4f65a	-0.0003756758
86	0x3cfddf5b	0.030990293
87	0x3d3675ab	0.04454581
88	0xbcf42a1e	-0.02980524
89	0xbc9e591d	-0.019329602
90	0x3a3b09fb	0.0007134971
91	0x3c3c53fe	0.011494635
92	0x3c882a41	0.01662171
93	0x38bd06ac	9.013465e-05
94	0x3d59dacd	0.05318718
95	0x3d1c6e35	0.03819104
96	0xbcd575fb	-0.026057234
97	0xbc90375e	-0.017604526
98	0xbd0c3fe8	-0.034240633
99	0xbd1ce360	-0.03830278
100	0xacd549e1	-6.0620263e-12
101	0xbbd0f29b	-0.006376577
102	0x3ad3fc56	0.0016173224
103	0x3cb6a37c	0.022294752
104	0xbbea0cd7	-0.007142644
105	0x2d17b72b	8.624028e-12
106	0x3c011252	0.007877903
107	0x3a1b2cf9	0.0005919482
108	0xbcc6f6ef	-0.024287669
109	0xad9300df	-1.6712352e-11
110	0x3cb60545	0.02221931
111	0x2e18ea84	3.476909e-11
112	0x3cb82125	0.022476742
113	0xb8d612f6	-0.00010207847
114	0x30ee1718	1.7323343e-09
115	0x3cf84aa0	0.030309021
116	0xbcf68da3	-0.030096835
117	0x3c7f0f31	0.015567587
118	0x33bcf19d	8.7983814e-08
119	0x3ce9c7bb	0.028537622
120	0xbb8a6367	-0.0042232755
121	0xbc813d01	-0.01577616
122	0xbd35183b	-0.04421256
123	0xbbbc91ba	-0.0057546766
124	0x3b9a0f17	0.004701506
125	0x3ce13ce7	0.02749486
126	0xb05655a3	-7.7974444e-10
127	0x3a8755d1	0.0010325258
128	0x383cf667	4.5052173e-05
129	0xb8148587	-3.5410307e-05
130	0xb8d9ba35	-0.0001038205
131	0x38f73048	0.00011786871
132	0x38a9ed95	8.102801e-05
133	0xb8e6ecdc	-0.00011011373
134	0x2e532619	4.8009683e-11
135	0xb83ee770	-4.5515073e-05
136	0x386061a8	5.349671e-05
137	0x38bd1f40	9.018043e-05
138	0x368f9d60	4.280053e-06
139	0x37fd3694	3.0185365e-05
140	0xb8ed8ccc	-0.00011327266
141	0x38c2fbf8	9.297574e-05
142	0xb44954ca	-1.875043e-07
143	0xb8d80a2f	-0.000103015795
144	0x2da1cefd	1.8395502e-11
145	0xb846491d	-4.727497e-05
146	0xb866b582	-5.5005316e-05
147	0x2e50e18b	4.7494047e-11
148	0xb89c4442	-7.451374e-05
149	0xb8f2dae5	-0.000115802315
150	0xb9275b43	-0.00015960359
151	0x38deda9c	0.00010626504
152	0x38f450ff	0.00011649913
153	0xb41c0c56	-1.453312e-07
154	0x387a07be	5.9611855e-05
155	0x39215b99	0.0001538828
156	0xae1209b6	-3.320518e-11
157	0xb7cfc970	-2.4770125e-05
158	0xb72fe059	-1.0483048e-05
159	0xb8807890	-6.125972e-05
160	0x37f6d2aa	2.9423583e-05
161	0xb89d2e2b	-7.494943e-05
162	0x2fc29ca4	3.5399694e-10
163	0x34a36c51	3.0439926e-07
164	0x3897206f	7.206282e-05
165	0xb09264bc	-1.0651529e-09
166	0xb0e4b5b4	-1.6640826e-09
167	0xb06ef22b	-8.6928037e-10
168	0x3853f823	5.0537416e-05
169	0x3686d08d	4.0177897e-06
170	0x38e1e1e0	0.000107709086
171	0xb9010b84	-0.00012306689
172	0x2fd09c80	3.794618e-10
173	0x307e55d4	9.252663e-10
174	0xb918ce9e	-0.0001457282
175	0x388b5106	6.643128e-05
176	0x38f428dd	0.00011642438
177	0xb820ca44	-3.8335347e-05
178	0xb520d905	-5.992045e-07
179	0x384a6dd5	4.8262842e-05
180	0xb38604a2	-6.240704e-08
181	0xab707bb7	-8.5436817e-13
182	0xb2d6df7a	-2.5014504e-08
183	0x30518822	7.6227213e-10
184	0x38c87c9a	9.559952e-05
185	0xb6829d22	-3.8925946e-06
186	0xad668aa2	-1.3104769e-11
187	0x34cd8663	3.8282005e-07
188	0x390cde07	0.00013434152
189	0xb82355f2	-3.894227e-05
190	0x3888204d	6.491002e-05
191	0x3904ee7f	0.00012677348
192	0x38269dda	3.9724495e-05
193	0x38b45af7	8.6000124e-05
194	0xb8b37210	-8.556631e-05
195	0xb90b4588	-0.00013281975
196	0x388db3f0	6.75692e-05
197	0x38940935	7.058905e-05
198	0xb885c8ea	-6.3793574e-05
199	0x30d9d00e	1.5847961e-09
200	0x38b20598	8.488743e-05
201	0x390eacd3	0.00013606557
202	0x389d63b0	7.5049116e-05
203	0x3865ff67	5.4835717e-05
204	0xb9321fcc	-0.00016987248
205	0xad7d4937	-1.4397642e-11
206	0x314ddfee	2.9958716e-09
207	0x3785101b	1.5862335e-05
208	0x3831e747	4.2415482e-05
209	0xad06d39a	-7.664003e-12
210	0x38bf58b6	9.1241134e-05
211	0xb73bee50	-1.1201555e-05
212	0xb8bb97ab	-8.945105e-05
213	0xb5aaff35	-1.2740262e-06
214	0x38e9a817	0.00011141615
215	0x391a2cfc	0.00014703342
216	0xb8e86020	-0.00011080527
217	0xb88d9a2d	-6.7521214e-05
218	0x36257210	2.465331e-06
219	0x381bbe2e	3.7132e-05
220	0x387464e9	5.8268113e-05
221	0xb4e62c8e	-4.2873256e-07
222	0x392a3d3a	0.00016235272
223	0x38e2c1aa	0.000108125925
224	0xb8bb1757	-8.921202e-05
225	0xb889a22a	-6.5628745e-05
226	0xb8ea4351	-0.00011170528
227	0xb908dd21	-0.00013052348
228	0xacc9a10c	-5.7306434e-12
229	0xb7b9da85	-2.2155475e-05
230	0x34fdb7d4	4.7258675e-07
231	0x389112ea	6.917662e-05
232	0xb7e911c5	-2.7784039e-05
233	0xadd7c177	-2.4528586e-11
234	0x37ddb13f	2.642779e-05
235	0x36014243	1.9261067e-06
236	0xb8b0ba72	-8.427062e-05
237	0x3040bd88	7.0118533e-10
238	0x38957a80	7.127691e-05
239	0xafc187e4	-3.5203052e-10
240	0x3890d4fd	6.906127e-05
241	0x3115390a	2.1714777e-09
242	0xb1218397	-2.3503384e-09
243	0x38e218f3	0.00010781167
244	0xb8f0394a	-0.00011454763
245	0x384eaaa8	4.9273163e-05
246	0x30a01e84	1.1650205e-09
247	0x38bc1c63	8.969826e-05
248	0xb7825a82	-1.5539354e-05
249	0xb6a9ec87	-5.064128e-06
250	0xb9239cd6	-0.00015603317
251	0xb7a7dc7c	-2.0010622e-05
252	0x37976f6c	1.8052488e-05
253	0x38c774cc	9.5108146e-05
254	0xae535793	-4.8053627e-11
255	0x34fe1d62	4.7332566e-07

hidden_model.2.bias f4 [128]
0	0x3dc92ce7	0.098230176
1	0x39f4e6bd	0.0004671122
2	0x3dd41d38	0.103571355
3	0x3db5bc01	0.088737495
4	0x31f129a8	7.018759e-09
5	0x37219b5b	9.632519e-06
6	0xbc0456a7	-0.0080773
7	0xb1721c81	-3.5231837e-09
8	0x3d6b1666	0.057394408
9	0xb7d28bb9	-2.5099014e-05
10	0x34d5b20d	3.980389e-07
11	0x3db48eca	0.08816297
12	0xb2ffcc82	-2.9778906e-08
13	0x3a327f29	0.00068091095
14	0x3e12af2d	0.14324637
15	0x3d9519ea	0.07280333
16	0xbd02b5d3	-0.031911682
17	0x3c5a22ef	0.013313993
18	0x33644311	5.3146383e-08
19	0x3da09ebb	0.078427754
20	0x338b8bfc	6.498155e-08
21	0x3048786a	7.2930695e-10
22	0x3dc7e8ce	0.09761201
23	0xb1c660a3	-5.7735448e-09
24	0x33b35e27	8.352463e-08
25	0xbb3b9f29	-0.0028628802
26	0x3401509d	1.2043388e-07
27	0x3df57253	0.11984696
28	0xbd85a36b	-0.0652531
29	0x3e0cd7ee	0.13754246
30	0xbd308297	-0.04309329
31	0x3dd9c177	0.106326036
32	0x3df969fa	0.121784166
33	0x3d90e0f9	0.0707416
34	0x3db9c6c4	0.09071115
35	0x3d993afe	0.07481955
36	0x3b6394d5	0.0034726162
37	0xb27594a8	-1.4294677e-08
38	0xbd6d2d51	-0.057904545
39	0x33a45726	7.652697e-08
40	0x3dc0806f	0.09399497
41	0xbd70d151	-0.05879337
42	0xbc1e0e8a	-0.009647021
43	0x3e0ce01f	0.1375737
44	0x3cf8ecfe	0.030386444
45	0xbccc7beb	-0.024961432
46	0xb442d11f	-1.8143736e-07
47	0x3d205064	0.039139166
48	0x3de7bb77	0.11315053
49	0x3dd661af	0.104678504
50	0x337d1a32	5.8929977e-08
51	0xbd41f56e	-0.0473532
52	0x3903bf81	0.00012564474
53	0xb2be857a	-2.217961e-08
54	0xbc3328c2	-0.01093501
55	0x3dfa899a	0.12233277
56	0x3ba4af14	0.0050257538
57	0xb304d20e	-3.092469e-08
58	0xbd2595f4	-0.04042621
59	0x3d821584	0.0635176
60	0xb646808e	-2.9579128e-06
61	0x3bcd970d	0.00627411
62	0x363482be	2.6898192e-06
63	0x3e049e85	0.12951095
64	0xb6c18644	-5.767479e-06
65	0xb80f1a46	-3.4118326e-05
66	0x33156097	3.4779614e-08
67	0xbd4f3c8e	-0.05059486
68	0x3db7417d	0.08948038
69	0xbba17792	-0.004927584
70	0x3db2fe06	0.087398574
71	0x3e08f127	0.13373242
72	0xbcfbd15d	-0.03073948
73	0x3cb6c8fd	0.022312636
74	0x3df86682	0.12128927
75	0xafc84c49	-3.6433992e-10
76	0x345bbbb2	2.0464248e-07
77	0xb2e41c65	-2.6555606e-08
78	0x3373fbf9	5.6807014e-08
79	0xb3995ced	-7.141521e-08
80	0xbc55bc54	-0.013045389
81	0x30e26cc4	1.6474577e-09
82	0x3db81b8c	0.08989629
83	0x332e9237	4.0645514e-08
84	0x3d9df5fb	0.07712933
85	0x330845c2	3.1728412e-08
86	0x3d5beaca	0.05369071
87	0xb41a8266	-1.4389806e-07
88	0x3a3e2b79	0.0007254403
89	0x3dee9cb8	0.116509855
90	0x3dd0a69d	0.10188029
91	0x3ce08413	0.027406728
92	0xbc9fef70	-0.019523352
93	0xbd33a99b	-0.04386292
94	0x3dc30dc4	0.0952411
95	0x32acf9ee	2.013709e-08
96	0x3dd1433d	0.10217903
97	0x3d06c565	0.032903094
98	0xb6d264bb	-6.2702143e-06
99	0xbcc05829	-0.023479538
100	0xb2a39ded	-1.9047514e-08
101	0x3d37fdf7	0.044919934
102	0x3dc68f90	0.09695351
103	0x3dc573ea	0.096412495
104	0x3c7a0f77	0.015262476
105	0xbd0b1505	-0.033955593
106	0xb135de39	-2.6465286e-09
107	0xba623d30	-0.00086303335
108	0x3deda6e8	0.116041005
109	0x3d78463d	0.06061386
110	0x3de400d0	0.111329675
111	0xbd7cef88	-0.061751872
112	0x3d35c917	0.044381227
113	0x3df7f7a4	0.121077806
114	0x392d1aa0	0.00016508484
115	0x3d5b06a4	0.05347313
116	0xb1119361	-2.1184052e-09
117	0x3a55d818	0.00081575057
118	0x3dbcde6a	0.092221096
119	0x3d59cfb2	0.05317659
120	0x3d651b0c	0.055933997
121	0x3e08d57a	0.13362685
122	0xbb272664	-0.002550506
123	0x31aafccd	4.9763913e-09
124	0x34e205cf	4.2100007e-07
125	0xbc0b2953	-0.008493739
126	0x3dc3ead9	0.09566278
127	0x36124a3d	2.1798908e-06

hidden_model.4.weight f4 [64, 128]
0	0xbd07fcb7	-0.033199992
1	0xb8c172e5	-9.224358e-05
2	0xbced9f96	-0.02900676
3	0x3d45c196	0.04828032
4	0x319c9c7c	4.5579878e-09
5	0x381695e4	3.5902383e-05
6	0x3d54c2e2	0.051943667
7	0x2ab3471a	3.1846124e-13
8	0xbc98f8d2	-0.018673334
9	0x3961ae2d	0.00021522558
10	0x3396a053	7.014082e-08
11	0xbd15c6c4	-0.03656651
12	0x348bbf4a	2.602995e-07
13	0x3ca9d81f	0.020732937
14	0xbd62b8d1	-0.055352036
15	0xbcc1b605	-0.023646364
16	0x3d3040ce	0.043030553
17	0xbb55733d	-0.0032569908
18	0x327c44ab	1.4683944e-08
19	0xbd127439	-0.03575537
20	0xb20729b1	-7.867514e-09
21	0x328f1264	1.6655754e-08
22	0xbd0119fb	-0.031518918
23	0x33880c59	6.3352395e-08
24	0xb3710ebd	-5.612559e-08
25	0x3d123a15	0.035699923
26	0x31ec0975	6.869579e-09
27	0xbd193c9f	-0.03741133
28	0x3d9351c0	0.07193327
29	0xbd3d6c3f	-0.04624581
30	0x3d80fa20	0.062977076
31	0xbc869f0c	-0.016433261
32	0xbd090b95	-0.03345831
33	0xbd1aa8c7	-0.037758615
34	0xbcbe7e34	-0.023253538
35	0xbc94298a	-0.018086214
36	0x3d85ac46	0.06526999
37	0x33116b1a	3.385785e-08
38	0x3d87d7b4	0.06632939
39	0x32f1bd58	2.8142196e-08
40	0xbd01668f	-0.031591948
41	0x3da298a5	0.07939271
42	0x3db2b093	0.08725085
43	0xbd166a18	-0.036722273
44	0x3ccdba5e	0.02511328
45	0x3d22d962	0.039758094
46	0x35dea50c	1.6588324e-06
47	0xbc305d1b	-0.010764386
48	0xbd25ae56	-0.040449463
49	0xbd13f775	-0.036124665
50	0x3436929c	1.7003407e-07
51	0x3d83ad06	0.06429486
52	0xb808e206	-3.2635427e-05
53	0x33203e2a	3.730944e-08
54	0x3d2c75ab	0.042104404
55	0xbd0f7f41	-0.03503347
56	0xbaa8371b	-0.0012833806
57	0x32aa23ee	1.9806944e-08
58	0x3d92d9a8	0.07170421
59	0x3c989977	0.018627865
60	0x3797cd61	1.809624e-05
61	0xbad68a7d	-0.0016368177
62	0x363877e0	2.7487913e-06
63	0xbd28e895	-0.041237433
64	0x38a194a2	7.704763e-05
65	0x3a2fd258	0.0006707064
66	0x32952f87	1.7367496e-08
67	0x3d8d7e4c	0.06908855
68	0xbca65ecf	-0.02030888
69	0x3d8b69c3	0.06807282
70	0xbce4003c	-0.027832143
71	0x3ce674e6	0.028131913
72	0x3d57b929	0.052666817
73	0xbb3ecb2a	-0.0029112794
74	0xbd21fc5c	-0.03954731
75	0x31022170	1.8936497e-09
76	0xb320a9ba	-3.740727e-08
77	0x320789f1	7.8893985e-09
78	0x32516509	1.2188374e-08
79	0x3284afe0	1.5446801e-08
80	0x3d19c4a8	0.03754106
81	0x3183a344	3.831163e-09
82	0xbce9bfc9	-0.028533833
83	0xb1840e4a	-3.84333e-09
84	0xbcddd3a1	-0.027078452
85	0xb20429b0	-7.69289e-09
86	0x3d678d7b	0.05653141
87	0x33d2de43	9.819316e-08
88	0xb92496db	-0.00015696457
89	0xbcdb0e73	-0.026740288
90	0xbcf7df37	-0.030257804
91	0xbbf43831	-0.0074529876
92	0x3d5d6068	0.05404702
93	0x3d741797	0.05959281
94	0xbc0aa0d2	-0.008461194
95	0x3187de79	3.9543093e-09
96	0xbc81ef63	-0.015861219
97	0x3d1b0fb2	0.037856765
98	0x3850e624	4.98054e-05
99	0x3d55781b	0.052116495
100	0xb058bfc9	-7.8852885e-10
101	0x3c3107ba	0.010805065
102	0xbd092180	-0.033479214
103	0xbcfa6d5b	-0.030569723
104	0x3da77ee8	0.08178502
105	0x3d7f63b2	0.062350936
106	0xb01d0390	-5.712133e-10
107	0x3beec3d4	0.007286528
108	0xbd184954	-0.037179306
109	0x39fede75	0.000486124
110	0xbd19ae0e	-0.037519507
111	0x3d9d8663	0.07691648
112	0xbc57690a	-0.013147602
113	0xbcb084b2	-0.021547649
114	0x3b9c78d7	0.0047751474
115	0xb91c646f	-0.00014914734
116	0x3233e45c	1.0471094e-08
117	0xb9052b23	-0.00012699938
118	0xbcf9138b	-0.030404827
119	0x3c99eb92	0.018789086
120	0xbc822b45	-0.015889773
121	0xbd25506f	-0.04035991
122	0x3c8757ec	0.016521417
123	0x316cc626	3.4455154e-09
124	0xb4089d5c	-1.2723234e-07
125	0x3ce1e390	0.02757433
126	0xbcd4ebc7	-0.025991334
127	0x37932d21	1.754478e-05
128	0xbca46305	-0.020066747
129	0xb8727df8	-5.7814614e-05
130	0xbc903567	-0.01760359
131	0x3cd35205	0.025795946
132	0xb0f4277c	-1.7764559e-09
133	0x37a917c4	2.0157437e-05
134	0x3d094b09	0.033518825
135	0xaf84dc67	-2.4167265e-10
136	0xbc3fd99f	-0.0117096
137	0x39119122	0.00013882344
138	0xb324d745	-3.8380012e-08
139	0xbcb4b5c1	-0.022059323
140	0x34477308	1.8575167e-07
141	0x3c64c770	0.013963565
142	0xbcfe33d1	-0.031030567
143	0xbc6ffa95	-0.014647146
144	0x3ce979f7	0.02850054
145	0xbb071060	-0.0020609125
146	0x30ebb349	1.7149456e-09
147	0xbcb13606	-0.021632206
148	0x31ca6379	5.8902825e-09
149	0xb1967d54	-4.3798227e-09
150	0xbc9d688b	-0.019214889
151	0x331480e6	3.4576168e-08
152	0xb2a8faf0	-1.9671887e-08
153	0x3ccb1214	0.024788894
154	0x328002d9	1.4902456e-08
155	0xbcb5c23a	-0.022187341
156	0x3d365eb9	0.04452393
157	0xbcdb40d6	-0.026764315
158	0x3d2d573a	0.042319514
159	0xbc4c3196	-0.012462994
160	0xbca569fb	-0.020192137
161	0xbcb5c853	-0.022190249
162	0xbc65268a	-0.013986239
163	0xbc39c89b	-0.011339332
164	0x3d2dbfa5	0.042419095
165	0x32eedb92	2.7806696e-08
166	0x3d3901e9	0.045167837
167	0x3313bd63	3.439835e-08
168	0xbc9eed83	-0.019400364
169	0x3d60efab	0.054916065
170	0x3d5279f0	0.05138582
171	0xbccaebba	-0.024770606
172	0x3ca52336	0.020158391
173	0x3cd6cc10	0.026220351
174	0x358e78a8	1.061494e-06
175	0xbbdc01eb	-0.006714096
176	0xbcc18017	-0.023620648
177	0xbcb8dc36	-0.022565942
178	0x34046ceb	1.2333082e-07
179	0x3d2885ed	0.041143347
180	0xb7918ad7	-1.735e-05
181	0x32bc4f69	2.1922192e-08
182	0x3ce8157b	0.028330555
183	0xbcb31ccf	-0.021864323
184	0xba5572e0	-0.0008142423
185	0x322036af	9.325659e-09
186	0x3d38320e	0.04496961
187	0x3c10c6dd	0.008836475
188	0x37279497	9.988572e-06
189	0xba8db0ee	-0.0010810175
190	0x35dadd1a	1.6306615e-06
191	0xbcc8956d	-0.024485314
192	0x386dd522	5.67037e-05
193	0x39e337a7	0.00043338278
194	0x314c751f	2.9752483e-09
195	0x3d313003	0.04325868
196	0xbc5e5d9b	-0.013572122
197	0x3d323a52	0.04351265
198	0xbc8d5fd7	-0.017257614
199	0x3c42fa7b	0.0119005395
200	0x3d0cb44e	0.03435164
201	0xbaea3e13	-0.0017871283
202	0xbcc0dede	-0.023543771
203	0x2fcdcc35	3.743438e-10
204	0xb3041030	-3.0748367e-08
205	0xaf75bf2f	-2.2350542e-10
206	0x3293879f	1.7174726e-08
207	0x32a76f5a	1.9491996e-08
208	0x3cc8223a	0.024430383
209	0x318e1b9b	4.1358823e-09
210	0xbc903d9c	-0.017607503
211	0xb1b629c3	-5.301645e-09
212	0xbc87bb3f	-0.016568778
213	0xb1acf07f	-5.0332e-09
214	0x3d1754d2	0.036946125
215	0xb2cfa474	-2.4172756e-08
216	0xb8cd495e	-9.7888274e-05
217	0xbc847afc	-0.016171925
218	0xbc9426a0	-0.018084824
219	0xbb9bedc9	-0.004758571
220	0x3d0e493a	0.034737803
221	0x3d201481	0.039082054
222	0xbbb477be	-0.0055074384
223	0xb1ad4bc1	-5.043575e-09
224	0xbc23daec	-0.0100009255
225	0x3ca0a165	0.019608209
226	0x381729e0	3.6040205e-05
227	0x3d0f747e	0.035023205
228	0xb006d4df	-4.9051424e-10
229	0x3bbed350	0.0058235303
230	0xbca15312	-0.019692931
231	0xbc9ac046	-0.018890511
232	0x3d3ae6f5	0.045630414
233	0x3d274b68	0.040843397
234	0x2ffd1e33	4.604189e-10
235	0x3b9fbb19	0.0048745987
236	0xbcb6192d	-0.022228802
237	0x39c734f2	0.00037995685
238	0xbcbaf2b1	-0.022820802
239	0x3d38fec7	0.04516485
240	0xbc075677	-0.008260361
241	0xbc8ef91a	-0.017452765
242	0x3b4d8f73	0.003136602
243	0xba6ad7e4	-0.0008958562
244	0x31f86dd2	7.230235e-09
245	0xb8951229	-7.108256e-05
246	0xbc9692d1	-0.018380554
247	0x3c216e57	0.009852967
248	0xbc234855	-0.009965976
249	0xbcc4ad5d	-0.024008447
250	0x3c358faf	0.01108162
251	0xb2dae8c8	-2.5484397e-08
252	0xb3a1ff31	-7.543566e-08
253	0x3c97a92a	0.01851328
254	0xbc8199aa	-0.015820343
255	0x37585055	1.2893307e-05

hidden_model.4.bias f4 [64]
0	0x3d3712c3	0.044695627
1	0x3cbd7ca6	0.023130726
2	0x3a103f6e	0.0005502616
3	0x3cca33a4	0.024682827
4	0x34a50a7b	3.074127e-07
5	0x3ce3ee79	0.027823674
6	0x3d30d9a4	0.04317631
7	0x3c5c4bcd	0.013445807
8	0x3db0dd23	0.086359285
9	0x3d7c03ff	0.06152725
10	0x3c0e528c	0.008686673
11	0x3d0825f8	0.033239335
12	0x3cdd42b7	0.027009351
13	0x3c05bf1f	0.008163243
14	0x3da7d992	0.08195795
15	0xba43ecea	-0.00074739626
16	0x3d014b0c	0.03156571
17	0x39aba78e	0.000327405
18	0x3d8da637	0.069164686
19	0x3dd825e5	0.10554103
20	0x3bbe49f1	0.0058071543
21	0xb7772ee2	-1.4733263e-05
22	0x3e0201c1	0.12695982
23	0x3db7ef07	0.08981138
24	0x3d19eeb4	0.03758116
25	0x3cc1847f	0.02362275
26	0x3cc4024a	0.023926873
27	0x3cfddc57	0.030988855
28	0x3d9ae871	0.07563866
29	0x3b10a348	0.002206998
30	0x37c06c8a	2.2938726e-05
31	0x3da682fb	0.08130451
32	0x3d653fd6	0.05596908
33	0x3cf17d82	0.029478792
34	0x36f8e6a3	7.4178256e-06
35	0x3c604933	0.013689327
36	0x3ce02663	0.027362054
37	0x3cf230eb	0.029564342
38	0x3dc042d7	0.09387749
39	0x3858e14c	5.1708237e-05
40	0x3d158ea0	0.03651297
41	0x3944a778	0.00018754404
42	0x3dc23d93	0.094844006
43	0x3dc73701	0.09727288
44	0xb4b37c2d	-3.3431698e-07
45	0x35a7df0d	1.2507386e-06
46	0x3c8f1132	0.017464254
47	0x3b9bbc2e	0.0047526574
48	0x3dc466c1	0.09589911
49	0x3da7c899	0.08192558
50	0x36439d0a	2.9148673e-06
51	0x3c7270e7	0.014797426
52	0x3cf7f2f6	0.03026722
53	0x3c1f85ad	0.009736461
54	0x3d2e1bb1	0.042506877
55	0x3da0994b	0.07841738
56	0xb92539ff	-0.00015757231
57	0x3d96f702	0.07371332
58	0x3c65aa77	0.014017693
59	0x3c0215f6	0.007939806
60	0x3da877ee	0.08226
61	0x3d84639f	0.06464314
62	0x3de7f934	0.113268286
63	0x3db12d59	0.086512275

fc1.weight f4 [2, 64]
0	0xbe77ef31	-0.24212338
1	0xbe4922f1	-0.19642235
2	0xbb24e614	-0.0025161551
3	0xbdd20a10	-0.102558255
4	0xb59a2d1e	-1.1487025e-06
5	0xbe232489	-0.15931906
6	0xbe8759f8	-0.26435828
7	0xbe6128ba	-0.21988192
8	0x3e69714c	0.22797126
9	0x3e43cd88	0.19121373
10	0xbd9d1cae	-0.07671486
11	0x3e2b1421	0.16706897
12	0xbe48e7a8	-0.1961962
13	0xbd3f04bf	-0.046635386
14	0x3e0cdf0d	0.13756962
15	0xbb895821	-0.004191414
16	0xbe4e8a95	-0.20170052
17	0xbabd4809	-0.0014441024
18	0x3e60382a	0.21896425
19	0x3e5110f9	0.20416631
20	0xbd09472b	-0.033515137
21	0xb664f140	-3.4115074e-06
22	0x3e123397	0.14277492
23	0x3e93a0bd	0.2883357
24	0xbe6f0ff2	-0.23345926
25	0xbde82e28	-0.113369286
26	0xbe49428d	-0.19654293
27	0xbe5e04e7	-0.21681558
28	0x3e620634	0.22072679
29	0x3b89d98a	0.004206841
30	0x383c0590	4.4827873e-05
31	0x3dcf698d	0.10127554
32	0x3e478c1c	0.19487041
33	0xbe1e7d14	-0.15477401
34	0xb82238d9	-3.8676753e-05
35	0x3c841bf0	0.016126603
36	0xbe1b661b	-0.15175669
37	0x3da7edfc	0.08199689
38	0x3e987168	0.29774022
39	0x39118e71	0.00013881341
40	0xbe7b9a10	-0.24570489
41	0xba62e6ce	-0.00086556084
42	0x3e279b8b	0.16367929
43	0x3e848552	0.25882965
44	0xae5f448f	-5.0765222e-11
45	0xb6c53e10	-5.8782825e-06
46	0xbe4ab808	-0.19796765
47	0xbe843939	-0.25824907
48	0x3e27e45a	0.16395703
49	0x3e467bee	0.19383213
50	0xb778be41	-1.4826249e-05
51	0xbd9d1189	-0.0766936
52	0xbe548751	-0.20754744
53	0xbd0ab136	-0.033860408
54	0xbe1b4f9d	-0.15167089
55	0x3e816d09	0.252785
56	0x2dd851e9	2.4592732e-11
57	0x3e6fb7ea	0.23410001
58	0xbe40c8de	-0.18826625
59	0xbe4e90d9	-0.20172442
60	0x3e6f1c44	0.23350626
61	0xbe84c471	-0.25931123
62	0x3e842bd8	0.258147
63	0x3e0b9ec3	0.13634782
64	0x3e5440e4	0.20727879
65	0x3dd6edb8	0.1049456
66	0x3b30c733	0.00269742
67	0x3e07e9c3	0.13272767
68	0x359a5b8e	1.150054e-06
69	0x3e0ce301	0.1375847
70	0x3e8af40d	0.2713932
71	0x3e487a5c	0.19577926
72	0xbdbc0819	-0.09181232
73	0xbe417c05	-0.18894966
74	0x3d9c69bb	0.07637354
75	0xbe6ed2cf	-0.23322605
76	0x3e5039f6	0.2033461
77	0x3d363287	0.04448178
78	0xbe5e3d4c	-0.2170307
79	0xbb667740	-0.0035166293
80	0x3e53e8df	0.20694302
81	0x3ab6839d	0.0013924722
82	0xbe578d89	-0.21050085
83	0xbe830056	-0.25586194
84	0x3ca1388b	0.019680282
85	0x2f5906b2	1.9738414e-10
86	0xbe79e141	-0.24402334
87	0xbe9781a5	-0.29591098
88	0x3e442d92	0.19158009
89	0x3e55b124	0.20868355
90	0x3e381158	0.17975366
91	0x3e3338b2	0.17502096
92	0xbdedf2d8	-0.116185844
93	0xbbb0637b	-0.0053829527
94	0xb84c5e5a	-4.8725262e-05
95	0xbe8177ef	-0.25286815
96	0xbe706b90	-0.23478532
97	0x3e74ab0f	0.23893379
98	0x3830b6c9	4.2131902e-05
99	0xbd47d49e	-0.048786752
100	0x3e365c65	0.17808683
101	0xbdac3bb9	-0.08409829
102	0xbe92b02d	-0.28650036
103	0xb8d59224	-0.00010183852
104	0x3e7b57c2	0.24545196
105	0x3a748f54	0.0009329219
106	0xbdf35e41	-0.11883212
107	0xbe9ff244	-0.31239522
108	0xb723fea5	-9.774846e-06
109	0x36d0c361	6.221628e-06
110	0x3e3e8508	0.18605435
111	0x3e7ba50f	0.24574684
112	0xbe48d704	-0.19613272
113	0xbe0f19f8	-0.1397475
114	0x3765d876	1.3699862e-05
115	0x3dff8397	0.12476271
116	0x3e5892c3	0.21149735
117	0x3d08c7ee	0.033393793
118	0x3e4f5023	0.20245413
119	0xbe799ab2	-0.24375418
120	0x3419612c	1.4284586e-07
121	0xbe6713e7	-0.22566186
122	0x3e3bbf85	0.18334778
123	0x3e310dd7	0.17290436
124	0xbde7df31	-0.11321867
125	0x3e773ac4	0.24143511
126	0xbdc37549	-0.09543855
127	0xbe43ece0	-0.1913333

fc1.bias f4 [2]
0	0xbd34b262	-0.04411543
1	0x3cf2aab5	0.029622415
