save/BCNN_BreastCancerWisconsin_e200.pt (torch_old, 116948 bytes, 8 tensors)

hidden_model.0.weight f4 [128, 30]
0	0xbcb50074	-0.022094943
1	0x3cad23f3	0.021135306
2	0xbb832718	-0.004002463
3	0xbcb946d0	-0.022616774
4	0x3d771473	0.060322236
5	0x3c8163cd	0.015794659
6	0xbcbc7dba	-0.02300917
7	0xbd17f40b	-0.037097972
8	0x3d63a28c	0.05557494
9	0x3d56ddb1	0.052457515
10	0xbd9b9114	-0.07596031
11	0x3cf13e5b	0.029448679
12	0xbd4ecdbe	-0.05048918
13	0xbd3a6440	-0.045505762
14	0x3bdc00ca	0.0067139613
15	0x3d3c2484	0.04593326
16	0x3c67063d	0.014100608
17	0x3c8ddd81	0.017317535
18	0x3d139cb3	0.036038112
19	0x3d01287a	0.031532742
20	0xbd28c0b1	-0.04119939
21	0x3c64e0a8	0.013969578
22	0xbcbc0eae	-0.022956219
23	0xbcd88944	-0.02643264
24	0x3cfa87c5	0.030582318
25	0xbb0bccae	-0.0021331715
26	0xbceb0397	-0.028688235
27	0xbd8ac46f	-0.06775748
28	0xbd0cba72	-0.034357496
29	0x3b5c7279	0.0033637567
30	0x3c26c838	0.010179572
31	0x3d5d685c	0.054054603
32	0x3c8295ef	0.015940635
33	0x3cc82f77	0.024436696
34	0xbc81d97a	-0.015850771
35	0xbc0fb64d	-0.008771491
36	0x3cf7eb93	0.030263698
37	0x3d4c6ca1	0.049908284
38	0xb892c816	-6.9990914e-05
39	0xbcb5705c	-0.022148304
40	0x3d816a8f	0.063191526
41	0xbbede56e	-0.007260016
42	0x3d2ce9a3	0.042215
43	0x3d1c164b	0.038107198
44	0x3cb5d7b1	0.022197576
45	0xbd0c76d9	-0.03429303
46	0xbbaed804	-0.0053358097
47	0x3cb94d82	0.022619966
48	0xbc67343a	-0.014111573
49	0xbcae09ed	-0.021244967
50	0x3d677956	0.0565122
51	0x3d7685c1	0.06018615
52	0x3c9609da	0.018315244
53	0x3d2cbd6c	0.042172834
54	0x3ce10036	0.02746592
55	0x3bd251f4	0.006418461
56	0x3cd8261b	0.026385358
57	0x3d93d686	0.072186515
58	0x3d128337	0.035769667
59	0x3c5b0da7	0.013369954
60	0xbd636c4f	-0.055523213
61	0x3d7cf7ba	0.061759688
62	0x3c2aa4f6	0.010415306
63	0x3d973642	0.07383396
64	0x3cba61bc	0.022751682
65	0xbcd4a55b	-0.025957754
66	0x3dcedd98	0.101008594
67	0x3da76e2c	0.081753105
68	0x3d00066e	0.03125613
69	0xbd2a00f5	-0.04150482
70	0x3e21c679	0.15798368
71	0x3c2f7ad0	0.010710433
72	0x3df23d88	0.118281424
73	0x3dd4fed6	0.104001686
74	0x3d0c06c4	0.03418614
75	0xbd754437	-0.059879508
76	0xbc970487	-0.018434776
77	0xbc9d39c7	-0.01919259
78	0xbd2c58e2	-0.042076953
79	0xbd2d18d3	-0.042260002
80	0x3e0e4569	0.13893665
81	0x3e17d3af	0.14826845
82	0x3df94d16	0.12172906
83	0x3de09279	0.109654374
84	0x3df44d0e	0.119287595
85	0x3d56b565	0.052419085
86	0x3daecbe6	0.08534984
87	0x3de42543	0.111399196
88	0x3e14102d	0.14459296
89	0xbca4cc06	-0.020116817
90	0x3d024664	0.03180541
91	0xbd80b151	-0.062838204
92	0xbd046238	-0.03232023
93	0xbcd39b03	-0.025830751
94	0x3c2140ba	0.009842092
95	0x3d08e184	0.033418193
96	0xbd13d726	-0.036093853
97	0xbd850a2a	-0.06496079
98	0x3d6ec75b	0.05829559
99	0x3d5d5cb4	0.054043487
100	0xbdbf73fe	-0.09348296
101	0x3d161252	0.036638565
102	0xbd7b697f	-0.061379906
103	0xbd5cf203	-0.053941738
104	0xbc98b6f8	-0.018641934
105	0x3d5b3899	0.053520773
106	0x3c48957c	0.012242671
107	0xbd0d0a9b	-0.034433942
108	0x3cfd6174	0.030930258
109	0x3d0586d4	0.032599285
110	0xbbe85700	-0.0070904493
111	0xbd176e74	-0.03697057
112	0xbd7201a6	-0.059083603
113	0xbd128b39	-0.035777304
114	0xbda13f27	-0.078733735
115	0x3c2cdf47	0.01055128
116	0x3a54c024	0.00081157894
117	0xbca79a60	-0.020459354
118	0xbd3d7e5a	-0.046263076
119	0xbc67b28b	-0.014141689
120	0xb99c07a2	-0.00029760326
121	0xba8edf50	-0.0010900293
122	0xb98805d7	-0.00025944292
123	0xba4a671c	-0.0007721053
124	0xb819ad3c	-3.663938e-05
125	0x3abab464	0.0014244434
126	0xbab2b4b8	-0.0013634181
127	0xbaffa10b	-0.0019502951
128	0x39b6165f	0.00034730413
129	0x3a9c0178	0.0011902293
130	0xbb4598ee	-0.0030150968
131	0x3a33c6fa	0.0006857958
132	0xbb0fe560	-0.0021956787
133	0xbb093ccc	-0.0020940779
134	0xb9f22d81	-0.0004619174
135	0x3ace32fb	0.0015731746
136	0x3990c0c1	0.00027609433
137	0xba197b69	-0.00058548764
138	0x3a9ff0eb	0.0012202536
139	0x3a87c2d4	0.0010357746
140	0xbb06101f	-0.0020456386
141	0xbb32ca5c	-0.002728126
142	0xbacdcaef	-0.0015700738
143	0xbae2c20c	-0.0017300262
144	0xbaa28691	-0.0012399723
145	0x39803009	0.00024449851
146	0xbaa752d2	-0.0012765771
147	0xbb042726	-0.0020164936
148	0xbb174c06	-0.0023086085
149	0xba1ba28e	-0.00059370033
150	0x3c079e5c	0.008277502
151	0xbda06271	-0.07831276
152	0x3b8a73f0	0.0042252466
153	0x3ad3c7ff	0.0016157626
154	0x3cd1d9f6	0.025616627
155	0x3bfb06e5	0.007660734
156	0xbca96980	-0.02068019
157	0xbc915be6	-0.017744016
158	0x3c2705fd	0.010194299
159	0x3b3f0c49	0.002915161
160	0xbcb5e579	-0.022204148
161	0xbc5a08cf	-0.013307764
162	0xbc5570f5	-0.013027419
163	0xbc7faec0	-0.0156056285
164	0xbac03d8a	-0.0014666778
165	0x3c93c32e	0.018037405
166	0x3c263390	0.010144129
167	0x3a9855ff	0.0011622309
168	0x3c442328	0.0119712725
169	0x3b91b520	0.0044466406
170	0xbc8180be	-0.01580846
171	0xbdbe4842	-0.09291126
172	0xbb85cdb3	-0.004083359
173	0xbc828729	-0.01593359
174	0x3cd4895a	0.0259444
175	0x3b19fabb	0.0023495394
176	0xbc371314	-0.011173982
177	0xbcb6cfac	-0.022315823
178	0xbc7ef81b	-0.015562083
179	0xbcb1f547	-0.021723403
180	0x3bdc2a00	0.006718874
181	0xbc4cecea	-0.012507657
182	0xbc21b593	-0.009869951
183	0xbc168ec7	-0.009189314
184	0x3b9c0525	0.0047613555
185	0x3c08f756	0.008359751
186	0xbc77874a	-0.015107939
187	0xbd17836a	-0.03699056
188	0x3d05b816	0.03264626
189	0x3ce060fd	0.027389998
190	0xbd3f5e1e	-0.046720617
191	0x3c811969	0.015759187
192	0xbcf876ae	-0.030330028
193	0xbcdedd76	-0.02720521
194	0xba06dd44	-0.00051446655
195	0x3ce5ac72	0.02803633
196	0x3bd38597	0.006455134
197	0xbba53748	-0.0050419904
198	0x3ca2842f	0.01983842
199	0x3c99b542	0.018763188
200	0xbcf342ca	-0.029694933
201	0x3a29729a	0.00064639153
202	0xbc7699c2	-0.015051307
203	0xbccfb0eb	-0.025352916
204	0x3c81dbf8	0.01585196
205	0x3c02441d	0.00795081
206	0xbc1f2cd9	-0.009715282
207	0xbca4fe29	-0.020140724
208	0xbd0d8b9a	-0.034556963
209	0xbbb466c1	-0.0055054133
210	0x3d61a3b3	0.055087756
211	0x3d785390	0.060626566
212	0x3cd053d7	0.025430603
213	0x3d3dede0	0.046369433
214	0x3cb694ea	0.022287805
215	0xbcb6bc14	-0.02230648
216	0x3d53a478	0.05167052
217	0x3d97a42d	0.07404361
218	0xbb9824c7	-0.004643056
219	0xbce6d929	-0.028179722
220	0x3da582f7	0.0808162
221	0x3a00082c	0.000488403
222	0x3d686beb	0.056743544
223	0x3d5951c6	0.0530565
224	0x3cc8c49f	0.024507819
225	0xbccf1c03	-0.025281912
226	0xbbad0cdd	-0.0052810744
227	0x3cb1ba22	0.0216952
228	0xbc23fb1c	-0.0100086
229	0xbcd95bc0	-0.026533008
230	0x3d548d81	0.05189276
231	0x3d4fdfae	0.050750427
232	0x3d6ef974	0.058343366
233	0x3d74c80b	0.05976109
234	0x3ad9608f	0.0016584563
235	0x3b3ea201	0.002908826
236	0x3d4e5a3a	0.050379016
237	0x3d9589d2	0.07301678
238	0x3d83c449	0.06433923
239	0x3cdf69cc	0.027272128
240	0x3c3672f9	0.01113581
241	0xbc53f26e	-0.012936218
242	0xbbf3e5a3	-0.0074431463
243	0xbc460103	-0.012085202
244	0x3c128079	0.008941763
245	0x3cf642eb	0.030061206
246	0xbcac0408	-0.020998016
247	0xbd1673e5	-0.03673162
248	0x3cd9cca6	0.026586842
249	0x3c81a480	0.01582551
250	0xbd6606b5	-0.05615874
251	0x3c66b5a9	0.014081397
252	0xbd1b18a1	-0.037865285
253	0xbd0d6efe	-0.03452968
254	0xbbf67135	-0.0075208195
255	0x3cec93b5	0.028879026

hidden_model.0.bias f4 [128]
0	0x3e5d9cae	0.216418
1	0xbd539c6a	-0.05166284
2	0xbe40b53c	-0.18819135
3	0x3e2c3a67	0.16819154
4	0x3c0d8261	0.008637042
5	0x3dac4dfd	0.084133126
6	0x3dcd54c7	0.100259356
7	0xbdf96694	-0.12177768
8	0x3e037c96	0.12840495
9	0x3e308468	0.17238009
10	0x3d060574	0.032720044
11	0x9fe3cf18	-9.648085e-20
12	0xbb22fedb	-0.0024871144
13	0xaf1eadf5	-1.4431818e-10
14	0xbb3d3d90	-0.0028875805
15	0xa686c607	-9.351793e-16
16	0x3e504ad4	0.20341045
17	0x3d874cbb	0.06606432
18	0xb3bb3491	-8.717428e-08
19	0xb3643faa	-5.314329e-08
20	0xbda146ec	-0.078748554
21	0xbdf7e591	-0.12104333
22	0x3e412b64	0.18864208
23	0xb447d904	-1.8612269e-07
24	0xbd1945d9	-0.037420128
25	0x3cdcbe15	0.026946107
26	0xa33ad97e	-1.0129136e-17
27	0xbd3c7f66	-0.046019934
28	0xbd2dda98	-0.042444795
29	0x3d4c8677	0.049932923
30	0xa26304b1	-3.076672e-18
31	0x1f021fa6	2.755475e-20
32	0xa27dbe03	-3.4388485e-18
33	0x3e21d329	0.15803207
34	0xb2166df1	-8.756147e-09
35	0xb3397c76	-4.3186866e-08
36	0xbcc8ffff	-0.024536131
37	0xbda25003	-0.07925417
38	0x203510ad	1.5336814e-19
39	0x1f5f49a0	4.7282988e-20
40	0x330b091e	3.237175e-08
41	0x3ca0ca59	0.019627737
42	0xbe57dfcd	-0.21081467
43	0x3daeeae9	0.08540899
44	0x3e5a7251	0.21332671
45	0xbe069bdb	-0.13145392
46	0x32bda97a	2.2079565e-08
47	0xb5402130	-7.157387e-07
48	0x3e1fa976	0.15591988
49	0xbe0235c9	-0.1271583
50	0x2fa55083	3.0070532e-10
51	0xb17c7cb0	-3.6741703e-09
52	0x9ef6d226	-2.6133178e-20
53	0x3e39de5e	0.18151233
54	0x2d1a4ed4	8.77139e-12
55	0xb24bf6b7	-1.1872252e-08
56	0x3e694f68	0.22784197
57	0xb199a763	-4.4719157e-09
58	0xbca4566f	-0.020060746
59	0xb3639f2c	-5.2997322e-08
60	0x9d1ff941	-2.1172336e-21
61	0x31038f7f	1.9144577e-09
62	0x3e06ad24	0.13151985
63	0xbd507133	-0.050889205
64	0x3e1ca70c	0.15298098
65	0x22d6dc04	5.8237767e-18
66	0xb294f585	-1.7341117e-08
67	0x2bab3512	1.2165011e-12
68	0x28158f57	8.302243e-15
69	0xb293f33f	-1.7223668e-08
70	0xbe1121b1	-0.14173009
71	0xbdfb9571	-0.12284363
72	0x3e42e85e	0.19033954
73	0x3d771be1	0.06032932
74	0xbc18ea73	-0.009333241
75	0x3e190d2b	0.1494643
76	0xbe295d2a	-0.16539446
77	0x3e03e2b8	0.12879455
78	0xb25dce97	-1.2910866e-08
79	0xb28140c9	-1.5047037e-08
80	0x3dd43166	0.103609845
81	0xb318dd28	-3.55914e-08
82	0x3e133e23	0.14379172
83	0x3e14acd3	0.14519052
84	0xbd5a014a	-0.053223886
85	0xbe2b592c	-0.16733235
86	0x3dccb7d4	0.09996
87	0x3db8aff5	0.09017936
88	0x3df87e05	0.12133411
89	0xbd3798bd	-0.044823397
90	0x3d060df1	0.03272814
91	0xaac86c31	-3.560221e-13
92	0xb2ea89f5	-2.7303921e-08
93	0x3e41c946	0.18924436
94	0x3c06f98e	0.008238209
95	0xbe4c347a	-0.19941893
96	0xab43205e	-6.9322835e-13
97	0xb3636bec	-5.295071e-08
98	0x3c73e893	0.014886993
99	0xb2845ca4	-1.540895e-08
100	0xb0fe0243	-1.8481575e-09
101	0xb43f9b2f	-1.7844717e-07
102	0xb2e72ca4	-2.691224e-08
103	0x3e02858c	0.12746257
104	0xb647c790	-2.9769471e-06
105	0xa05bea61	-1.8627571e-19
106	0x3b709a62	0.0036713113
107	0x3ce51fb6	0.027969223
108	0x3e3abc00	0.18235779
109	0xb41fdea5	-1.4889027e-07
110	0x3de4ad3c	0.11165854
111	0xbdc67c80	-0.09691715
112	0x3e66c36f	0.2253549
113	0xb84e3d21	-4.9171158e-05
114	0x9f247bd0	-3.4830766e-20
115	0x3e68719a	0.22699586
116	0x29b93080	8.224064e-14
117	0x3e09b6eb	0.13448684
118	0x3bdc0957	0.0067149806
119	0xbda418ba	-0.08012529
120	0x3dafeecb	0.08590468
121	0xbda6d839	-0.0814671
122	0x3da59e0a	0.08086784
123	0x3d8cb356	0.06870143
124	0x3d95d7fa	0.07316585
125	0xb0dc445b	-1.6026535e-09
126	0x3e7191c4	0.23590761
127	0xbd29b14b	-0.041428845

hidden_model.2.weight f4 [128, 128]
0	0x3d3da719	0.046301935
1	0xbc7a2bfd	-0.015269277
2	0xbd35c795	-0.04437979
3	0x3d1b29b5	0.03788157
4	0x3ac43419	0.001496914
5	0x3cc19659	0.023631262
6	0x3cb8a60a	0.022540111
7	0xbccbd77e	-0.024883028
8	0x3cdfd45e	0.027322944
9	0x3d1ed198	0.038774103
10	0xba1867a7	-0.0005813785
11	0x1fa3103f	6.906006e-20
12	0xbaf44cf6	-0.0018638659
13	0xaf78f65a	-2.264299e-10
14	0xba1a4612	-0.0005885075
15	0x28d7303b	2.3890712e-14
16	0x3d31c859	0.043403957
17	0x3c45baef	0.012068494
18	0x3102ad62	1.9016047e-09
19	0xb256bf4a	-1.24999335e-08
20	0xbcbbb86c	-0.022915088
21	0xbce90fa5	-0.028449843
22	0x3d26e000	0.040740967
23	0xb2c9a71e	-2.3475476e-08
24	0xbc9b90bf	-0.018989919
25	0x3bdd6610	0.0067565516
26	0x21dc43c1	1.4925714e-18
27	0xbc59a593	-0.013284105
28	0xbc0fbe40	-0.0087733865
29	0x3c02a304	0.007973436
30	0x2624a9f6	5.712927e-16
31	0x2300a524	6.973864e-18
32	0x2399302e	1.6608698e-17
33	0x3cfeb955	0.031094233
34	0x1d8336a0	3.4731892e-21
35	0xb06ae0bf	-8.544809e-10
36	0xbb9b7d58	-0.0047451667
37	0xbcb073bc	-0.021539561
38	0x1e2146c1	8.537901e-21
39	0xa31e151a	-8.569666e-18
40	0xb237fe36	-1.0709803e-08
41	0x3b00504b	0.0019579108
42	0xbd4c79ec	-0.04992096
43	0x3c8dcad9	0.01730864
44	0x3d59f0aa	0.05320803
45	0xbd029b6b	-0.0318865
46	0x32721441	1.4090859e-08
47	0xab80fd74	-9.165294e-13
48	0x3d01d24f	0.031694707
49	0xbcd043fe	-0.025423046
50	0x2ed92805	9.8751264e-11
51	0xb1c437f7	-5.7107132e-09
52	0x1f08a4fe	2.89356e-20
53	0x3d1981eb	0.037477415
54	0x1f16daad	3.194462e-20
55	0x302165f8	5.8716365e-10
56	0x3d62842f	0.05530184
57	0xb1bc4570	-5.4794143e-09
58	0xbbb0b8f1	-0.0053931405
59	0x2fbbceb1	3.4161965e-10
60	0x9f1a4604	-3.2668684e-20
61	0x2f1a3a8f	1.4027023e-10
62	0x3cdd0042	0.026977662
63	0xbc8397dd	-0.016063625
64	0x3d24f4d1	0.040272538
65	0x1f6722a6	4.8944813e-20
66	0xb28eaf4b	-1.661069e-08
67	0x27e6fa95	6.4109505e-15
68	0x1c465d5b	6.5633364e-22
69	0xb0fef294	-1.8549877e-09
70	0xbce232fd	-0.027612204
71	0xbcfc9291	-0.030831607
72	0x3d24b4ff	0.040211674
73	0x3c3aba81	0.011397005
74	0xbbaef540	-0.0053392947
75	0x3d043111	0.032273356
76	0xbd1d412e	-0.03839224
77	0x3ce39d5e	0.027785
78	0xb1125091	-2.1291593e-09
79	0x9ec14342	-2.0462487e-20
80	0x3cbeaf6d	0.023277009
81	0x1dd72d9e	5.6957193e-21
82	0x3cf9acf0	0.03047797
83	0x3cf8f809	0.03039171
84	0xbc7d3686	-0.015454894
85	0xbd0f4afb	-0.034983616
86	0x3caa1794	0.020763196
87	0x3c9a3814	0.018825568
88	0x3cdbbec6	0.026824366
89	0xbc2be2f8	-0.010491125
90	0x3bd44936	0.006478454
91	0xab5e6da3	-7.9022395e-13
92	0x314de095	2.9959086e-09
93	0x3d29f4ca	0.041493215
94	0x3afb95c2	0.0019194412
95	0xbd2f89a0	-0.04285586
96	0xaa587eee	-1.9228691e-13
97	0xb232a51a	-1.0398503e-08
98	0x3b0129b8	0.0019708704
99	0x31ab06e3	4.977538e-09
100	0xafb28e1e	-3.2478992e-10
101	0x9e975e93	-1.6026862e-20
102	0x31763a8e	3.5830996e-09
103	0x3cdc652e	0.026903715
104	0x2a736850	2.1618926e-13
105	0x23e554af	2.4864095e-17
106	0x39a8a68e	0.0003216755
107	0x3bcc5988	0.006236259
108	0x3d1204d2	0.03564913
109	0xb26b663e	-1.37020475e-08
110	0x3cdecbf1	0.027196856
111	0xbca96149	-0.020676272
112	0x3d4ad750	0.049521744
113	0xb7a8f132	-2.0139476e-05
114	0x9e295089	-8.96344e-21
115	0x3d59fbbe	0.053218596
116	0x2c2d3c23	2.4618161e-12
117	0x3cd6c28a	0.02621581
118	0x3ab57189	0.001384304
119	0xbcb217a2	-0.021739785
120	0x3c8fefaf	0.017570345
121	0xbc8bbeeb	-0.01705881
122	0x3c846be4	0.016164728
123	0x3c5bf2f3	0.013424623
124	0x3ca545ba	0.02017485
125	0x1f622206	4.7885505e-20
126	0x3d5ae03a	0.053436495
127	0xbc4dd104	-0.01256204
128	0x3d46b383	0.04851104
129	0xbc97e418	-0.01854138
130	0xbd5854f2	-0.052815385
131	0x3d27c583	0.040959846
132	0x3ac7390b	0.0015199495
133	0x3cd2a154	0.025711693
134	0x3cc3b463	0.023889726
135	0xbcebed6c	-0.028799735
136	0x3ceec648	0.029147282
137	0x3d2b55d6	0.041829906
138	0xbbc0ceaa	-0.0058840113
139	0x1ea454ed	1.73993e-20
140	0xbb5d1b12	-0.003373806
141	0xaeabbe7c	-7.8100165e-11
142	0xba29b6ac	-0.00064740586
143	0x28bee785	2.1194643e-14
144	0x3d4398e8	0.047753245
145	0x3b0cdf49	0.0021495393
146	0xb1c18e59	-5.6332223e-09
147	0xb283ccbe	-1.5343513e-08
148	0xbcd3e62c	-0.02586659
149	0xbd14b4f3	-0.03630538
150	0x3d357cfc	0.044308648
151	0xb0476ffa	-7.2554907e-10
152	0xbcd2a49f	-0.025713263
153	0x3b42e09e	0.0029735933
154	0xa2673afe	-3.1337568e-18
155	0xbc89e0a7	-0.016830755
156	0xbc2195a8	-0.009862341
157	0xbbb5429c	-0.005531622
158	0xa5850225	-2.3073275e-16
159	0x1c002fb7	4.2413317e-22
160	0x231b1c9f	8.408628e-18
161	0x3d0924f6	0.033482514
162	0x208cefb9	2.3875558e-19
163	0xb0d2da63	-1.534158e-09
164	0xbbabcbea	-0.0052428143
165	0xbcdd391e	-0.027004775
166	0x1db7939b	4.8592317e-21
167	0xa3c86702	-2.1727669e-17
168	0x31dcddc2	6.4280536e-09
169	0xba52d408	-0.00080424594
170	0xbd80b93b	-0.0628533
171	0x3c974504	0.018465526
172	0x3d7040ac	0.058655426
173	0xbd194d5a	-0.037427284
174	0x3173ddb4	3.5487178e-09
175	0x2b255b15	5.874618e-13
176	0x3d06b983	0.03289176
177	0xbcf524dc	-0.029924802
178	0xb0158d9c	-5.4407123e-10
179	0xb358147a	-5.0310042e-08
180	0xa102e8ce	-4.435383e-19
181	0x3d25bed6	0.0404652
182	0xa03be1bd	-1.5914207e-19
183	0xb0d4ba12	-1.5477915e-09
184	0x3d788b8f	0.06067997
185	0xb0bb58f8	-1.3631327e-09
186	0xbbcec1d5	-0.0063097277
187	0xb1a0afd5	-4.6766027e-09
188	0x209523a7	2.5265175e-19
189	0x2fc1a358	3.5222558e-10
190	0x3ceb9c61	0.02876109
191	0xbcbe43fb	-0.023225775
192	0x3d337dd5	0.043821175
193	0xa228019f	-2.2769104e-18
194	0x32078e1e	7.890348e-09
195	0xa7cd6920	-5.7012907e-15
196	0x9f967690	-6.3723616e-20
197	0xb0ccb1b9	-1.4893465e-09
198	0xbd08ddcf	-0.03341466
199	0xbd1e42c5	-0.038637895
200	0x3d32fe58	0.043699592
201	0xbbb905f9	-0.005646464
202	0xbbfd71a1	-0.007734493
203	0x3d0df536	0.03465768
204	0xbd38b062	-0.045090087
205	0x3cf1405e	0.029449638
206	0xb0760f10	-8.9515684e-10
207	0xa087ed0d	-2.3026757e-19
208	0x3cb37d26	0.021910261
209	0x9fbcd36f	-7.9970885e-20
210	0x3cdd8511	0.02704099
211	0x3d031c32	0.03200931
212	0xbc94f228	-0.018181875
213	0xbd2854fe	-0.04109668
214	0x3cb59456	0.022165459
215	0x3ca3d2f7	0.019998057
216	0x3ceca409	0.028886812
217	0xbc4b6ca0	-0.012416035
218	0x3be1aaeb	0.00688683
219	0x2b734ec6	8.644026e-13
220	0xaf2d6d40	-1.5773072e-10
221	0x3d384bb7	0.044994082
222	0x3ac5ad65	0.0015081583
223	0xbd52002a	-0.051269688
224	0xab268697	-5.916183e-13
225	0xb283ccbc	-1.534351e-08
226	0x39714a76	0.0002301129
227	0x3164c846	3.329221e-09
228	0x2f7a504a	2.2765892e-10
229	0xa158411c	-7.326982e-19
230	0x3042c7da	7.0860795e-10
231	0x3cd246f1	0.025668593
232	0x2a43c1c1	1.7386701e-13
233	0x237ea0b2	1.3803396e-17
234	0xb9fd2ae0	-0.00048287865
235	0x3bda8960	0.0066692084
236	0x3d1c0926	0.038094662
237	0xb2324eea	-1.0378907e-08
238	0x3ccf7b9a	0.025327493
239	0xbcc024a3	-0.02345497
240	0x3d5b1f29	0.053496514
241	0xb7cf434a	-2.4707657e-05
242	0x2043f3f3	1.6597858e-19
243	0x3d6d8a23	0.057993066
244	0x2c44ab26	2.7948282e-12
245	0x3ce4747b	0.027887573
246	0x3ad3e989	0.0016167621
247	0xbce4ef99	-0.02794628
248	0x3c9a1c0b	0.0188122
249	0xbc9f019e	-0.01940995
250	0x3ca46dbc	0.020071857
251	0x3c6a7764	0.0143106915
252	0x3cb2f2ba	0.021844257
253	0x2156707c	7.265489e-19
254	0x3d6c5cfe	0.05770587
255	0xbc8dc7aa	-0.017307121

hidden_model.2.bias f4 [128]
0	0x3e10c700	0.14138412
1	0x3ddec150	0.10876715
2	0xbb4e5292	-0.0031482321
3	0x25c9d33d	3.5011082e-16
4	0x3cbaac69	0.02278729
5	0x24bd260c	8.203014e-17
6	0x3d79e311	0.061007563
7	0x2ade7f53	3.952347e-13
8	0xa0425d32	-1.6463275e-19
9	0xbd50edf8	-0.051008195
10	0xbc6f6ca9	-0.014613309
11	0xa3aa9e48	-1.8498472e-17
12	0x28d72fbb	2.3890495e-14
13	0x3de7c553	0.113169335
14	0xbb363b33	-0.0027806282
15	0x3dc1caa7	0.09462481
16	0xb630f874	-2.6370662e-06
17	0x287e4b96	1.41162225e-14
18	0xbc87a4a2	-0.016557995
19	0xbc6bdbaa	-0.014395634
20	0x248e1016	6.1609934e-17
21	0x30a9d33b	1.2356404e-09
22	0x3dfe25e0	0.12409568
23	0x3dba449b	0.09095117
24	0x3d256d32	0.04038734
25	0xa73adf7f	-2.5933843e-15
26	0xbd80e5c6	-0.06293826
27	0xbd0af369	-0.03392354
28	0xbd6f86bf	-0.058478113
29	0x261cf324	5.445289e-16
30	0x3d8a28ea	0.06746085
31	0x3e02014f	0.12695812
32	0x3de74922	0.11293246
33	0x3deb1bd9	0.11479921
34	0x3d6a283a	0.05716727
35	0x3db1664b	0.08662089
36	0xa424ae00	-3.5709215e-17
37	0xbc536af5	-0.0129039185
38	0x3dc2e708	0.09516722
39	0x244d3963	4.4500898e-17
40	0xbb69787a	-0.0035624788
41	0x3dbf9427	0.0935443
42	0x3d72b1ef	0.059251722
43	0xbccf61ec	-0.025315247
44	0xa433100a	-3.8828023e-17
45	0xbb07acdc	-0.0020702397
46	0xa5deba2f	-3.8637024e-16
47	0xa2f83aa7	-6.7282635e-18
48	0x3dfd284c	0.12361202
49	0xbcc79edd	-0.024367744
50	0xbcc51485	-0.024057636
51	0x3e10ac7b	0.14128296
52	0x3cf2e0cc	0.029648207
53	0xb0152a30	-5.4265836e-10
54	0xbd207d65	-0.039182086
55	0x3bd8b809	0.0066137356
56	0xb9db3c51	-0.00041815874
57	0x2523307c	1.4154423e-16
58	0x3e1c201d	0.15246625
59	0xa801c569	-7.203745e-15
60	0xbd0be2c1	-0.034151796
61	0xa45e6106	-4.822076e-17
62	0xa5bd1331	-3.2799278e-16
63	0xbb35804c	-0.002769488
64	0xad44f617	-1.1195953e-11
65	0x3dc0c8dc	0.09413311
66	0x2714cb78	2.0649427e-15
67	0xa2552dac	-2.8891061e-18
68	0x28ab9ce0	1.9052847e-14
69	0x3390b8d2	6.739141e-08
70	0x3dd0728b	0.10178097
71	0xbd45ccbd	-0.048290957
72	0x3d3edc42	0.046596773
73	0x3d16e745	0.03684165
74	0x3da8f64b	0.08250102
75	0x3dc5ffed	0.096679546
76	0x3cac851f	0.02105957
77	0xa9bae1c8	-8.299226e-14
78	0x3d919205	0.07107929
79	0xbc29abc1	-0.010355891
80	0xbb0f472e	-0.0021862495
81	0xab855e65	-9.476418e-13
82	0xb9497d91	-0.00019215631
83	0xa89d983c	-1.7496523e-14
84	0x3d6229b5	0.055215556
85	0xac142459	-2.1052242e-12
86	0xbd3d5289	-0.04622129
87	0x2835fb02	1.0101947e-14
88	0x3dff17e5	0.124557294
89	0xbd5b623a	-0.053560473
90	0x3e152e18	0.14568365
91	0xbba4fcf5	-0.0050350376
92	0xbcf8c058	-0.030365154
93	0xbb27dbd8	-0.0025613215
94	0x3dabf1f6	0.0839576
95	0xbd3cd078	-0.04609725
96	0x3dee2d25	0.116297044
97	0x2dbeaf14	2.167825e-11
98	0xa7892368	-3.8063526e-15
99	0x3d31bb21	0.04339135
100	0x3e104f38	0.1409272
101	0x3dcc7fc8	0.0998531
102	0x23aae460	1.8528158e-17
103	0x3d34e0d2	0.044159718
104	0x3da45c6a	0.08025439
105	0xbcc53e67	-0.024077607
106	0xa607e088	-4.714183e-16
107	0xbc703543	-0.014661136
108	0xbd4e458a	-0.050359286
109	0x3cd1a073	0.025589203
110	0x28c36d44	2.1696735e-14
111	0x3dea8cb1	0.11452616
112	0x3db3a62d	0.0877193
113	0x3b9cce09	0.0047853035
114	0x3db0f478	0.08640379
115	0x3d98b3ac	0.07456145
116	0x32e00146	2.6077611e-08
117	0xa514aa3d	-1.2894633e-16
118	0x3e23d46b	0.15999
119	0xbcec4e1a	-0.028845835
120	0x27750b47	3.4006694e-15
121	0x3d88a2b2	0.06671657
122	0x2688441d	9.455358e-16
123	0xbbaf0adb	-0.0053418702
124	0xa2517f6d	-2.839224e-18
125	0x2eb3d6ba	8.178121e-11
126	0x272f470c	2.4324643e-15
127	0xbcec1d3a	-0.02882253

hidden_model.4.weight f4 [64, 128]
0	0x3db8e99c	0.090289325
1	0x3dac0ea5	0.08401231
2	0xbba11cb3	-0.0049167513
3	0xa392683f	-1.5873502e-17
4	0x3c0cb5ef	0.008588298
5	0x24a8e7a1	7.325078e-17
6	0x3d0d743c	0.034534678
7	0x2938c862	4.103001e-14
8	0x23ca57ab	2.1938013e-17
9	0xbd52f4af	-0.05150288
10	0xbcce2178	-0.025162444
11	0xa4de204c	-9.6331866e-17
12	0x284042e1	1.0672643e-14
13	0x3d860716	0.0654432
14	0xbb952e89	-0.0045526666
15	0x3d6474a8	0.055775315
16	0xb6482799	-2.9825371e-06
17	0xa753f7a0	-2.941637e-15
18	0xbd3da8b9	-0.046303485
19	0xbcafe8db	-0.021473339
20	0x240b5333	3.0211293e-17
21	0xad9d42ea	-1.787855e-11
22	0x3d8c26f7	0.068433695
23	0x3d5b5545	0.053548116
24	0x3c3a10e5	0.011356567
25	0xa5028e37	-1.1323887e-16
26	0xbd83f99c	-0.064440936
27	0xbd3be1ad	-0.045869518
28	0xbd49bc22	-0.049251683
29	0xa56c7ccd	-2.0512021e-16
30	0x3d110857	0.035408344
31	0x3da10b89	0.07863528
32	0x3d916805	0.07099918
33	0x3d96a62f	0.07355916
34	0x3cb8da7f	0.022565125
35	0x3d3fee6a	0.04685823
36	0xa40f68aa	-3.1096836e-17
37	0xbc9fe5df	-0.01951879
38	0x3d802709	0.06257445
39	0x23cbe324	2.2105502e-17
40	0xbccf3602	-0.025294308
41	0x3d5a7e5b	0.05334316
42	0x3d0fd558	0.03511557
43	0xbd27c732	-0.04096145
44	0x22e017da	6.0740575e-18
45	0xbd019971	-0.031640474
46	0xa4d6e705	-9.319907e-17
47	0xa4c3c666	-8.490387e-17
48	0x3dcb0de4	0.09914759
49	0xbd183819	-0.037162874
50	0xbd0e4eff	-0.034743305
51	0x3dc28c78	0.094994485
52	0x3c82ac97	0.015951438
53	0x2e9f1403	7.234038e-11
54	0xbd864cdc	-0.065576285
55	0xbc0c3d5e	-0.008559553
56	0xbb973d65	-0.004615473
57	0xa49bdfad	-6.7599456e-17
58	0x3dc8b230	0.097996116
59	0xa8a74f8d	-1.8575224e-14
60	0xbd0b08f2	-0.033944078
61	0x24a01d90	6.943902e-17
62	0x261a3a2c	5.350832e-16
63	0xbcc16f60	-0.023612678
64	0xac742495	-3.4694793e-12
65	0x3d5c35ec	0.05376236
66	0xa3a1e933	-1.7554419e-17
67	0x21d2a3b0	1.4273481e-18
68	0x285e2d3d	1.2333285e-14
69	0x32cc122d	2.3756991e-08
70	0x3d695dad	0.0569741
71	0xbd34f5f2	-0.044179864
72	0x3c38d901	0.0112822065
73	0x3c8f4ef4	0.017493702
74	0x3d568d4a	0.052380838
75	0x3d80c26d	0.06287084
76	0xbbec37fa	-0.0072088214
77	0xa705a29f	-1.8545615e-15
78	0x3d904205	0.07043842
79	0xbc7ac325	-0.015305315
80	0xbd0f0d67	-0.03492489
81	0xaa3a0532	-1.6521921e-13
82	0x372fd368	1.0480035e-05
83	0x2812e7e3	8.1549105e-15
84	0x3c74e625	0.014947449
85	0xab576019	-7.6516706e-13
86	0xbd21318c	-0.039353892
87	0x2769820e	3.2405748e-15
88	0x3d9d51ce	0.07681619
89	0xbd2f36cf	-0.04277688
90	0x3dbded5b	0.092737876
91	0xbcb098ea	-0.02155729
92	0xbd0fe809	-0.035133395
93	0xbd0af0b1	-0.033920947
94	0x3d8c8acb	0.0686241
95	0xbd4ee6de	-0.05051314
96	0x3d97d829	0.07414276
97	0x2aef5cba	4.251927e-13
98	0x24526393	4.5620834e-17
99	0x3cb7b1a7	0.022423578
100	0x3dc4f3de	0.096168265
101	0x3d9f285f	0.07771372
102	0x2359d379	1.1808375e-17
103	0x3cc82cc8	0.024435416
104	0x3d55b908	0.052178413
105	0xbd05b3fc	-0.03264235
106	0x25bf2de1	3.3164307e-16
107	0xbd147651	-0.036245648
108	0xbd31c1a5	-0.043397564
109	0x3c632541	0.0138638625
110	0x28186f19	8.4617855e-15
111	0x3dbbf33a	0.09177251
112	0x3d70b6aa	0.058767952
113	0x3b1ef558	0.0024255123
114	0x3daac5a8	0.08338481
115	0x3d44726d	0.047960687
116	0x30f2be6f	1.7661942e-09
117	0xa37d36dc	-1.3726774e-17
118	0x3de3f8f2	0.11131467
119	0xbcdc6d2b	-0.026907524
120	0x26b15812	1.2305714e-15
121	0x3d0a06ea	0.033698
122	0x2640466d	6.6708826e-16
123	0xbc5b367d	-0.01337969
124	0xa32373ff	-8.860811e-18
125	0x2d9ced11	1.7840425e-11
126	0xa60bee87	-4.854858e-16
127	0xbd0e25cb	-0.03470401
128	0xbcaa750a	-0.020807762
129	0xbd092c8e	-0.033489756
130	0x3be91302	0.0071128616
131	0xa55796a6	-1.8699319e-16
132	0x3bb61e7f	0.0055578346
133	0x249754bd	6.5629363e-17
134	0xbc72e1b5	-0.014824321
135	0xa92d4a07	-3.8477925e-14
136	0xa0956f7a	-2.531535e-19
137	0x3d8966b2	0.06709041
138	0x3d1f4699	0.038885687
139	0x2340e240	1.0456251e-17
140	0x29870115	5.995392e-14
141	0xbce1f29e	-0.02758151
142	0x3bd87c98	0.0066066496
143	0xbcc05365	-0.023477266
144	0x36866862	4.005663e-06
145	0xa5b10b6d	-3.0712348e-16
146	0x3d90fd97	0.070796184
147	0x3cfd86e4	0.03094811
148	0x2242fa1d	2.6424312e-18
149	0xaf516be3	-1.9046768e-10
150	0xbcf9fa44	-0.030514844
151	0xbcb78f78	-0.022407278
152	0x3cace5af	0.021105615
153	0xa692456a	-1.01496e-15
154	0x3da1c7ed	0.07899461
155	0x3d7a8746	0.061164163
156	0x3d80ed79	0.06295294
157	0x261f25f5	5.521565e-16
158	0x3c0f606b	0.008751015
159	0xbd06fe06	-0.0329571
160	0xbcbe71df	-0.023247657
161	0xbcfe94b7	-0.031076772
162	0x3cbe9dcd	0.023268605
163	0xbc9f0528	-0.019411638
164	0x249c13fc	6.768807e-17
165	0x3ce18198	0.027527615
166	0xbcb29acd	-0.02180233
167	0x221d1f95	2.1294187e-18
168	0x3d2cacea	0.04215709
169	0xbc9ee5dd	-0.019396717
170	0xbc774c03	-0.015093806
171	0x3d61254d	0.054967213
172	0x24d3bbff	9.182514e-17
173	0x3d3ea662	0.046545394
174	0xa44c454b	-4.4294142e-17
175	0xa5d76286	-3.7363317e-16
176	0xbd24ec68	-0.040264517
177	0x3d50549e	0.050861947
178	0x3d41a672	0.047277875
179	0xbd1e302b	-0.038620155
180	0xbbd438e2	-0.0064765075
181	0x2f3d6279	1.7224434e-10
182	0x3dac9926	0.08427648
183	0x3c8e04da	0.017336298
184	0x3bedddaa	0.0072590904
185	0xa3ff8ef2	-2.7707695e-17
186	0xbd286b77	-0.04111811
187	0x285faa1c	1.2415873e-14
188	0x3d3b3c62	0.045711882
189	0x23e1d963	2.4486616e-17
190	0x257da9c7	2.2001775e-16
191	0x3d10bbbc	0.035335287
192	0x2cdf4224	6.3453843e-12
193	0xbc8620d7	-0.016373081
194	0x259d2103	2.7257528e-16
195	0x224400e5	2.6563427e-18
196	0xa6d7ea43	-1.4982119e-15
197	0x31213081	2.3456155e-09
198	0xbcc42179	-0.023941742
199	0x3d6a4be9	0.0572013
200	0x3cb69fe3	0.022293037
201	0x3be4b5f0	0.0069796965
202	0xbcb7eac7	-0.022450818
203	0xbcdf0068	-0.027221873
204	0x3cf783bd	0.030214185
205	0x270b8262	1.9360806e-15
206	0xbcf82308	-0.030290142
207	0x3cb13de1	0.021635951
208	0x3d8323fe	0.06403349
209	0x289c6c4d	1.7366447e-14
210	0x367359e2	3.626214e-06
211	0x285ce5ca	1.2262281e-14
212	0x3cc1848c	0.023622774
213	0xaa86b2e2	-2.3927307e-13
214	0x3d54dac8	0.05196646
215	0x27531b81	2.9297042e-15
216	0xbcab9167	-0.020943357
217	0x3d66b010	0.05632025
218	0xbcb0a551	-0.021563204
219	0x3d0ce653	0.03439934
220	0x3d522cd8	0.051312298
221	0x3d6d94d7	0.058003273
222	0xbcf172be	-0.029473659
223	0x3d8a4498	0.067513645
224	0xbcf839e4	-0.030301042
225	0x2e38f1c9	4.2051505e-11
226	0x26b8235d	1.277715e-15
227	0xbbd62774	-0.006535465
228	0xbd25d042	-0.040481813
229	0xbd077c3c	-0.033077464
230	0x22c1477a	5.2388434e-18
231	0xbc1ffd0e	-0.009764923
232	0xbcba1654	-0.022715725
233	0x3d37d717	0.04488286
234	0x2377ce23	1.3433548e-17
235	0x3d5510af	0.052017864
236	0x3d697742	0.0569985
237	0xbbbd1a8c	-0.005770987
238	0x2608efc0	4.75094e-16
239	0xbd1c0dbb	-0.038099032
240	0xbcc65e57	-0.024214907
241	0xba7bfe4b	-0.0009612783
242	0xbd0d12d3	-0.03444178
243	0xbca6d386	-0.020364534
244	0xb0725760	-8.8163254e-10
245	0xa0421168	-1.6438198e-19
246	0xbd39cbee	-0.045360498
247	0x3d15fa3a	0.036615588
248	0x26c9eb35	1.401093e-15
249	0xba95a276	-0.0011416215
250	0x24ee33a5	1.03303536e-16
251	0x3c9fc4af	0.019502966
252	0xa395c0b1	-1.623622e-17
253	0xab05ef9d	-4.758362e-13
254	0x261755a9	5.250474e-16
255	0x3d4430f8	0.047898263

hidden_model.4.bias f4 [64]
0	0x3e17e2ad	0.14832564
1	0x3cedfa8b	0.029050132
2	0x3cc5ea79	0.024159657
3	0x3b693c65	0.0035588976
4	0x3dcff5b1	0.10154284
5	0xac1ea4b8	-2.2544588e-12
6	0x36e9fe24	6.973527e-06
7	0x3d05fdb5	0.032712657
8	0x3cc45514	0.02396635
9	0xa8671230	-1.282702e-14
10	0x3c108326	0.008820331
11	0x3df9256d	0.121653415
12	0x261c8177	5.429883e-16
13	0x3dc3205e	0.09527658
14	0x3df22faa	0.118254974
15	0x3cc1af66	0.023643207
16	0x3cb740c6	0.022369754
17	0x3e01029d	0.12598653
18	0x371c3ac2	9.312005e-06
19	0x3caf9cfa	0.021437157
20	0x3c275f30	0.010215566
21	0x3d06cc16	0.032909475
22	0x3cde31f6	0.027123433
23	0x2eef6809	1.0886942e-10
24	0x3c60bad1	0.0137164155
25	0x3dc53bb8	0.09630531
26	0x3301d14a	3.02255e-08
27	0x3db912f1	0.09036816
28	0x3ddb2465	0.10700301
29	0x2c0a3254	1.9638917e-12
30	0x3cdbb03d	0.026817435
31	0x3d81e059	0.06341619
32	0x3debb731	0.1150955
33	0xad4c12a5	-1.1600197e-11
34	0x2eb04776	8.0162474e-11
35	0x3d04190a	0.03225044
36	0x3dbb390e	0.09141742
37	0x3cb04696	0.021518033
38	0x37bdda79	2.263229e-05
39	0x2b25bd27	5.888228e-13
40	0x3ded6a20	0.11592507
41	0xa7b04e48	-4.8934686e-15
42	0xab4bdb12	-7.242411e-13
43	0x3ccce1e5	0.025010059
44	0x2dc975e7	2.2903414e-11
45	0x2c5f0302	3.1691876e-12
46	0x3dd8db4a	0.10588701
47	0x3d03eeb6	0.032210074
48	0x2837d3e5	1.0204488e-14
49	0x3cd5a882	0.026081327
50	0x3ddac61c	0.106823176
51	0x3cd52a1d	0.026021058
52	0x3c99b6ae	0.018763866
53	0x3cb00665	0.021487424
54	0x3cf9166a	0.030406196
55	0x3dd5ac33	0.10433235
56	0x3ded7cbe	0.11596058
57	0x3dc6f2aa	0.09714253
58	0x2caac3c9	4.853427e-12
59	0x3c935af4	0.017987706
60	0xb15f966e	-3.253628e-09
61	0x3cd351c5	0.025795827
62	0x374868d6	1.1945338e-05
63	0x3d07df6b	0.033172052

fc1.weight f4 [2, 64]
0	0x3e8eea03	0.27912912
1	0xbe55d033	-0.20880203
2	0xbe2d378a	-0.16915718
3	0xbcac7f3d	-0.021056766
4	0x3e73cf56	0.23809561
5	0xab579f00	-7.6604e-13
6	0x3750caa8	1.2444951e-05
7	0xbe713059	-0.235536
8	0xbe1d503e	-0.15362641
9	0xa7e5cb56	-6.3780725e-15
10	0xbe831e9e	-0.25609297
11	0x3e889aeb	0.26680693
12	0xa7595698	-3.0161742e-15
13	0x3e3f07a9	0.18655266
14	0x3e7d6040	0.24743748
15	0xbe449ded	-0.19200869
16	0xbe434ae5	-0.19071539
17	0x3ea97cb8	0.33102965
18	0x377e2270	1.5147598e-05
19	0xbe190ec7	-0.14947043
20	0x3ca9fdf0	0.02075097
21	0xbe3ddf8b	-0.18542306
22	0xbe50e307	-0.20399104
23	0xae378926	-4.1731195e-11
24	0xbe8e4017	-0.27783272
25	0x3e1c5780	0.15267754
26	0x3332965f	4.1580616e-08
27	0x3e81d327	0.2535641
28	0x3e66531f	0.22492646
29	0x2c94fd63	4.2345446e-12
30	0xbe3f9cad	-0.18712111
31	0x3e212b04	0.15739065
32	0x3e422137	0.18957983
33	0xad05436d	-7.575146e-12
34	0xafdf3c21	-4.0606188e-10
35	0xbe847f13	-0.258782
36	0x3e8e1b3b	0.2775515
37	0xbe58a962	-0.21158364
38	0x382554f4	3.9418184e-05
39	0x2ae619b0	4.0874032e-13
40	0x3e9de7de	0.30840963
41	0x2673c67c	8.457656e-16
42	0x2ad3d510	3.762897e-13
43	0xbe544722	-0.2073026
44	0xad256440	-9.401424e-12
45	0x2d255c02	9.399594e-12
46	0x3e67c35c	0.22633117
47	0xbe442c50	-0.19157529
48	0xa6a00696	-1.1104015e-15
49	0xbe5a2254	-0.21302158
50	0x3e36a068	0.17834628
51	0xbe374b70	-0.17899871
52	0xbe786760	-0.24258184
53	0xbe546a90	-0.20743775
54	0xbe5cb5d8	-0.21553743
55	0x3e822668	0.25419927
56	0x3e9918f5	0.29901853
57	0x3e78aea9	0.24285378
58	0x2c93539c	4.187274e-12
59	0xbe57c665	-0.21071775
60	0x258a6300	2.400627e-16
61	0xbe1b0127	-0.15137158
62	0x37ada6c0	2.0700856e-05
63	0xbe7bd2f7	-0.24592195
64	0xbe9d9f66	-0.30785674
65	0x3e81aa8d	0.25325432
66	0x3e536be0	0.2064662
67	0x3ca88bec	0.020574532
68	0xbe8bb27e	-0.27284616
69	0x2b559f02	7.589347e-13
70	0xb73c1d5d	-1.121251e-05
71	0x3e716f1b	0.2357754
72	0x3e40567e	0.18782994
73	0x280866d2	7.571812e-15
74	0x3e5ae609	0.21376814
75	0xbe1f39f9	-0.15549459
76	0xa69b5dc0	-1.0780697e-15
77	0xbe6a7484	-0.2289601
78	0xbe55d8ab	-0.20883434
79	0x3e6ea0e6	0.23303565
80	0x3e43576f	0.19076322
81	0xbeb0cd75	-0.3453175
82	0xb77e517d	-1.5158553e-05
83	0x3e73366a	0.23751226
84	0xbcb75573	-0.022379613
85	0x3e5b0e96	0.21392283
86	0x3e5a5418	0.21321142
87	0xadd606df	-2.4332035e-11
88	0x3e694091	0.22778536
89	0xbe839c46	-0.25705165
90	0xb315f5d7	-3.4915356e-08
91	0xbe3a1cb4	-0.18175012
92	0xbe5acee5	-0.21367987
93	0xacaeb61d	-4.965596e-12
94	0x3e6f3af7	0.23362337
95	0xbe212d9f	-0.1574006
96	0xbe907886	-0.28216952
97	0x2d3fd5eb	1.0904592e-11
98	0x2fcc8b17	3.7206213e-10
99	0x3e84f5d5	0.25968805
100	0xbe650e02	-0.22368625
101	0x3e14e376	0.14539894
102	0xb82b3f8b	-4.0828756e-05
103	0xab597f75	-7.727077e-13
104	0xbe967833	-0.2938858
105	0xa7085e2b	-1.892484e-15
106	0x2b5c26ea	7.8213705e-13
107	0x3e457929	0.192845
108	0x2d255858	9.39878e-12
109	0xac54fce4	-3.0267394e-12
110	0xbe769917	-0.24081837
111	0x3e54f327	0.2079588
112	0x272853a7	2.3360032e-15
113	0x3e71f4d6	0.23628554
114	0xbe89f13f	-0.2694187
115	0x3e2a5bc8	0.16636574
116	0x3e6e1031	0.23248364
117	0x3e6f2d8e	0.23357221
118	0x3e20599c	0.15659183
119	0xbe48f7d9	-0.19625796
120	0xbe9c2438	-0.30496383
121	0xbe481996	-0.1954101
122	0xac99f040	-4.3751947e-12
123	0x3e27cd3f	0.16386889
124	0x9dca6f00	-5.3583726e-21
125	0x3e5998ee	0.21249744
126	0xb79585fe	-1.782458e-05
127	0x3e7a301b	0.24432413

fc1.bias f4 [2]
0	0x3e00c70b	0.12575929
1	0xbde09d7c	-0.10967538
