save/BCNN_BreastCancerWisconsin_e200.pt (torch_old, 116948 bytes, 8 tensors)

hidden_model.0.weight f4 [128, 30]
00000000: 4a27 5e3a 3f03 32bc 07a9 49ba 4596 bebb
00000010: f7f3 93bb e8af 873c 84de 46bc 465c 5bbc
00000020: f7ca 313a d304 543c 376c d3bc 2109 c63b
00000030: 0b8e 88bc 147a 6dbc c7ed 1abb 3f36 403c
00000040: ead7 e039 5953 9fb9 01e3 063c 5606 1a3c
00000050: d573 87bc 5b00 2abc a133 22bc 81bb 66bc
00000060: 64f6 67bc 8d78 2a3b 8563 ddbb fb5f 04bc
00000070: 01cf 3fbc 0469 b8bb defe c03b a3fb 553c
00000080: 1e5c 073c 9e90 3e3c 9b93 4e3c 388d 5dbc
00000090: 5d45 903c 1b86 a13c aa3a 293b d1f0 1bbc
000000a0: 18fd 083d cb8d 99bb bfb5 b33c 4f0a 9d3c
000000b0: 2c76 da3b 08a9 44bc 5fd3 1f3a 1e6b 643b
000000c0: 3b18 d3bb 858c 27bc b844 c93c 4275 393c
000000d0: 99a0 a83c ad46 a93c 9520 d23c 3b7d d1b9
000000e0: 0eda 473c a3a7 923c 61d6 a13c 5a20 253c
000000f0: 00ac 603d 9bae 0f3d 0d9f c03d 0662 a23d
00000100: 72ac dabc 1c54 37bc f205 a83d ba04 873d
00000110: f888 273b b7fd 91bd 64d8 c43d 1b21 503c
00000120: 25bb 8c3d 5d27 8c3d 4395 f23b ddf0 85bd
00000130: ca4d 553b 1fce da3c 9660 16bd c4ae 12bd
00000140: bbbc 013e bba1 aa3d 974f 663c e112 c93d
00000150: 2837 e63d e297 5d3d 2600 d33c 5887 0b3e
00000160: 7f6d 3f3d 5e45 7d3d 577d 10bc 5455 c9b9
00000170: 9bfe 1e3b e492 25bd f06a b93c 1054 0b3d
00000180: 3a96 4fbc 0b58 9ebd 7606 983d d9dc a43d
00000190: 3ff4 c4bd 621a f03c 56ff 7bbd a7e1 59bd
000001a0: ab3e e2bc 6c87 903d ccd5 803b 5830 c5bc
000001b0: b1b2 3c3d 387e 213d eb36 b2bc ebe7 a53c
000001c0: 8f66 7dbd d13d 7abd 4a02 b1bb f134 91bb
000001d0: d4c5 3cbc 19bd 82bd 9c81 82bd 3718 fcbc
000001e0: f8f9 213c d84e ba3b c8a4 5bbc fc50 dbbc
000001f0: 9e1c 353c d42b 6c3d 1141 bcbc 7b17 16bd
00000200: e259 cb3c 8d67 453c 2d6c 80bd 46fe a93c
00000210: ce34 24bd 0f47 0ebd c917 09bc 5a0f 263d
00000220: 7b0f 183b 873e 8b3b a3ed b33c 9973 bd3c
00000230: 09a9 03bc 6adb 2abd 80a4 42bd 47b6 11bd
00000240: d5b7 c1bc f5fe 49bc c4bd b8bc 6c00 13bd
00000250: 7dde c9bc f387 3f3a daca d63b 3d3c 813d
00000260: 45dc 033d 0d0e 123d 1b7b 863d f673 b9bc
00000270: 2419 713d 7f5d 463d 41c2 99bb 49d5 2cbd
00000280: 170f e53d 1398 70bc 616c 913d 3015 833d
00000290: d987 cb3c 1026 36bd c9d1 b33b fe8d d3bb
000002a0: 71a9 38bc 7f89 0dbd bd88 b03d b309 be3d
000002b0: 9d37 6e3d 573e 8f3d 18e2 6b3d 66dc 8f3c
000002c0: d488 2a3d 5935 2f3c 1342 663d 248a 553d
000002d0: 25b0 bba6 967d 529e 6498 e4b2 dc8d 0c9f
000002e0: 2a82 ab9e bb27 d5a3 a7f4 baa1 8187 b3aa
000002f0: 8dd1 b0a8 d16d fb1e 743c 549e 36b7 49b4
00000300: d5c4 71a2 46d6 ac2b 872a 081f a944 0a2d
00000310: 8d97 70aa ebcf 0326 0c40 1031 6450 209c
00000320: 5b0a 5aaa c2e8 2c21 27af 60b1 012b a29f
00000330: b45c 0e1d 8f34 58b1 7c7a 2ea7 3f2a 9121
00000340: d33b a9a3 5f0a 9b9f 670b 193c f85c ec3c
00000350: 0e47 083a e7dc 8c3c 8def 4c3c 1a1b f7bc
00000360: 3ae9 d53c a5ea 0a3d 6066 4ebb 1de4 88bc
00000370: fa07 603d 13ad 10bc ea8c 123d 1b58 013d
00000380: 6c14 403c 0a02 acbc 5246 843a 9bf3 6a3b
00000390: ebd2 33bc 5b7f 8cbc 0182 183d 2c89 cd3c
000003a0: 82c9 e73c 9d82 033d 25f4 433d ffc7 0a3a
000003b0: 6d4c 973c 90ba 1a3d 2bbc fd3c 222f 763c
000003c0: 5873 0cbc fa85 92bc 0644 233c 0d5a e0bb
000003d0: d130 77bb ecfc df3c 6cf0 cdbc 4dab 6bbc
000003e0: 4ed4 833c 3c86 043d e68c 3fbd 6452 673c
000003f0: 51b2 f4bc c948 d7bc 3bd4 75bb 3f71 ac3c
0.00084744825 -0.010865032 -0.00076927285 -0.0058162534 -0.004515167 0.01656337 -0.012138013 -0.013388699
0.0006782258 0.012940603 -0.025808437 0.0060435687 -0.016669294 -0.014494438 -0.0023640261 0.011731683
0.00042885478 -0.00030388942 0.008232833 0.009400925 -0.016534725 -0.010376061 -0.009900005 -0.01408279
-0.014157865 0.0026011795 -0.0067562484 -0.008079524 -0.011707068 -0.005627753 0.0058897575 0.013060483
0.008261709 0.011631159 0.012608434 -0.013522439 0.0176112 0.019717267 0.002582232 -0.009517864
0.033444494 -0.0046860925 0.02193725 0.019169955 0.006666919 -0.012003191 0.00060968654 0.0034853886
-0.0064420975 -0.010226374 0.0245689 0.01131946 0.020584391 0.020663584 0.025650302 -0.0003995689
0.012197984 0.017902201 0.019755544 0.010078514 0.054851532 0.035078626 0.094053365 0.07928853
-0.026693556 -0.011189487 0.08204259 0.065926984 0.0025563817 -0.071284704 0.09611586 0.012703205
0.068716325 0.068434455 0.0074030473 -0.06540082 0.0032547587 0.026709614 -0.036713205 -0.0358112
0.12669651 0.08331629 0.014057062 0.09818054 0.11240989 0.054099925 0.025756907 0.13625848
0.046735283 0.06183373 -0.008818946 -0.00038401282 0.0024260643 -0.04042329 0.022634 0.034015715
-0.012670094 -0.077316366 0.07423107 0.08049936 -0.09616899 0.029309455 -0.061522804 -0.053193714
-0.027617773 0.0705708 0.0039317366 -0.024070904 0.04606885 0.039427012 -0.021754703 0.020252189
-0.061865386 -0.06109411 -0.005401884 -0.00443136 -0.011521775 -0.06383724 -0.06372377 -0.030773265
0.009886257 0.0056856684 -0.013405986 -0.026772015 0.011054186 0.057658985 -0.022980245 -0.036643486
0.024823133 0.012048614 -0.06270633 0.02075113 -0.04008942 -0.034735736 -0.008367487 0.040541984
0.0023202586 0.004249397 0.0219639 0.02312641 -0.008035907 -0.041713156 -0.04752016 -0.035574224
-0.023647228 -0.012328853 -0.022551425 -0.035889074 -0.024642223 0.000730633 0.0065549435 0.06310318
0.032192487 0.03565793 0.06566449 -0.022638302 0.058861867 0.04842901 -0.0046923463 -0.042195592
0.11184519 -0.014684695 0.0710075 0.064005256 0.02484505 -0.044469893 0.005487655 -0.006456136
-0.011270867 -0.034554955 0.08619831 0.09279194 0.058158506 0.06994312 0.057588667 0.017561149
0.041634396 0.010693871 0.056215357 0.052133694 -1.3023476e-15 -1.1143278e-20 -2.6611993e-08 -2.9763496e-20
-1.8159164e-20 -2.3110333e-17 -1.2668609e-18 -3.1890812e-13 -1.9630803e-14 2.6621078e-20 -1.1235688e-20 -1.8786236e-07
-3.2765792e-18 1.2280808e-12 2.8834298e-20 7.859637e-12 -2.1368862e-13 4.5731536e-16 2.0991164e-09 -5.304346e-22
-1.9365882e-13 5.858392e-19 -3.2695853e-09 -6.868081e-20 1.884147e-21 -3.1462013e-09 -2.421375e-15 9.836765e-19
-1.8348353e-17 -6.566221e-20 0.009341097 0.028852925 0.0005198576 0.017195178 0.012508285 -0.03016429
0.026112188 0.03391518 -0.0031494126 -0.016710335 0.054695107 -0.008830327 0.035778917 0.031578165
0.011723619 -0.020997066 0.0010091758 0.0035850767 -0.01097558 -0.017150572 0.037233356 0.025089823
0.028294329 0.032106984 0.047840256 0.0005294084 0.01846906 0.037775576 0.030973515 0.015025886
-0.008572422 -0.01788615 0.0099649485 -0.0068466724 -0.0037718306 0.027342282 -0.025139056 -0.014384103
0.016092446 0.03235458 -0.04676523 0.014118765 -0.029870184 -0.026279824 -0.0037510532 0.021050094

hidden_model.0.bias f4 [128]
00000000: 5862 3f3d 00a9 2bbd 0ddd e2bd 9102 093e
00000010: 13ff c83d 134c 0cbe 1024 3ba5 2c2e 77bd
00000020: fd8a 973d b16a 063e 8f37 0b3c 4e4f 8e3c
00000030: 6704 e2bd 4f1e 123e a764 ceb2 06b1 ffbd
00000040: 465d 2eb4 4a3c 87bc c086 40bd 6541 d628
00000050: a2e8 98bd ddd5 e3bd cc9d 34be 17c6 473e
00000060: 47b9 373e 7be6 40b3 ea60 5c3d 2249 573e
00000070: f312 8d9e ea77 e63c 8033 25bc 0a45 b3bd
00000080: d7e0 8e3d 7a75 6cbd 30e3 4f27 6b99 e6a9
00000090: 9e22 f53d c623 2429 98ce 82b3 bf57 1a9f
000000a0: ca0f 8a3d f80f d4b7 f1c4 2d3e a50e 10be
000000b0: aa4d 1f2a ef2b 073d a690 42be aa9e 003e
000000c0: e47c 363e e78a c4bd 8c6d 9cb3 23ce 8e3d
000000d0: d5c7 9fb2 fd09 5db4 3811 7331 92f9 75b0
000000e0: 1110 f53d e135 6ab5 f8a5 3922 2faa 8eb1
000000f0: 16b5 4b3e 55e9 e9bc 733d 8e3d 2443 3e3e
00000100: affa 833d 0df4 273e fa64 4ebd c848 29be
00000110: 2ff5 d13d 3ca8 dd3d b1d0 d0bc 31bf 25b3
00000120: 33d1 163e 60a0 753e 1d31 f93d b8e0 963d
00000130: 73ca 7bbd 8a55 aaad 9763 94a7 75d9 d23b
00000140: 53a0 583d 279e 7e28 64ca 2e3e 7ee8 33bc
00000150: 4378 dcbd 6535 f9b3 4743 2e3e 93a6 743e
00000160: 7862 02be 9733 42bd 67e5 ab3c c78b f63c
00000170: f04e a83d 1a22 b7b2 1974 753e 62b5 3a3e
00000180: 0d5a 86bd c71c 02bd a0fc 8fbd 15ba efbd
00000190: c186 66a0 a48c bcbc a340 833c 39d5 ff3d
000001a0: f8fd a1bc da4d 89b2 9367 ac3c 5807 da3b
000001b0: d522 c2bd 2695 e7b1 62f3 9f3d 7997 2b20
000001c0: 6f20 f73d c3fb 5cb1 0b3e 0ab1 25b2 2a3e
000001d0: 2a06 bfbd 6714 cf3d 5517 f3b3 cfc9 1c3e
000001e0: 0d74 5c3c b02c 8cbd 10ee 40be 2d3a 11bd
000001f0: 12a6 ca3b 7698 213e 4b0a 412e 3f1d 973a
0.046724647 -0.041909218 -0.11077318 0.13379885 0.098142765 -0.13700895 -1.6231883e-16 -0.060346767
0.07399557 0.13126637 0.008497133 0.0173718 -0.11035996 0.14269374 -2.4027328e-08 -0.124849364
-1.6238945e-07 -0.01650824 -0.047003508 2.3787133e-14 -0.07466246 -0.111247756 -0.1763832 0.19509159
0.17941771 -4.4913104e-08 0.053803362 0.21023992 -1.4936793e-20 0.028133351 -0.010083079 -0.087534025
0.069764785 -0.057729222 2.885018e-15 -1.02406656e-13 0.11969493 3.6446344e-14 -6.091176e-08 -3.268335e-20
0.06741293 -2.5279805e-05 0.16969658 -0.14068086 1.4148982e-13 0.033000883 -0.19000491 0.12560526
0.1782108 -0.09596806 -7.2842425e-08 0.06972911 -1.860091e-08 -2.0585863e-07 3.5370942e-09 -8.948514e-10
0.11965955 -8.7250197e-07 2.5160038e-18 -4.1520916e-09 0.19893298 -0.028553644 0.06945314 0.185803
0.064442985 0.16401692 -0.050389268 -0.1653167 0.10251843 0.10823104 -0.025490137 -3.8590944e-08
0.1472824 0.2398696 0.12167571 0.073670805 -0.061472367 -1.936475e-11 -4.1186227e-15 0.0064346143
0.052887272 1.4134126e-14 0.17069393 -0.010980723 -0.107651256 -1.16046785e-07 0.17017852 0.23891668
-0.12732875 -0.04741248 0.020983411 0.030095948 0.08218181 -2.1319511e-08 0.23970069 0.18233255
-0.065601446 -0.031765725 -0.07030606 -0.11705414 -1.9526344e-19 -0.023016281 0.016022032 0.12491841
-0.019774422 -1.5984302e-08 0.021045482 0.0066537075 -0.094793 -6.739941e-09 0.078100935 1.4534381e-19
0.12066733 -3.2157323e-09 -2.011691e-09 0.16669519 -0.093273476 0.10111313 -1.1319813e-07 0.15311359
0.013455403 -0.06844461 -0.18840814 -0.03545587 0.006184348 0.15780815 4.389226e-11 0.0011529102

hidden_model.2.weight f4 [128, 128]
00000000: 3a6b 0b3c d5be 09bc d710 dcbc c5c0 093d
00000010: bf49 ab3c bd84 f0bc 2ac4 029d b51d 67bc
00000020: d0f2 7d3c 05e6 c93c 3449 e23a 6106 c13b
00000030: 1fbc ecbc 672b df3c d330 a4b1 75c4 cbbc
00000040: a337 32a1 ff95 10bc b244 57bc d265 c01f
00000050: a1cf 95bc 8208 dbbc 4f91 38bd 6b6d 083d
00000060: bc19 143d ef88 72b1 db8d 803c 1132 3a3d
00000070: 649b 4722 1918 80bb db23 14bb b032 90bc
00000080: 7cb1 4c3c dbd8 a4bc 302a 2320 7b68 8f27
00000090: acd9 a83c 7dfe 2f2b 95c8 1930 1ff3 da21
000000a0: a72a 5d3c 19e9 18b2 4a38 143d b34f efbc
000000b0: 95a0 a82c 2a61 bf3b 6d0b 29bd c389 a83c
000000c0: 76b2 0c3d ef95 9abc efbe 7c31 83c4 503c
000000d0: ed59 a3b0 41e5 fc9f 5a13 9cb2 b350 dbb0
000000e0: dc47 d33c 94d7 872e 92f7 a7a4 599a 24af
000000f0: 3a81 153d 911e 01bc 21bc a33c d0ee 143d
00000100: c3f6 4b3c 72f9 de3c 9e99 b0bc 1ad9 23bd
00000110: 54c1 a03c a526 9e3c fc73 66bc 2007 299e
00000120: 624a e93c 6948 db3c e8a4 b13c 0fef 513c
00000130: c5cb 50bc 5418 0c2b 513f 5725 5e64 ee3a
00000140: 6731 1b3c 64e3 c21e 9a7d d33c 0abe 03bb
00000150: 4681 c7bc 732d d9b1 cba7 e73c f8eb 2b3d
00000160: 3911 e1bc daa4 93bc c43b d03a cc27 053c
00000170: 4a38 813c 0681 bcb0 fc49 4c3d bde9 0c3d
00000180: de8c bfbc d4c8 70bc ce77 fabc 1276 07bd
00000190: 468c 1a9e f89c a9bb 5f93 9d3a f3da a13c
000001a0: 9ba3 fbbb b95c 3031 4595 d93b 9975 903a
000001b0: 5e9d babc 22e3 241f 9482 a83c acb1 f79f
000001c0: 8ca5 a03c e2c0 c82f 7564 102f d9b2 f03c
000001d0: 701c dcbc c6a5 7c3c aab8 db24 d105 e93c
000001e0: b583 0cbb dd1a 72bc f596 24bd f776 e7bb
000001f0: d228 ec3a d1ae d83c 97c4 1a2e 8356 9139
00000200: 5444 36ab 87ef 28aa ec98 16ad 5ced 00ac
00000210: 8a3e 382b a144 5a2c 7cd1 ac9e 32af e82b
00000220: 1d6f 692b 6948 56ac 30d6 07ac b7c0 adab
00000230: b495 88ab 98f5 05ac 6ddb 9c24 246e f32a
00000240: 8fda a81e e2d9 96ac 1edd 14ac c683 e81d
00000250: 4dc1 d52a f778 a6ab 8703 d5aa 7d1f f2ac
00000260: 5473 ceab 5963 01a5 1931 832b 489c 35ac
00000270: c4b2 2a1f cc07 84ab b91c 7eab 493f 99ab
00000280: 9702 c32a 0e34 17ad 660d c920 8fe4 8723
00000290: 9842 d92b 60a6 139d 52e6 ab21 0cca 4521
000002a0: 26e4 d52a b317 aea6 7cd0 0bad a464 87ab
000002b0: 45ab a69f 4d83 a3aa 7674 3b2d 8fa7 adab
000002c0: c90f 16a9 f1dd 432d 00ff 6124 6b79 092c
000002d0: 52b3 31a3 6edc a19d 6a48 eda1 d87f 1ca3
000002e0: 200e 4fac 1781 1726 d9b4 961e 63af bb24
000002f0: 857d baab 4e9b ad2c dceb 3a2b 004e adac
00000300: 0e88 c62a 4b00 c7ac b5c1 cdaa 4363 ef2c
00000310: db2f 422b 4d57 b52b 3157 e82a a82a 5621
00000320: c99d b62c 7318 e3ac eb0d 5eac 1cd3 85ab
00000330: 0550 332b 2e2c 601f 4f6b e8a0 ef09 6c2a
00000340: 467c b629 1b71 1a1e e6da 6dac eaae 5caa
00000350: 6ccb a92b c747 eca4 d7f6 7bab 5f63 beac
00000360: 7d4d cd2a 47db 052c 2bd6 acab 5727 65aa
00000370: 24aa a42b 6448 20a4 6a9a d1ab fe7d b8ac
00000380: e88f daa9 9342 59aa dcb9 4c2d f92b 0aac
00000390: 302e 7f9e 4320 c7ab 9c1b 45ab 615b 1dab
000003a0: b911 8e2a ce7f d9a3 64c4 83aa 9b4d 14aa
000003b0: 11d8 71ab e17b 0fa1 69b7 24ab 0b5e c6a0
000003c0: 8d2d d6ab afc8 aba1 7fb7 1122 7d46 322c
000003d0: 0cb7 d0ab d3a9 f8ac aed6 569f 8aa5 0cac
000003e0: 0a40 3c2d e45f 6eac 3fe0 bdab 3d29 7da8
000003f0: 527f 932a 60ce 08ab ec34 8ba2 f74d 1caa
0.0085094515 -0.008407314 -0.026863499 0.033631105 0.020909188 -0.02936017 -1.7306771e-21 -0.014106204
0.015499786 0.024645815 0.0017264248 0.005890653 -0.028898297 0.027242376 -4.778579e-09 -0.024873951
-6.038238e-19 -0.008824824 -0.013138937 8.148361e-20 -0.018287482 -0.026737455 -0.045060452 0.033307474
0.036157355 -3.5293473e-09 0.015692642 0.045457903 2.7051792e-18 -0.0039091227 -0.002260438 -0.017602295
0.012493487 -0.020122936 1.3820596e-19 3.980375e-15 0.020611607 6.2525663e-13 5.594612e-10 1.4836608e-18
0.013498939 -8.900565e-09 0.036186494 -0.029212808 4.7926754e-12 0.0058404403 -0.041270662 0.020573502
0.03434988 -0.018870322 3.677936e-09 0.012742165 -1.1885369e-09 -1.0710542e-19 -1.816959e-08 -1.5957283e-09
0.025791101 6.1773836e-11 -7.2844106e-17 -1.4970548e-10 0.036500193 -0.007880823 0.019987168 0.03636056
0.012448969 0.027218554 -0.021557625 -0.040001966 0.019623436 0.019305537 -0.014065739 -8.948259e-21
0.028477851 0.026767926 0.021685079 0.012813344 -0.012743895 4.9771754e-13 1.866973e-16 0.0018187871
0.009472228 2.0634596e-20 0.025816727 -0.0020102286 -0.024353635 -6.320698e-09 0.028278252 0.041973084
-0.027474033 -0.018022943 0.0015886952 0.008127164 0.015773911 -1.3715471e-09 0.049875244 0.034402598
-0.0233826 -0.014696319 -0.030574705 -0.033071585 -8.1817e-21 -0.005176183 0.001202207 0.019757723
-0.0076794154 2.5664078e-09 0.006640109 0.0011021375 -0.022780117 3.491623e-20 0.020570077 -1.049025e-19
0.019610189 3.651684e-10 1.3132413e-10 0.029382156 -0.026869029 0.015420383 9.5288943e-17 0.028445156
-0.0021440808 -0.0147769125 -0.040183026 -0.0070637423 0.0018017536 0.026450546 3.5190153e-11 0.0002772101
-6.4754213e-13 -1.50045e-13 -8.560468e-12 -1.8321655e-12 6.545672e-13 3.101776e-12 -1.8297849e-20 1.6533218e-12
8.293243e-13 -3.0451425e-12 -1.9303552e-12 -1.2345878e-12 -9.704932e-13 -1.9036769e-12 6.802594e-17 4.3241897e-13
1.7878086e-20 -4.2874463e-12 -2.115481e-12 6.154614e-21 3.797053e-13 -1.1828584e-12 -3.7838848e-13 -6.8815496e-12
-1.466919e-12 -1.1222627e-16 9.321737e-13 -2.58084e-12 3.6146772e-20 -9.381328e-13 -9.027879e-13 -1.0888869e-12
3.4640755e-13 -8.594915e-12 3.405959e-19 1.4733528e-17 1.5437261e-12 -1.9541302e-21 1.1648376e-18 6.7013603e-19
3.799471e-13 -1.2080099e-15 -7.947528e-12 -9.62026e-13 -7.0587076e-20 -2.9045725e-13 1.0655579e-11 -1.2338896e-12
-3.3320382e-14 1.1133748e-11 4.900509e-17 1.9536271e-12 -9.633162e-18 -4.2844264e-21 -1.6078913e-18 -8.483849e-18
-2.942431e-12 5.25636e-16 1.5956665e-20 8.139544e-17 -1.3250934e-12 4.934198e-12 6.6407795e-13 -4.9256155e-12
3.5266272e-13 -5.6559527e-12 -3.6549726e-13 6.803809e-12 6.898906e-13 1.2885054e-12 4.127198e-13 7.2562475e-19
5.190269e-12 -6.4544424e-12 -3.1555823e-12 -9.508813e-13 6.3704624e-13 4.747039e-20 -3.937334e-19 2.0964457e-13
8.1039816e-14 8.176082e-21 -3.3801239e-12 -1.9600611e-13 1.2064633e-12 -1.0247028e-16 -8.951567e-13 -5.411157e-12
3.6469084e-13 1.902216e-12 -1.2280779e-12 -2.0352935e-13 1.1700124e-12 -3.4755787e-17 -1.4893202e-12 -5.2435825e-12
-9.7061085e-14 -1.9296569e-13 1.16373265e-11 -1.963539e-12 -1.3509139e-20 -1.4148755e-12 -7.0026775e-13 -5.590442e-13
2.5236565e-13 -2.3581315e-17 -2.3406548e-13 -1.3171965e-13 -8.592025e-13 -4.8614237e-19 -5.8519037e-13 -3.3604737e-19
-1.5218257e-12 -1.1640531e-18 1.9748306e-18 2.533445e-12 -1.4830095e-12 -7.067438e-12 -4.549384e-20 -1.998709e-12
1.0700782e-11 -3.3875064e-12 -1.3491498e-12 -1.4053263e-14 2.6200792e-13 -4.860331e-13 -3.773206e-18 -1.3882633e-13

hidden_model.2.bias f4 [128]
00000000: 7f2e cb3d cf38 3f2d aebb ca3d 7fa9 923d
00000010: dfb4 f722 572d fa3c eb25 72bb 3abe 1726
00000020: 626e 6b3d dc6a 98a7 badf 6132 4040 c03d
00000030: 3a77 6225 39a2 ae39 b3e0 163e 6c5a 943d
00000040: 0c64 b3bc 6045 093c 4fdf 9027 d6cf ac3d
00000050: 9e65 63a5 f855 3631 4543 c43d f755 d1a9
00000060: b5b0 89a4 dbcd f5ba 5353 c824 7811 f93d
00000070: c99b 58bd d506 0d3e fb2a 12bd 25a5 d83d
00000080: cafb ee3d 1285 a33d a67a b63d 8baa a23d
00000090: c5ba cc3b a75f 243c 1be7 48bd e428 34a9
000000a0: 54f6 c23d 225e 46bd 1641 8abb 8228 103e
000000b0: 642b d03c 50b8 2dbc 1dc5 b825 8607 2a3d
000000c0: a5f2 f03d 3770 dd3d c5dd 4d24 909f 26bd
000000d0: bda1 03a7 b34f 31a9 de59 d0bb 9ce4 f93d
000000e0: 1b75 923b c734 49a5 51f7 06bd a338 1f3d
000000f0: f4d1 0e24 0187 cd39 14ca dda4 0459 053e
00000100: e9d3 6ca5 afcc 50ac a8d5 caa8 ea44 37bd
00000110: 41e2 a93d 673e d0b9 cbe6 b13d aa86 eb3d
00000120: 47e6 c4bc 5dcb b33c cf2a fb3d b40f d9a7
00000130: 5a2a 5425 8198 bfa4 2d38 0f23 ee3b cda5
00000140: 6b95 37bc 984f efa5 55df b23d 2c36 1c27
00000150: 8084 9e3d 0fd1 0d25 480b 3b3d 5640 b4ac
00000160: e2ca 4f32 c1cf ea3d 19ff d33d f50e 643c
00000170: a659 68bc 4401 16bd 52b1 ad3d 6ac5 11a5
00000180: f396 c43d 0694 b23c e64a 18a6 2c22 87bc
00000190: ebed 2634 6009 bb3c 1b71 cd3d 07ff c93d
000001a0: 840a 5c3c 18b1 e8bc 4625 30a5 94e8 baba
000001b0: f91d ec3d cc54 313d 154b e93d 99c8 52bd
000001c0: 7592 a03c 0460 f23d 1825 bdb6 804d 213d
000001d0: 2e09 96a8 946f a0b1 2ad5 c13d dea9 1c3d
000001e0: 3894 783d 84ab 063e 99d1 96ba c071 02a6
000001f0: 1824 98a5 8b3e acbb 9519 d83d bedc 1f27
0.09920978 1.0869707e-11 0.09899078 0.07161235 6.714099e-18 0.030539198 -0.003694887 5.2646454e-16
0.057478316 -4.230433e-15 1.3147593e-08 0.09387255 1.9642771e-16 0.00033308732 0.14734153 0.07243809
-0.021898292 0.008378357 4.021014e-15 0.08438079 -1.9723541e-16 2.6533353e-09 0.09583143 -9.296377e-14
-5.971363e-17 -0.0018753366 8.687733e-17 0.12161535 -0.052882943 0.13772137 -0.03568552 0.10578374
0.11669119 0.079843655 0.08910112 0.07942685 0.0062478506 0.010032571 -0.049048524 -4.0003496e-14
0.095196396 -0.048429616 -0.0042191846 0.14077953 0.025411315 -0.010603026 3.205248e-16 0.04151108
0.11765031 0.10812419 4.4640135e-17 -0.040679514 -1.826758e-15 -3.9371023e-14 -0.0063583693 0.12201807
0.0044695265 -1.7451853e-16 -0.032950703 0.038872372 3.096918e-17 0.00039201233 -9.6185806e-17 0.13022238
-2.0541535e-16 -2.96722e-12 -2.2519164e-14 -0.044743456 0.08295108 -0.00039719345 0.086865984 0.115002945
-0.024035586 0.021947557 0.122640245 -6.0246624e-15 1.8402418e-16 -8.30914e-17 7.763941e-18 -3.560244e-16
-0.011205058 -4.1513826e-16 0.087340035 2.1678716e-15 0.07740116 1.2300632e-16 0.045665056 -5.1230504e-12
1.2095116e-08 0.11465407 0.103513904 0.013919582 -0.01418153 -0.0366223 0.08481087 -1.2643632e-16
0.09599104 0.021799099 -5.28371e-16 -0.016495787 1.5546509e-07 0.022831619 0.10031339 0.09863096
0.0134302415 -0.028404757 -1.5278195e-16 -0.0014259988 0.11529154 0.04329376 0.11391274 -0.051460836
0.019601086 0.1183472 -5.636957e-06 0.03938055 -1.6657326e-14 -4.669298e-09 0.09464486 0.038247935
0.060688227 0.13151366 -0.0011506557 -4.525697e-16 -2.6392255e-16 -0.005256479 0.105517544 2.2185347e-15

hidden_model.4.weight f4 [64, 128]
00000000: 8f1c fabc c68f 02ad 5bac d8bc 2885 283d
00000010: 5830 e4a1 3dab f2bb e5ac 5b3d 1c28 68a4
00000020: ae03 91bc 428a 4425 fffa e730 7700 0fbd
00000030: 281e 5824 6cad a23c f69c 4fbd f84e b5bc
00000040: 205d 283d f2f1 f8ba cfb3 ac25 1c91 08bd
00000050: c4f2 da21 db6d 5430 bd74 ecbc 1754 f328
00000060: ccd0 a6a4 baa5 103d 894a dd23 808f 13bd
00000070: a16b 933d 1e41 31bd 5c0c 8b3d 311b 6abc
00000080: c45e febc f7a5 07bd 0b3b c7bc 1e9f a1bc
00000090: 512b 883d 3538 22bb 2053 953d 3bf7 b025
000000a0: a4c0 f1bc f4f9 b03d 89d6 af3d 0c49 29bd
000000b0: 8656 df3c 29d1 ed3c fe19 eba3 7690 31bc
000000c0: 6bb6 1dbd 8abd 14bd 1b1b ef23 017d 893d
000000d0: b006 3026 8116 15a6 3c8b 2c3d 2790 11bd
000000e0: b4b1 82ba 9f64 9fa5 afa0 943d b6d6 913c
000000f0: 060d 35a3 5636 aab8 076f 11a6 7031 23bd
00000100: 2377 8c24 8880 522a 87cb 0ea6 8496 933d
00000110: 7cca a2bc 3416 8f3d e8b2 dabc 8af0 cb3c
00000120: 6340 673d e0eb 9fbb c7b6 1abd 6355 9e26
00000130: d002 3b22 d197 b222 f6ac 2223 7619 af25
00000140: 4ec7 293d 6fd9 4e25 23ca d6bc d7a1 3027
00000150: 7045 c8bc bac2 1024 a864 663d 2030 482b
00000160: 3cf2 6c2f 3b8f e0bc ac5f eebc 10cf 5ebb
00000170: aa3b 623d 2f99 813d 0055 05bc e8e7 3322
00000180: 4b17 97bc 78db 053d 8410 1a26 f97f 593d
00000190: f333 46b5 25e8 093c 7c73 04bd 91bb f5bc
000001a0: a726 9c3d 4b30 863d 249a 2c24 2ac2 033c
000001b0: 8743 0dbd 9066 52ba 8f2c 13bd 9bd4 9a3d
000001c0: 6ead 9ebb afce d7bc e0b9 8c37 9241 c93a
000001d0: 8015 af26 a20c 84af f71b efbc 7b3a 4e3c
000001e0: accc 8dbc a11f 1dbd d876 143c 5307 75a3
000001f0: 8110 9c24 d546 cd3c 89a1 edbc 0c19 a126
00000200: 502e a1bc 26d3 562d 1d41 8cbc 38ee c23c
00000210: 09d1 a923 4fa9 a1bb 372c 123d d7f0 6821
00000220: 3b69 3cbc 4885 6327 1c2a 70b0 ec94 b7bc
00000230: feb9 4424 d32e 583c 3c14 03bd 2462 6bbc
00000240: a898 e03c 2140 a8ba 7b5d 2c24 5775 afbc
00000250: 8668 7ea4 0159 b130 af9e 98bc dd31 a028
00000260: 104c 3923 6ae2 c03c a34e 2d23 4546 bdbc
00000270: aaaf 423d 0390 dfbc e39f 3a3d bf1b 37bc
00000280: d712 a4bc 163b abbc 2511 80bc 19c0 52bc
00000290: a190 353d d6d6 ddba eb27 483d 0e29 8025
000002a0: b13e 9cbc 64dc 6e3d 1483 643d 4381 dabc
000002b0: c3f8 993c 2d32 9e3c 41c6 7322 b4d7 e8bb
000002c0: c42f cabc c310 bfbc 10a7 7223 30c2 363d
000002d0: 229f 7326 227e 8227 fb41 e63c 03ee bbbc
000002e0: fcb5 2eba a1a0 12a5 58be 443d 73ae 1b3c
000002f0: 747c 8022 2f63 58b8 294c a6a4 81f5 d0bc
00000300: 442b 9424 2959 4029 2efd a726 5978 433d
00000310: 86b6 58bc 1aa2 3e3d cec8 8dbc 8b11 443c
00000320: 8e25 1a3d 19c2 4dbb 4d89 c6bc e121 61a6
00000330: 3ee6 b223 bc09 8023 85ff ec22 89f5 8da2
00000340: e57b e13c 74a0 5324 aaf0 8abc 5939 10a5
00000350: f551 81bc ee4d ab23 1162 183d cc51 1f2a
00000360: dddb 16b0 a1ee 90bc add8 99bc c5c7 1bbb
00000370: 6395 163d 0fe1 2c3d e21d c0bb dd3c ba25
00000380: fc91 4bbc e27e a23c e3ed ee25 e743 113d
00000390: ba3d c5b4 e8f0 943b 6953 a8bc 6bbe 9ebc
000003a0: d2cb 413d b2e6 323d c60b d7a3 57b5 af3b
000003b0: a3c0 b5bc 2a88 4cba af42 bdbc 1ef4 4a3d
000003c0: 0109 55bb 28e2 9abc cea0 2f37 9a02 9f39
000003d0: 5dc1 ad26 5e44 ed2e d65f 9abc 9dde db3b
000003e0: 38a1 38bc b26b c9bc f37d c43b 2e06 5da6
000003f0: 1e5e 10a1 07af 883c 54c5 99bc 34e4 8a25
-0.030531196 -7.421569e-12 -0.026449373 0.041142613 -1.5462677e-18 -0.007405667 0.053631682 -5.0340955e-17
-0.01770195 1.7047134e-16 1.68788e-09 -0.034912553 4.6863077e-17 0.019858085 -0.0506868 -0.022132382
0.041104436 -0.0018993004 2.9959087e-16 -0.033341512 1.4836514e-18 7.7281265e-10 -0.028864259 2.7014888e-14
-7.234474e-17 0.0353143 2.3992435e-17 -0.036025524 0.07198263 -0.04327499 0.06789467 -0.0142887095
-0.031051047 -0.03311726 -0.024320146 -0.019729193 0.06648887 -0.002475274 0.072912455 3.0698663e-16
-0.029510804 0.08641425 0.08585841 -0.04132943 0.027262937 0.0290304 -2.548976e-17 -0.010837665
-0.038504045 -0.03631357 2.5923912e-17 0.06713296 6.107133e-16 -5.172526e-16 0.04212497 -0.035537865
-0.0009971173 -2.7650287e-16 0.072572105 0.017802577 -9.8147875e-18 -8.1163525e-05 -5.045745e-16 -0.03984207
6.091715e-17 1.869634e-13 -4.954198e-16 0.07206443 -0.019871943 0.06986657 -0.026696637 0.024894971
0.05645789 -0.0048804134 -0.037771966 1.0986596e-15 2.5344715e-18 4.840774e-18 8.8186635e-18 3.0374914e-16
0.041449837 1.7941321e-16 -0.026219433 2.451264e-15 -0.024447173 3.1389962e-17 0.056248337 7.112106e-13
2.1550134e-10 -0.027412048 -0.029098354 -0.003399793 0.05523268 0.063280456 -0.008137941 2.4381794e-18
-0.018443724 0.032680005 5.3451866e-16 0.05310056 -7.3836344e-07 0.008417164 -0.032336697 -0.029996665
0.0762456 0.0655218 3.7427117e-17 0.008041898 -0.034488227 -0.0008026147 -0.035931166 0.075600825
-0.004842452 -0.026343672 1.6775855e-05 0.0015354624 1.2148892e-15 -2.4019636e-10 -0.02918814 0.012587185
-0.01730951 -0.03836024 0.009061538 -1.32830276e-17 6.7682174e-17 0.02505819 -0.02900769 1.1178408e-15
-0.019675404 1.2211376e-11 -0.017120892 0.023795232 1.8411547e-17 -0.0049335132 0.035686698 7.8923406e-19
-0.011499698 3.157483e-15 -8.737133e-10 -0.022409879 4.2658267e-17 0.0131947575 -0.03200172 -0.01436666
0.027416542 -0.0012836495 3.7375736e-17 -0.021418257 -5.5166005e-17 1.2903741e-09 -0.018630354 1.7785193e-14
1.0044977e-17 0.023545463 9.395001e-18 -0.023104796 0.047530808 -0.02729035 0.045562636 -0.011176049
-0.020028515 -0.020902198 -0.015633175 -0.012863182 0.044327382 -0.0016924988 0.048866194 2.223228e-16
-0.019072862 0.05831565 0.05578907 -0.026672965 0.018795377 0.019311035 3.3037596e-18 -0.007105792
-0.02468098 -0.023323422 1.3154223e-17 0.044618785 8.4523226e-16 3.6219e-15 0.028107634 -0.022940641
-0.0006664691 -1.2717905e-16 0.04803309 0.009502041 3.482624e-18 -5.1590785e-05 -7.2120045e-17 -0.02550769
6.4258063e-17 4.2709898e-14 1.1656577e-15 0.047722194 -0.013227111 0.04654131 -0.017307665 0.011967073
0.03763347 -0.0031396209 -0.024235392 -7.810847e-16 1.939631e-17 1.388191e-17 6.423847e-18 -3.8478097e-18
0.027524898 4.588924e-17 -0.01696046 -1.2509439e-16 -0.01578615 1.8572862e-17 0.0372029 1.4150416e-13
-5.4882127e-10 -0.017691912 -0.018780077 -0.0023770195 0.03676356 0.04220682 -0.0058629373 3.23071e-16
-0.012424942 0.019835893 4.1447617e-16 0.035465147 -3.6739021e-07 0.00454532 -0.020547586 -0.019377908
0.04731352 0.04367704 -2.3315333e-17 0.0053621936 -0.022186583 -0.00078022724 -0.023103086 0.049549215
-0.0032506587 -0.018906668 1.0468253e-05 0.00030328782 1.2056698e-15 1.0789657e-10 -0.018844526 0.006709887
-0.011268906 -0.024587486 0.0059964596 -7.6683153e-16 -4.891366e-19 0.016685022 -0.018770851 2.409382e-16

hidden_model.4.bias f4 [64]
00000000: 75b6 393d eed7 e53c 2434 2f30 b92e e33c
00000010: 6647 77a9 5fa0 033d 4918 d93c b893 c93c
00000020: 7f46 b93d 6a8b a93d 7065 c13c e7b6 883d
00000030: e7fd 063d 2dd7 bd36 8913 bd3d 2be8 a8b6
00000040: bdf1 0e3d db88 852b b526 b93d 41f4 ea3d
00000050: 0907 1b3c e0f5 b7ae ac00 f73d 900e 0630
00000060: dc15 283d 1ccc f63c 2ef6 033d 2b16 0a3d
00000070: 2d71 b33d 693d a131 9716 76ac 12e9 b93d
00000080: 32aa a93d 16ce 103d 65a3 0134 58ed 1a3d
00000090: e9a5 033d 842d a73d 9389 dc3d 0bda 3130
000000a0: e86f 203d d02c 2731 0a13 b63d 1bba dd3d
000000b0: f046 4133 79cb 7f2b ccfe d03c 681e ae3c
000000c0: 39d0 cc3d ffc4 b73d 1e6a 6e34 29f2 b73c
000000d0: eed8 183d 8e60 413d 45ce 263d 2998 d43d
000000e0: d3bd deb2 dcee b03d 7848 be3c a134 b23c
000000f0: 0189 bc3d cd9c 693d 5c4b e13d 7e07 ba3d
0.04534002 0.028057065 6.3738725e-10 0.02773224 -5.4906946e-14 0.032135364 0.026500838 0.02460657
0.09046649 0.08278544 0.02360794 0.06675511 0.032956984 5.6576887e-06 0.09232242 -5.033818e-06
0.03489851 9.488203e-13 0.09040586 0.11472369 0.0094621265 -8.365553e-11 0.12060675 4.876961e-10
0.04103647 0.030126624 0.032217197 0.033712547 0.08761821 4.6926982e-09 -3.4971242e-12 0.09077658
0.08284415 0.03535279 1.2073504e-07 0.037824005 0.032140646 0.08162978 0.10768428 6.470208e-10
0.039169222 2.4327171e-09 0.0889035 0.108265124 4.500083e-08 9.0876574e-13 0.025512122 0.021254733
0.10000653 0.08973121 2.2204082e-07 0.022454338 0.037316255 0.047211222 0.040724058 0.10380585
-2.5930524e-08 0.08639309 0.023227915 0.021753611 0.09205819 0.057034303 0.11000702 0.0908346

fc1.weight f4 [2, 64]
00000000: 48fa 88be 1b93 42be 2636 4931 7ea6 0bbe
00000010: 39e1 3a2a 5e5a 34be 348b 16be e028 78be
00000020: b965 753e f488 633e f8ca 0abe 757b 4f3e
00000030: 3d0b 5fbe 801a a137 b1ea 3b3e b244 deb8
00000040: 4cfd 54be 5dd6 eb2c c7c6 7d3e 641f 7b3e
00000050: 1715 46bd 7990 10a7 48a4 3a3e 951c 8f30
00000060: d697 74be 4e5d 1ebe 449f 5fbe a82f 51be
00000070: 85f7 6e3e aa94 1532 1404 c02c 191f 2a3e
00000080: d9ef 6d3e 131e 45be f1da 8434 02da b13d
00000090: 8c65 39be 991a 613e 4480 9f3e 8aa1 f6b0
000000a0: bf61 74be 98d1 2ab2 1eef 3b3e a1a9 923e
000000b0: 8a50 0134 b3ae 152c de0e 63be 2b7d 92be
000000c0: dc6c 4a3e 7f49 5f3e dc29 1a35 d7e5 ecbd
000000d0: 1b2e 70be b034 fd3d 6469 40be 873f 9a3e
000000e0: 5457 6c1e e8a3 723e d02a 5abe 599c 61be
000000f0: 2fe2 7f3e 437e 88be 193b 8a3e 10f9 2f3e
00000100: 920f 793e f23f 1a3e 8043 e7b1 a0bc 183e
00000110: f631 4fa9 63ef 2b3e b962 163e bf83 673e
00000120: 85c5 10be dec8 61be dbbf 0a3e 9032 82be
00000130: 5695 623e 076a 5fb7 b706 74be 8bc9 9db8
00000140: dd5e 563e eec0 17ac d064 77be 0284 92be
00000150: 6409 463d 5133 a4a0 84f2 87be af5d 9cb0
00000160: a8a5 623e 4a59 5a3e f131 553e a90c 423e
00000170: e04a 34be 3679 7332 b6b7 45ad 1057 82be
00000180: 533e 86be 8e56 813e c47a 9ab4 565d babd
00000190: fd58 453e 8656 61be 1038 9ebe 2ede e030
000001a0: 967e 743e 1c18 1d32 f2c8 17be 2e74 a1be
000001b0: 0011 cfb3 e63f 9bac 784c 5c3e 7d04 8e3e
000001c0: d1cf 63be bfaf 36be f338 3d36 ac58 083e
000001d0: 3ea9 703e 8d06 fdbd 3d73 613e 0819 99be
000001e0: e603 14a5 92a5 71be 185e 573e 6a83 4f3e
000001f0: 9225 28be 4cd2 833e eb66 1bbe 9051 5bbe
-0.2675345 -0.19001429 2.928013e-09 -0.1363773 1.6598258e-13 -0.17612597 -0.1470154 -0.24234343
0.23964585 0.22220212 -0.13553989 0.20261939 -0.21781631 1.9205036e-05 0.18351246 -0.000105985804
-0.2079975 6.702901e-12 0.24782859 0.24523693 -0.048359957 -2.0062333e-15 0.18226731 1.0412743e-09
-0.23886046 -0.1546528 -0.21838099 -0.20428336 0.23336609 8.706744e-09 5.457421e-12 0.16613425
0.23236026 -0.19249754 2.4746217e-07 0.0868416 -0.18105143 0.21982802 0.31152546 -1.7944768e-09
-0.23865412 -9.9429585e-09 0.18352935 0.28645042 1.2043361e-07 2.127115e-12 -0.2217364 -0.2861112
0.19768089 0.2180538 5.7430384e-07 -0.11567276 -0.23455088 0.12363565 -0.18790203 0.30126593
1.2511795e-20 0.23695338 -0.21305394 -0.22032298 0.24988626 -0.2665883 0.26998213 0.17184854
0.24322346 0.15063456 -6.7306587e-09 0.14915705 -4.6006567e-14 0.16790538 0.14686097 0.22608851
-0.14137848 -0.22049281 0.1354975 -0.254292 0.2212728 -1.3316522e-05 -0.23830687 -7.523884e-05
0.20934625 -2.1565488e-12 -0.2415955 -0.2861634 0.0483488 -2.781664e-19 -0.26552212 -1.137712e-09
0.22133505 0.21323124 0.20819832 0.18950142 -0.17606688 1.4172022e-08 -1.12389455e-11 -0.25457048
-0.26219425 0.25261348 -2.877406e-07 -0.09099834 0.19272228 -0.22005662 -0.30902147 1.6361292e-09
0.23876414 9.144085e-09 -0.14822748 -0.3153395 -9.642281e-08 -4.412459e-12 0.21513546 0.277378
-0.22247244 -0.1784048 2.8196343e-06 0.13315076 0.23502061 -0.12354765 0.22016616 -0.2990191
-1.2838275e-16 -0.23598316 0.21031988 0.20264974 -0.16420582 0.2574638 -0.15175979 -0.21417832

fc1.bias f4 [2]
00000000: ebb9 d6bc e79c 583c
-0.0262117 0.013221002
