save/example-iris-e200.pt (torch_old, 2203 bytes, 6 tensors)

hidden_model.0.weight f4 [12, 4]
0.7960804 0.52550185 -0.4416338 -0.59456766 -0.40319294 0.39946985 0.044377923 0.24803686
-0.4072557 -0.0001911521 -0.3212005 -0.22562754 -0.49183285 0.018228412 -0.027892053 0.17202896
-0.035800755 -0.4343063 0.65518534 0.6847745 -0.3602084 -0.004048231 0.8643625 0.55138385
-0.15729246 -0.23561862 0.36101153 0.058065727 0.22328097 -0.28388613 -0.30184817 -0.4628588
-0.28349125 -0.013373981 0.87011266 0.65700436 -0.29884654 -0.23694044 -0.16394055 0.462425
0.7318056 0.5547491 0.3939781 0.22562003 -0.2512301 -0.12714513 0.7012549 0.69108284
00000000: edcb 4b3f 4a87 063f d31d e2be 9635 18bf
00000010: 4e6f cebe 5087 cc3e a0c5 353d 60fd 7d3e
00000020: d283 d0be 0070 48b9 6474 a4be e80a 67be
00000030: 84d1 fbbe c053 953c e07d e4bc 5c28 303e
00000040: d0a3 12bd 655d debe 3aba 273f 624d 2f3f
00000050: 3c6d b8be 06a7 84bb dc46 5d3f 7e27 0d3f
00000060: 4611 21be 0246 71be 81d6 b83e 54d6 6d3d
00000070: c4a3 643e 8659 91be d88b 9abe d4fb ecbe
00000080: c425 91be 8b1e 5bbc b4bf 5e3f 7031 283f
00000090: 6a02 99be 84a0 72be 08e0 27be f8c2 ec3e
000000a0: 9d57 3b3f 0904 0e3f 7fb7 c93e f008 673e
000000b0: 3ba1 80be 5532 02be 7185 333f ceea 303f

hidden_model.0.bias f4 [12]
0.35499805 -0.39793533 -0.08376342 -0.45985907 0.3639123 0.28335384 0.05156504 -0.18260366
-0.11708767 -0.07789606 0.17004915 0.28887582
00000000: 4ec2 b53e 2ebe cbbe 288c abbd a672 ebbe
00000010: b752 ba3e c113 913e dd35 533d 74fc 3abe
00000020: a9cb efbd f887 9fbd 5d21 2e3e 88e7 933e

hidden_model.2.weight f4 [12, 12]
0.10138968 -0.115219414 0.27675664 0.2586707 -0.16823092 0.08796072 0.10974491 -0.05364777
0.0071238577 -0.12669896 -0.28350964 0.2401613 -0.224293 -0.21110241 -0.20734939 -0.22645628
0.07628073 0.15698428 -0.22253692 0.067151785 0.24736069 0.099307984 -0.21239911 0.23879616
-0.110431254 0.25976342 -0.116530165 0.27886224 0.16487746 0.52847517 0.07834362 0.1678069
0.33418483 -0.21121332 0.07077309 0.13165027 1.1987903 -0.21561843 0.2718845 0.1809259
-0.5757674 -0.41817218 -0.22373389 0.08918929 -0.7575111 0.2879846 0.6187479 -0.6731281
0.2701463 0.26521927 0.16665605 0.24310362 -0.18765679 -0.1549008 0.06726301 -0.104322955
0.12630787 -0.14360453 -0.2397439 -0.2014839 -0.06788646 0.2428661 -0.12009615 -0.2840396
0.189732 0.36376542 0.19270307 0.0067590773 0.24153966 -0.2622267 -0.2745454 0.29188222
-0.16688725 -0.08990942 -0.089852124 0.23169571 0.2879408 -0.043226555 0.116535455 -0.06877537
0.25661045 -0.13321403 -0.2752808 0.00865522 -0.33014476 -0.26671213 -0.113887295 -0.109313905
0.38731757 0.57122153 -0.006427199 0.02749914 0.42088082 -0.037879497 0.38477948 0.42889196
-0.020314224 -0.13594013 -0.10465911 -0.024776876 0.2190361 0.058456544 -0.09780482 0.22457886
0.05620104 -0.091656074 0.25218204 -0.12204992 0.1402616 -0.09282696 0.14810652 0.19802037
0.14077704 0.1818164 -0.017000068 0.15981796 0.17232017 -0.16895768 0.11802409 0.3851688
0.02275974 0.021876067 -0.26735872 -0.0511982 -0.10417758 -0.21417789 -0.18468954 0.21654671
0.1457271 -0.05289203 0.23992674 -0.34144968 -0.14367846 -0.21879211 -0.08030003 -0.22622654
-0.20761725 -0.1763658 0.2513265 -0.015266836 -0.20714597 -0.1130425 -0.2537223 0.08740437
00000000: 64a5 cf3d 28f8 ebbd 0cb3 8d3e 7c70 843e
00000010: ba44 2cbe c024 b43d f0c1 e03d c4bd 5bbd
00000020: 406f e93b 5fbd 01be 2d28 91be d8ec 753e
00000030: 10ad 65be 3b2b 58be 6653 54be 28e4 67be
00000040: 1239 9c3d 7dc0 203e b8e0 63be e086 893d
00000050: 1f4c 7d3e fc61 cb3d 277f 59be fb86 743e
00000060: c829 e2bd b6ff 843e 5ea7 eebd 08c7 8e3e
00000070: a3d5 283e 264a 073f 9f72 a03d 92d5 2b3e
00000080: 461a ab3e 4e48 58be 7bf1 903d 54cf 063e
00000090: f671 993f 14cb 5cbe 7234 8b3e a444 393e
000000a0: 7e65 13bf aa1a d6be 7f1a 65be e0a8 b63d
000000b0: 3fec 41bf b872 933e 4366 1e3f 2052 2cbf
000000c0: 9e50 8a3e d2ca 873e e2a7 2a3e 28f0 783e
000000d0: 1a29 40be 519e 1ebe 30c1 893d 46a7 d5bd
000000e0: da56 013e 110d 13be 6d7f 75be cc51 4ebe
000000f0: 0e08 8bbd e4b1 783e f8f4 f5bd a36d 91be
00000100: 1b49 423e 763f ba3e f453 453e 407b dd3b
00000110: 2c56 773e 9442 86be 3791 8cbe 9671 953e
00000120: 7ee4 2abe 6e22 b8bd 6404 b8bd a441 6d3e
00000130: fa6c 933e 540e 31bd 24aa ee3d 1ada 8cbd
00000140: 7262 833e 4269 08be 9bf1 8cbe a0ce 0d3c
00000150: bc08 a9be 7e8e 88be be3d e9bd f8df dfbd
00000160: 7d4e c63e 933b 123f 419b d2bb e045 e13c
00000170: b17d d73e 8827 1bbd d101 c53e ba97 db3e
00000180: 046a a6bc e433 0bbe 8457 d6bd e0f8 cabc
00000190: 004b 603e 2170 6f3d e54d c8bd 00f8 653e
000001a0: 1033 663d 2eb6 bbbd 011e 813e 4ff5 f9bd
000001b0: bda0 0f3e 101c bebd 3ca9 173e dac5 4a3e
000001c0: db27 103e 142e 3a3e ba43 8bbc 52a7 233e
000001d0: b374 303e 3e03 2dbe 9db6 f13d d834 c53e
000001e0: a272 ba3c 7035 b33c 3ee3 88be 34b5 51bd
000001f0: 0e5b d5bd 7351 5bbe 411f 3dbe 6cbe 5d3e
00000200: 7c39 153e 50a5 58bd 5baf 753e 7ed2 aebe
00000210: 7220 13be 0a0b 60be 5874 a4bd eea7 67be
00000220: 9e99 54be 3c99 34be dead 803e c021 7abc
00000230: 131e 54be d482 e7bd e4e7 81be 1001 b33d

hidden_model.2.bias f4 [12]
-0.021140695 -0.25352624 0.07600136 0.44548216 -0.14712569 -0.15928827 -0.1358349 -0.22067946
-0.25411242 0.122552484 0.14566882 -0.23644176
00000000: 402f adbc 31ce 81be 9aa6 9b3d 3d16 e43e
00000010: 1ea8 16be 771c 23be 4e18 0bbe ccf9 61be
00000020: 061b 82be ccfc fa3d 352a 153e ca1d 72be

fc1.weight f4 [3, 12]
-0.24592836 0.23351485 -0.4443347 1.1833636 0.20573959 -0.0058727176 0.2449407 -0.56748706
-0.030477876 -0.14520359 -0.07803936 -0.037505716 0.19919422 0.17719233 -0.0310069 0.4606335
0.13109553 -0.5427273 0.27011162 0.33865592 0.20980798 0.3680308 0.050972044 0.017903537
-0.18023616 0.027741855 0.35355166 -1.4502394 -0.09905392 0.22859155 -0.22402161 0.8545721
0.19602898 0.2916226 -0.3944836 0.17054129
00000000: a5d4 7bbe 841e 6f3e d67f e3be 7578 973f
00000010: 66ad 523e ed6f c0bb bcd1 7a3e d546 11bf
00000020: bdac f9bc 40b0 14be 1ad3 9fbd 989f 19bd
00000030: 92f9 4b3e e871 353e 2f02 febc 27d8 eb3e
00000040: e83d 063e 2df0 0abf 124c 8a3e 4f64 ad3e
00000050: e7d7 563e 886e bc3e 10c8 503d 70aa 923c
00000060: d48f 38be e342 e33c b904 b53e 72a1 b9bf
00000070: c8dc cabd e713 6a3e ec65 65be 3dc5 5a3f
00000080: d2bb 483e 8f4f 953e c1f9 c9be 60a2 2e3e

fc1.bias f4 [3]
0.09324576 0.19506975 -0.3058223
00000000: a2f7 be3d 5dc0 473e be94 9cbe
