save/IrisNN_BankNote_e200.pt (torch_old, 2728 bytes, 6 tensors)

hidden_model.0.weight f4 [16, 4]
000000 83 ba 74 3e 18 4d 04 3f 48 fe 8f bf 9d bb e9 bd
       0.23899274 0.51680136 -1.1249475 -0.114127375
000010 72 02 b3 be 40 3a 82 3c f8 e5 77 be 3c 8f af be
       -0.34962803 0.015896916 -0.2420882 -0.34288967
000020 db ed 87 3f 76 5e 97 3f e6 50 9f 3f 9b 2f b0 be
       1.0619463 1.1825702 1.2446563 -0.3441132
000030 96 c7 80 be 20 49 73 bd 58 8c 7b 3e f0 b1 be bd
       -0.25152272 -0.05939591 0.24565256 -0.09311283
000040 15 51 c9 be 97 8c b8 be e7 15 e0 be 32 23 a5 3e
       -0.39319673 -0.36044762 -0.4376671 0.32253414
000050 0a 62 ff be 99 ed 46 3d 8a f4 a4 3d 74 df 6a be
       -0.49879485 0.048566435 0.080544546 -0.22936803
000060 98 94 90 3f a9 6c b2 3f 9f 24 be 3f 9c 6d a1 3e
       1.1295347 1.393941 1.4854926 0.31528938
000070 2f 2d d2 3e 3d c1 87 be 91 7b cd 3e 39 0f bf 3d
       0.41050097 -0.26514617 0.40133336 0.09329075
000080 60 e5 40 3d c8 ca e2 3d d8 9f dc 3e a2 f1 d2 be
       0.04709375 0.11073834 0.430907 -0.41199976
000090 27 5a 53 3f 14 69 20 3f 70 0c fa 3d c8 0c 33 3e
       0.82559437 0.62660336 0.122094035 0.17485344
0000a0 de a7 46 3f 61 88 fe 3e 09 97 d1 3e 91 a2 8c be
       0.77599895 0.49713424 0.40935543 -0.27467778
0000b0 e8 40 fd 3d 24 2f 90 3e 04 6f 41 3e c0 fd a2 bd
       0.123658955 0.28160965 0.18890005 -0.07958555
0000c0 e9 1b 9f be 71 c6 3e be 03 d6 31 3e 16 a3 53 3e
       -0.3107598 -0.18630387 0.17366795 0.20667681
0000d0 58 24 09 be 68 31 0d be 3c 7f 08 be 30 af 35 3e
       -0.1339277 -0.13788378 -0.13329786 0.1774261
0000e0 1c f5 3b be 30 ad 51 3e 84 bc 19 be 80 2c 25 3d
       -0.1835522 0.20476222 -0.15013319 0.04032564
0000f0 26 9f ed be 8a 52 ef be 1c 6c 55 be c4 7a a7 be
       -0.46410483 -0.4674266 -0.20842022 -0.3271085

hidden_model.0.bias f4 [16]
000000 e3 f6 1a 3e d0 3c dd bd ed 6b 7f bf a0 7d df be
       0.15133242 -0.10802615 -0.99774057 -0.43650532
000010 6e c1 98 3f fe 7e ea 3d 25 e3 a7 bf 6a a2 15 be
       1.193403 0.11450003 -1.3116194 -0.14612737
000020 74 d0 92 be 9e 3b bb be bf 74 a9 be da b1 f9 be
       -0.28674662 -0.36568922 -0.33096883 -0.48768502
000030 b7 ae 54 3f fe aa 8a be f4 22 b4 be 94 b9 b3 be
       0.83079094 -0.27083582 -0.35182917 -0.35102522

hidden_model.2.weight f4 [16, 16]
000000 6c 36 ab bd 20 a9 3e bd 62 cd 2b 3e d4 94 92 3d
       -0.083599895 -0.04654801 0.16777566 0.07157293
000010 40 90 f8 bb be fd 7d be 2e 35 02 be bc 47 35 be
       -0.0075855553 -0.24803826 -0.12715599 -0.17703146
000020 44 65 32 3e 9a c4 23 be 04 f9 21 be c8 cc ed 3d
       0.17421442 -0.15992966 -0.15817648 0.116113245
000030 c4 ac 57 be 90 cf 19 3d 8c af 40 be 06 c4 0b 3e
       -0.21061999 0.037551463 -0.18816966 0.13648996
000040 29 ba 01 bf d0 49 4d 3e 6e 94 55 3f c0 53 33 be
       -0.5067468 0.20047688 0.8342961 -0.17512417
000050 e4 16 d3 be f2 b5 c4 bd 50 48 9b 3f 31 56 84 3e
       -0.41228402 -0.09605016 1.2131443 0.2584701
000060 4e fa 08 3e 4e 96 22 3f b3 f6 a9 3e c0 ab 2f 3c
       0.13376734 0.63510597 0.3319603 0.010722101
000070 1c 77 4a be e2 46 10 3e 94 bf 86 3d 06 06 36 3e
       -0.19771999 0.1408954 0.065795094 0.17775735
000080 3a c9 18 be d4 1c 12 be 80 93 53 3b c0 4b 9a 3c
       -0.14920512 -0.1426881 0.0032283962 0.018834949
000090 e8 ed 6c 3d 90 ca f3 bc 60 ea da bc c8 fd 30 bd
       0.057844073 -0.029759675 -0.026723087 -0.043210775
0000a0 10 86 b7 bc a8 5e 7e bd 28 25 70 3d c8 86 86 3d
       -0.022402793 -0.06210199 0.058629185 0.06568676
0000b0 8c 6f 15 be 5c cf c9 bd 54 3e dc bd 9c 3a 1a 3e
       -0.14593333 -0.09854004 -0.10754076 0.1506142
0000c0 2a fd 30 be 2e b9 55 3e 50 3b 57 bd b6 4e 75 3e
       -0.17284074 0.20871422 -0.0525468 0.23955807
0000d0 08 99 88 3d f0 0e 54 bd 70 1b 62 be 00 8a f3 3b
       0.066698134 -0.051772058 -0.22080779 0.0074322224
0000e0 a8 60 64 3e 9e ef 02 3e a6 5f 32 be 40 56 50 3c
       0.22302496 0.12786719 -0.174193 0.012715876
0000f0 08 67 cf bd 54 f2 35 3e 00 b1 56 3b d6 39 5c 3e
       -0.101270735 0.17768222 0.0032759309 0.21506438
000100 4a a8 19 3e 16 69 58 3e a4 0f 7d be 24 8a 9b 3d
       0.15005603 0.21133837 -0.24712998 0.075947076
000110 d5 48 fc 3e d8 22 33 3e 10 ac 06 bf 4b 4a a6 be
       0.49274316 0.1749376 -0.52606297 -0.32478556
000120 14 27 1c be c5 6e 9f 3d 98 c7 80 be e0 c8 ac bc
       -0.15249282 0.077847995 -0.25152278 -0.021091878
000130 ae 37 b8 bd 00 17 e8 3a 00 df 4f bd d4 c0 28 3e
       -0.08994995 0.001770705 -0.05074978 0.16479808
000140 3c e2 29 3e 04 72 b8 3d 78 32 49 be b8 2a 3a 3e
       0.16590208 0.09006122 -0.19648159 0.18180358
000150 a1 9f d9 bd 91 2b 1c be 4b e5 9b 3d 4a fc 74 be
       -0.1062615 -0.15250994 0.076120935 -0.23924366
000160 be 0d 2e 3e 5a 71 81 be 4b 83 77 be 22 ca 0c 3e
       0.1699743 -0.25281793 -0.24171178 0.13748983
000170 59 85 c7 bd a8 46 64 be 74 d4 5c 3e 40 e6 fa 3c
       -0.09742231 -0.22292578 0.2156542 0.03062737
000180 2a b6 98 3e ac a8 08 3e 4c c0 c9 bd c4 81 f9 3d
       0.2982648 0.13345593 -0.09851131 0.12182954
000190 94 c6 49 3e bb f7 fa bd a1 3d de bd 0e 9e 19 be
       0.19704658 -0.12254282 -0.108515985 -0.150017
0001a0 06 30 03 3e b1 f2 c9 3c f2 90 3b 3c 70 ec 84 3d
       0.12811288 0.024651857 0.011448132 0.064904094
0001b0 89 0c dd 3d 9a df 2a 3e 1c 0c f8 bd ea dd 75 be
       0.107934065 0.1668686 -0.12111685 -0.24010435
0001c0 5a 7f 8e be e0 43 39 3c 9d dd 4f 3f 8c 8d 7a 3e
       -0.27831537 0.011307687 0.8119753 0.24468058
0001d0 db 71 dd be 25 3a 13 bd 07 dd 8e 3f 26 fe b6 3e
       -0.43250927 -0.035944123 1.1161202 0.35740775
0001e0 80 44 d5 3c 9b 99 b9 3e bb d4 ce 3e 00 29 93 3a
       0.02603364 0.36250004 0.40396675 0.0011227429
0001f0 93 8f 81 be c0 0a 72 3d 80 23 64 3e a0 ad 6c 3d
       -0.2530485 0.059092283 0.22279167 0.05778277
000200 28 f0 df be f4 ef 02 3e bd 5c 36 3f 80 f1 e3 3c
       -0.43737912 0.12786847 0.7123526 0.027825117
000210 09 9f e7 bd 5e 55 06 bd 5a ea 61 3f 44 b8 04 bd
       -0.113096304 -0.032796256 0.8824822 -0.032402292
000220 2c 1b f7 3d d0 62 55 3d 80 43 ec 3e ee ef 56 be
       0.120657295 0.052096188 0.46145248 -0.20989963
000230 ad a0 a2 be 20 53 0c 3e 6e de 11 3e 3a 34 0d 3e
       -0.3176321 0.13703585 0.14245006 0.13789454
000240 cb 80 c6 bd de 3d 40 3e a4 16 b5 be d8 a4 13 bd
       -0.09692534 0.187736 -0.35368836 -0.03604588
000250 c7 5b 95 3e f4 2d 74 be 17 c5 7a be 3a 88 62 be
       0.29171583 -0.23845655 -0.24489246 -0.22122279
000260 2e 56 70 3e a4 f6 09 3d ea 90 2f be c4 6d 29 be
       0.23470375 0.03368248 -0.17145124 -0.16545779
000270 b3 e6 73 3d e8 e9 41 be 66 90 16 3e 40 37 81 3d
       0.059546184 -0.18936884 0.14703521 0.06309366
000280 e8 d2 8d 3d 10 75 5f be e6 43 0e be 4e d9 19 be
       0.06924993 -0.21822 -0.13893089 -0.15024301
000290 d2 92 1d be 1c 11 2d 3e 9c ab c6 bd bc 33 45 be
       -0.15388039 0.16901058 -0.09700701 -0.19258016
0002a0 c0 94 e0 3b e2 b1 73 3e 2e 9e 3b 3e 3c 3a 9e 3d
       0.00685367 0.23798326 0.1832206 0.07725951
0002b0 bc 14 0f 3e c0 4b d8 bc fc 12 20 3e a4 cc ef 3d
       0.13972753 -0.026403308 0.15632242 0.11708954
0002c0 d2 c1 6a be 3e 03 0c 3e cf 64 f4 3d 90 44 89 bc
       -0.22925499 0.13673112 0.1193329 -0.016756326
0002d0 5f 5d 69 3e ee 6e 70 be cd 61 e9 bd 9e 7d ae 3d
       0.22789524 -0.23479816 -0.11395607 0.08520053
0002e0 00 64 4b 3a 4b 83 47 3d 55 a5 74 be 9e 16 63 be
       0.00077587366 0.048709195 -0.23891194 -0.22176597
0002f0 28 c2 31 3d 48 4c b5 3d 9e 09 39 be 58 78 92 3d
       0.043398052 0.0885244 -0.18070075 0.0715186
000300 67 37 35 bf 6c cf 17 3e 96 7c a2 3f 0a 59 35 be
       -0.7078766 0.14825219 1.2694271 -0.17709747
000310 ae 77 d8 be 15 de ac 3d 95 a9 a3 3f 86 67 3c 3e
       -0.42278808 0.08440796 1.2786127 0.18398866
000320 1a 5c 65 be cb 90 0c 3f 1f fa 26 3f 00 fc 64 bb
       -0.22398415 0.54908437 0.65225405 -0.0034940243
000330 46 5c 15 bd a0 8c 4d be 8a e8 24 3e 18 61 cc bd
       -0.036464952 -0.20073175 0.16104332 -0.09979457
000340 27 41 0c 3e be 7d 1d be c0 15 16 bf b2 54 11 3e
       0.13696729 -0.15379998 -0.5862694 0.14192465
000350 b9 c2 ea 3e f5 0b 5c 3e 26 ca 06 bf 8b 44 bc bd
       0.45851687 0.21488936 -0.52652204 -0.09192761
000360 3a f5 15 3e 00 58 8a bd 1e f6 62 be 30 b1 28 3d
       0.14644328 -0.06755066 -0.22164199 0.041184604
000370 00 3c e8 3e 9a 64 32 be f0 2a f5 bc b4 98 87 3d
       0.45358276 -0.17421189 -0.0299277 0.06620923
000380 36 d2 fb 3e 78 0d e4 bd ac f4 68 bf 80 28 3b bc
       0.49183816 -0.111353815 -0.9099834 -0.01142323
000390 af 7e 62 3f 74 13 6a be 68 c9 58 bf 37 39 88 3d
       0.88474554 -0.22858983 -0.8468232 0.06651538
0003a0 6a 4f 72 be f3 e6 e1 be 58 24 82 be 2c a7 0e be
       -0.23663107 -0.44121513 -0.25418353 -0.13930959
0003b0 9b ad 1a 3f b8 13 6b bd 40 9d 85 bc b4 ee c4 3d
       0.6042115 -0.057391852 -0.016310334 0.096158415
0003c0 4d 49 53 be 7c 7b c4 bd 5c db a2 bd cc b3 41 3e
       -0.20633431 -0.09593865 -0.07951996 0.18916243
0003d0 4b b9 20 3e 5a 15 c2 bd 12 b4 85 be c4 3c c4 bd
       0.15695684 -0.09476729 -0.26113945 -0.095819026
0003e0 ca 4c 18 be 19 36 26 be 0f 90 fa bd 00 28 15 3d
       -0.14873043 -0.16231574 -0.12234508 0.0364151
0003f0 15 79 b8 3b e8 84 ab bd 98 61 31 3e a4 dc ee bd
       0.0056296685 -0.08374959 0.17322385 -0.116631776

hidden_model.2.bias f4 [16]
000000 2e 29 26 be 2b 34 8f be 28 2f 91 3d 74 ea 30 be
       -0.16226646 -0.27969489 0.070890725 -0.17276937
000010 35 ba d2 3e 4c 74 26 3e 85 ef 17 3e 25 7f 0d be
       0.4115769 0.16255301 0.14837463 -0.13818033
000020 58 0c ce bd 88 b2 94 3e 5c 7e 38 be 55 be 3b be
       -0.10060948 0.2904246 -0.18016952 -0.18334325
000030 33 45 ea be 45 19 c6 3e 95 a5 31 3f 9c 91 39 3d
       -0.4575592 0.38691154 0.69393283 0.04530488

fc1.weight f4 [2, 16]
000000 b0 41 55 3d 1d 51 9a 3f a4 b2 7d be b8 cd 28 bd
       0.052064598 1.2056004 -0.24775177 -0.041211814
000010 1e f4 29 bf 73 1a 08 3e 66 e0 11 be fb 56 87 3f
       -0.6638812 0.1329134 -0.14245757 1.0573419
000020 40 8e 2f 3f 21 83 00 bf 90 2e 13 3d bc 4b 71 be
       0.6857643 -0.50200087 0.035933077 -0.23564047
000030 95 43 c5 3f 5e 22 7f bf 3f 95 a1 bf 12 e0 d9 bd
       1.5411249 -0.99661815 -1.2623671 -0.10638441
000040 8e b7 4c be 00 90 a8 bf 18 31 03 bd dc e3 38 be
       -0.19991896 -1.3168945 -0.03202924 -0.18055671
000050 47 e7 0f 3f 04 50 92 bd 88 38 8d 3e 94 19 99 bf
       0.56212276 -0.07144168 0.27582192 -1.1960931
000060 36 ba 87 bf 4b b5 8d 3e e8 b6 f4 3d 70 d7 3d 3e
       -1.0603702 0.27677378 0.11948949 0.18539214
000070 53 4b c3 bf 6e 5b 01 3f 74 8f b1 3f a8 f7 49 be
       -1.5257362 0.50530136 1.3871903 -0.1972338

fc1.bias f4 [2]
000000 9e fb ec be bb 97 0c 3f
       -0.4628572 0.5491902
