save/IrisNN_WheatSeed_e300.pt (torch_old, 5676 bytes, 6 tensors)

hidden_model.0.weight f4 [28, 7]
00000000: a3ea 933e c0b3 c73c 68af efbd 50e9 78be
00000010: ce0c 9cbe eb9b 9a3e 2068 093d 8aff 3f3e
00000020: 5a9f 9dbe 0088 17b9 cfa1 78be dca6 2ebe
00000030: 595b bebe e0c2 613c 7d14 3dbd cee8 eb3d
00000040: fa0b 86bd e8a0 84be 40dd 633e 0749 d43e
00000050: 2033 87be 74a0 3f3e 7c84 873e d621 aa3d
00000060: cd6a 98bd 4469 fcbd f7ab 7c3e 4478 583d
00000070: dad5 2c3e 83bf 5bbe e9a6 69be 9124 b3be
00000080: 80f4 9fbd e7e1 983e ab9a 8b3e dff3 8f3e
00000090: 34a2 3bbe a877 44be 0524 bbbd 8ee1 bb3e
000000a0: 2070 003f a5d3 c63e 7fbe 033f c3b0 e13e
000000b0: 766b 0ebe 0903 563e 6e64 873e e677 a13e
000000c0: a713 933e 9e46 bebe 610f fdbd d2b3 cabe
000000d0: 7a89 993e a400 513e 8809 833e 7f35 9bbc
000000e0: 7fbd ee3e 227f b93e eb46 bc3e 7aef 053f
000000f0: 728e 1d3f 9ac0 00bf d7f7 833e 6367 ad3e
00000100: 688d 61be 00dd eb3d 6a23 133e bcda 8fbd
00000110: a0d1 183c 83de 29be 07d1 bfbe 6a18 9d3e
00000120: 72bd 99be 7fd3 92be fc22 8cbe 489a a3be
00000130: c88d ac3d 9b6c ad3e 6145 2dbe 0e0e 3d3e
00000140: 1c4c c03e 87b4 8e3e ea81 dfbe 7db7 673e
00000150: 89c7 153f 22ce 1f3f e54e d9bd 113f 063f
00000160: b785 f73d db08 ca3e 1c99 243e ef05 693e
00000170: 371d ba3d 6341 85be ddce 1a3d 1937 e0bd
00000180: 3d07 cf3e 6791 7cbe 2536 b53e 7a6f 703e
00000190: 0c0b 3cbe 67bb 743d 3786 51bd 33fa ed3d
000001a0: 10e6 a8be 2643 603f b1bd 343f 78a4 60be
000001b0: 0d7d 163f e4ad 513f 3af2 553d 2fc4 e93e
000001c0: e498 7bbe 26ae 4fbe f85c b43d 77de 0bbe
000001d0: 4658 293e f788 40be 4cb7 a0be 943b 4dbe
000001e0: fa3e 863e 5e19 e63e ac9f 67bd 7417 99be
000001f0: 2a2c 293e 8415 e53e 87c4 173e 7ca5 1fbc
00000200: e743 903e ec53 9dbe 637d 52be 5ec6 8c3e
00000210: 14e9 6fbe d8dc e2bd a6c5 e6bd 8709 ab3e
00000220: 5b25 c23e 7837 2abd 6530 133e 5153 d8bd
00000230: d305 ac3e a89a 32be e989 b8be 40ab 393c
00000240: e886 173d 69cb b2be 34b1 18be f20f 9bbe
00000250: 52a2 e6bd ec7e db3e 050f 4ebe f660 95bd
00000260: 6706 e73a 156d 6cbe 46ba a83e 408c 153e
00000270: 59c5 1abd bcb9 4abe e07d 20be ca84 29bd
00000280: 86cc 5c3e 7058 6d3d 3a0c f0bd dae7 a53e
00000290: aead cf3d 4501 e4bd eebc b93e d503 1abe
000002a0: 04db fa3e 9cbe 713d 9607 db3e 4f87 b23e
000002b0: 8b95 913e c85d 9ebe 1d38 9bbe ad95 1c3e
000002c0: 8d91 90bc 25af 8abe 81e6 f8bd 7428 a33e
000002d0: 4f8e 86be b7b5 e9bc f703 22bf 2ac1 a0be
000002e0: 34c7 ecbd edeb 71be 87b9 f3be 82f8 3f3f
000002f0: b817 0f3f f4d3 8dbd 50f3 133d d876 bebe
00000300: 56a2 40be b0ab 92be 4c52 d7bd 89a7 97be
0.2888995 0.024377704 -0.11703378 -0.24307752 -0.3047852 0.3019708 0.033546567 0.18749824
-0.30785638 -0.00014451146 -0.24280475 -0.1705584 -0.37179068 0.013779372 -0.046162117 0.11519013
-0.06545253 -0.25904012 0.22252369 0.41461965 -0.26406193 0.18713552 0.26468265 0.08307235
-0.07442246 -0.12324765 0.24674974 0.05284907 0.16878453 -0.21459775 -0.22817577 -0.34988835
-0.078103065 0.2985985 0.2726644 0.28115746 -0.18323594 -0.1918627 -0.091377296 0.36695522
0.5017109 0.38833347 0.5146255 0.4408017 -0.1390818 0.20899595 0.2644381 0.31536788
0.2872593 -0.37163252 -0.12356449 -0.39590317 0.299877 0.204104 0.2559321 -0.018946407
0.4662895 0.36229807 0.36772856 0.5231854 0.6154548 -0.50293887 0.25775024 0.3386794
-0.22026598 0.11516762 0.14368978 -0.07024142 0.009327322 -0.16588788 -0.37464163 0.3068269
-0.30027348 -0.28676984 -0.2737044 -0.31953645 0.0842548 0.33871922 -0.16920997 0.18462393
0.37558067 0.27872106 -0.43653804 0.22628589 0.5850759 0.6242391 -0.10610751 0.5243998
0.12086051 0.3945988 0.16074032 0.2275617 0.090876035 -0.2602645 0.037794936 -0.10948009
0.4043521 -0.24664842 0.35392871 0.23480025 -0.18363589 0.059749033 -0.051153388 0.11619987
-0.32988024 0.8760246 0.70601946 -0.2193774 0.5878456 0.8190596 0.05223296 0.4565749
-0.24570042 -0.20281276 0.08806795 -0.13659082 0.1653758 -0.18802248 -0.31389844 -0.20042259
0.26219922 0.4494123 -0.05654876 -0.29900706 0.16520754 0.44742978 0.14821063 -0.009744044
0.28176805 -0.3072809 -0.20555644 0.27495092 -0.23428756 -0.11077279 -0.11268167 0.33405706
0.37919125 -0.041556805 0.1437393 -0.10562766 0.33598194 -0.17441809 -0.36042717 0.011332333
0.03699389 -0.34920815 -0.14911348 -0.30285603 -0.11261429 0.4287027 -0.20122917 -0.072938845
0.0017625809 -0.23088486 0.32954615 0.14604282 -0.03778586 -0.19797415 -0.15673018 -0.041386403
0.21562394 0.05794567 -0.11721082 0.3240345 0.10140549 -0.11133055 0.36276954 -0.15040524
0.4899522 0.05901967 0.42779225 0.34868857 0.28434405 -0.30930924 -0.3031625 0.15291472
-0.017647529 -0.2708675 -0.1215334 0.318668 -0.26280448 -0.028529031 -0.632873 -0.31397372
-0.115614325 -0.23625155 -0.47602484 0.7498857 0.55895567 -0.069251925 0.036120713 -0.37200046
-0.18811926 -0.28646612 -0.10513744 -0.29620007

hidden_model.0.bias f4 [28]
00000000: ee2d 8bbe 8375 6cbe 1c6b 123f 1bce 3dbe
00000010: 0ddd 8abe 6f0b b9bd 9d53 bbbe 7363 563e
00000020: b81e 94bd 68f1 a9be ca00 4b3e ac37 de3d
00000030: ea5e a3be be62 d7bc 203a 38be 8fdf ffbe
00000040: 341f aabe f518 d33e 3138 be3e 9544 94be
00000050: a2dc a4be d56f 263f b8ec 9cbe 746c c53e
00000060: 95c5 803e 9d9c 3dbc 9414 463f fa48 503e
-0.2718348 -0.23091702 0.57194686 -0.18535654 -0.27121773 -0.09035384 -0.3658723 0.20936374
-0.07232422 -0.3319199 0.1982452 0.10850462 -0.3190835 -0.026292201 -0.17990923 -0.4997525
-0.3322693 0.41229978 0.37152246 -0.28958574 -0.3219958 0.6501439 -0.30649352 0.38559306
0.25150743 -0.011572984 0.7737515 0.20340338

hidden_model.2.weight f4 [28, 28]
00000000: c9d9 0b3e 50f9 c53c 50cf 08be 6d29 ca3c
00000010: 6d88 053e 1a11 8a3e 4297 0c3e 49bd c0bd
00000020: d863 df3d 5c95 2bbe 6e16 353e d6c0 c53d
00000030: 8e84 3d3e 5135 3b3e d2a3 4fbd 094e 6b3e
00000040: eea5 f1bd 4b8e 763c f87e 813d b992 a73d
00000050: fdcd 84bd 71a4 5bbe 3e72 15be db04 ed3d
00000060: 6d6f 51bc 2da6 0d3e 4f95 aebd 62a6 e43d
00000070: e87f debd b022 bcbc f841 c03e ed69 27be
00000080: 5eba 10be cb4d a2bc 8946 23be 0f7e 6d3e
00000090: 8801 05be 3013 62bd 58ee b0bd 2979 603c
000000a0: 9584 9cbe d51c 2b3d 1f5b a3bd 9d4c cfbe
000000b0: 5cf2 0cbe 50e0 bf3e 1e1c 8d3e 7a1b e13d
000000c0: 9ecc 15be b4dd f23e d913 e73d cea7 343e
000000d0: 6195 9c3d 13b4 b2bd 74ac 673e 19f1 323e
000000e0: 8802 f5bc c023 47bc 1924 66bc c149 17bd
000000f0: 92b7 91bd ddaf fdbd 5f7e 9dbc 73a8 48be
00000100: c284 713e 4856 553d de73 41bd c323 3c3e
00000110: da42 b83d 423a 2fbe da0a 2d3e a3a3 883d
00000120: 1022 e9bc e96f 2b3d ded3 7a3d 1238 32be
00000130: c6ee c53d b28b aebd c80b a13c 2b10 133d
00000140: afeb a13e 144e e1bd f1b2 1cbe 17bb 0bbe
00000150: c7c1 d0bd 102c 4e3d 6c16 4b3e 6f57 2e3e
00000160: 8032 4e3c 7707 9a3e 550b 6b3e 8214 793e
00000170: 6aea 81be ceea a33d 04bb 48bc 14c8 2fbe
00000180: 9ea8 963e 0403 553e c185 acbc 8f94 003e
00000190: e06c 713c 28ec 733e 386d c9bc 2a3c 1cbe
000001a0: 147a 783d 40c0 febc 3e3f 363e 136a 2c3e
000001b0: 91bf abbe 29ad 3abe ea35 ea3e 4510 213e
000001c0: aad4 873d 08c3 193d 604a 72bd 925b 4abd
000001d0: cc28 b0bd 57b9 113e 4c9c a33d 5983 263e
000001e0: 7caf 5abe 4838 5b3d 2760 15be b1e1 133e
000001f0: 6788 9b3d 4b83 8bbb 2bb4 3bbe e2e3 4f3d
00000200: 9b5e 88bd d051 21be f5ad 31be ca0a a53d
00000210: 199c 0a3e 9701 0dbe 643c 5dbc 799b 88bd
00000220: 6e32 5bbe 52d5 903c 0821 6dba ee5e 973d
00000230: e29b 90bd c16e 2f3e 1018 b4bd ffe0 283e
00000240: ca4f a23d 24c5 0cbe 9a05 fbbc 1c7a d03d
00000250: 2921 fc3d c6b8 9d3d 5273 1c3e af2f ecbc
00000260: 504a 92bd 99d6 f9bd 4df6 a73d ce67 493e
00000270: 7c81 37bd c4a6 30be e540 8e3d 0008 8bbc
00000280: 8329 113e cdd0 6a3e f175 05bc f105 2f3e
00000290: d9e5 403e c412 ce3d e938 3ebe e5ef 163e
000002a0: 552e 103e 04f3 93bd 79cb 2abe fe92 c33d
000002b0: 1878 893c db7c acbd 1497 52bd 802c acbc
000002c0: 80ff 88bb b117 35be fe27 873d 4f13 a0bd
000002d0: 6f59 8fbd c7c0 19be bdd6 343e 9d5c d4bd
000002e0: f6b2 c13d 5446 11bd 7219 a93d 0a64 07be
000002f0: 509b 72bc 5691 cd3d 8cf3 a4bd 34f1 093d
00000300: c713 2abe 2a2c bf3d f8ea 14be f248 a73d
00000310: 1904 babd b8e5 4b3d 35d1 ab3e 8ab3 00be
00000320: 2041 54bc 926f 6539 e5a8 72be 1d61 edbc
00000330: a71d 31be 1a44 e13d 597a 21be 1b7e 23bd
00000340: 8f63 3cbd 043f a63c 4d2b 11be 11a9 e8be
00000350: 76b1 ef3d bbcf 933e eaa2 c23e 63ff 523d
00000360: 7031 7ebd 194b 9b3e 424d 8e3d 574b 5e3e
00000370: 862f a4bc 8c35 983d 5f6d 3c3f 1a8b 893d
00000380: 8720 0b3e 931d 35be f68c 19be 14f2 923d
00000390: 6642 bf3d c295 eb3d 038c 0e3e 587c 1d3e
000003a0: 7d78 c63a 498f 193e 0999 61bd 0652 c43d
000003b0: 621f febb 47bc 123e 5356 bcbb 213d da3b
000003c0: 5c22 7f3d e402 823e d055 8d3d 083e 14be
000003d0: 8006 8e3b b4b2 ae3d 054d b5bd a990 0c3e
000003e0: 2438 82be a7bf 3f3e c06f 8f3e 8e3a c93d
000003f0: 00f2 fa39 b025 91bc 2372 06be 834a 143e
0.13657297 0.024166733 -0.13360333 0.024677956 0.13040324 0.26966172 0.13729575 -0.09411103
0.109077156 -0.16756195 0.17684337 0.09655921 0.18507597 0.18282057 -0.05069334 0.22978987
-0.11799227 0.015048574 0.063230455 0.08182282 -0.06484602 -0.21449448 -0.14594361 0.11573192
-0.012782914 0.13832922 -0.08524572 0.111645475 -0.1086424 -0.022965759 0.3755033 -0.16349001
-0.14133593 -0.019812485 -0.15944876 0.23192619 -0.12988865 -0.05519408 -0.086392105 0.013700762
-0.30569902 0.041775543 -0.07976364 -0.4048814 -0.13764328 0.37475824 0.27560514 0.10991569
-0.14628837 0.4743477 0.112830825 0.17642137 0.07645679 -0.08725753 0.2262438 0.17474784
-0.029908434 -0.01215452 -0.014046692 -0.03693557 -0.071150914 -0.12387059 -0.019225297 -0.19595508
0.235858 0.052084237 -0.04722964 0.18373017 0.08997126 -0.17112067 0.16898671 0.06671836
-0.028458625 0.041854773 0.06123721 -0.17404202 0.09664683 -0.085227385 0.019658938 0.03590409
0.31625125 -0.1100122 -0.15302636 -0.13645588 -0.1019321 0.05033499 0.19832772 0.17025541
0.012585282 0.3008382 0.22953542 0.2432423 -0.25374156 0.0800377 -0.012251619 -0.17166167
0.2942552 0.20801932 -0.021059873 0.1255667 0.0147354305 0.23820555 -0.024588212 -0.15257326
0.060663298 -0.031097531 0.17797562 0.16837339 -0.3354459 -0.18230118 0.45744258 0.15728863
0.06632359 0.037539512 -0.05915296 -0.049403735 -0.086015314 0.14230858 0.07988796 0.16261043
-0.21356004 0.05352047 -0.1458746 0.14441563 0.07594376 -0.0042575947 -0.18330447 0.050754435
-0.066586696 -0.15753865 -0.17351516 0.080586985 0.13536109 -0.13770138 -0.013503168 -0.06670279
-0.21405956 0.017679844 -0.00090457546 0.07391153 -0.07060982 0.17132093 -0.08793652 0.16492079
0.07925375 -0.13747078 -0.03064232 0.101795405 0.12311012 0.07701258 0.15278366 -0.028831331
-0.0714308 -0.121991344 0.08201275 0.19668505 -0.04480122 -0.17251116 0.069459714 -0.016971588
0.14175992 0.22931214 -0.008145795 0.1709211 0.1883768 0.10062173 -0.18576397 0.1473995
0.14080174 -0.07224086 -0.16679181 0.09549521 0.016780898 -0.08422252 -0.05141361 -0.021017313
-0.0041808486 -0.17684819 0.06599425 -0.07816183 -0.0699948 -0.15014945 0.17660041 -0.10369227
0.09457962 -0.03546746 0.082568064 -0.13221756 -0.014807537 0.10037486 -0.080542654 0.033677295
-0.16609107 0.093345955 -0.14542758 0.0816821 -0.09082813 0.049779624 0.3355805 -0.12568489
-0.01295498 0.00021880705 -0.2369724 -0.028976971 -0.17296468 0.109993175 -0.15769328 -0.039915185
-0.045993384 0.02029372 -0.14176674 -0.45441487 0.1170377 0.28869423 0.3801492 0.051513087
-0.062058866 0.30330732 0.069483295 0.21708427 -0.020042192 0.07432088 0.7360439 0.06715985
0.13586627 -0.17687063 -0.14995179 0.07175079 0.09338836 0.115031734 0.13920598 0.15379465
0.001514211 0.14996065 -0.055077586 0.09585957 -0.007755206 0.14329635 -0.0057475953 0.006660119
0.062288627 0.2539283 0.06901133 -0.14476788 0.004334271 0.08530179 -0.08852581 0.13727058
-0.25433457 0.18725453 0.28014946 0.098256215 0.0004786402 -0.017718166 -0.13129477 0.14481549

hidden_model.2.bias f4 [28]
00000000: d9e3 78be 9621 3e3f a5fb 0d3e 5653 46bc
00000010: bbac b83d 3595 093e b484 6f3d 0fd4 593f
00000020: 07fd 11be 09b7 453e ab8b 593e 6186 c23e
00000030: 5dc7 22be 5dcf dabd 6e7d 9dbe 3907 b6bd
00000040: 2898 a43e 8cc2 5bbe 4a75 4cbe 9012 40be
00000050: 954b f9bd 7da5 41be 7ccc 3a3d b5fd 3b3e
00000060: 770c 54be f05d 173e 3276 d2bd cd1d fb3d
-0.24305667 0.7427 0.13865526 -0.01210483 0.09017321 0.13435824 0.058476165 0.850892
-0.14256679 0.19308104 0.21244685 0.37993148 -0.15896364 -0.10684083 -0.30759758 -0.08888096
0.32147336 -0.21460932 -0.19966617 -0.18757081 -0.12172619 -0.18910785 0.045605168 0.183585
-0.2070788 0.14781928 -0.1027645 0.122615434

fc1.weight f4 [3, 28]
00000000: 2a74 aabe 72b3 7c3e 7b89 b83e 1610 23bf
00000010: 8f55 fc3d a190 573e 9f64 e1bd c161 23bc
00000020: f62c 4ebe 71ae 953e 6ba0 263d 8938 0c3d
00000030: 02ff 4cbe 60d8 d5bc 3a16 4bbe b72f 483d
00000040: 8535 353f 6f6c 143e 9eda b9bb 3e7e 8f3d
00000050: 40a5 273d e1f0 7abe e47b 0d3d 0c69 ce3e
00000060: 3c76 d93d 46e0 b53e fc45 933d 9719 a83d
00000070: d553 ad3e 5bc8 73bf 43fd cf39 0986 653e
00000080: 229e d0bd 4240 1fbe fccd 603d 3955 79bf
00000090: e0dd 4f3e e78c 6fbe 21d8 85be ef1a 14bf
000000a0: 2611 edbc 326a aebd a31c cc3e fc4c 48bd
000000b0: 3d90 7a3e d970 b53c 66ce 803f 783d 0ebd
000000c0: 8ed7 9b3d c1b5 d63e 05ea c6bd 6f50 b73e
000000d0: 9b0d 0a3c 0947 383f 1cca a33d b406 a7bd
000000e0: e533 05be 214c 2e3f c278 96be 98fc 0f3f
000000f0: 1396 323c 9d88 94be a6d4 d03d 90eb 753f
00000100: 9e8a ab3e a17d 6d3c 5552 5a3e d791 b93d
00000110: 68e5 54bd 7cff 3a3d 7547 06be d0e1 98bd
00000120: 2e60 43bf a461 76bc c7bb 71bf 8066 d43a
00000130: 94ae 063d b7af 6a3d 4f45 41be 5e10 3fbf
00000140: 98ae 4bbd 5e53 5ebf 5de8 213d 3e46 15be
-0.3329175 0.24677828 0.3604239 -0.6369642 0.123210065 0.21051265 -0.1100552 -0.009972037
-0.20134339 0.2923465 0.04068033 0.034233604 -0.20019153 -0.026104152 -0.19832698 0.04887363
0.7078479 0.14494489 -0.005671813 0.07006501 0.04092908 -0.2450595 0.03454198 0.4031452
0.106182545 0.3552267 0.07191083 0.08208006 0.3385302 -0.95227593 0.0003967081 0.22414412
-0.101864114 -0.15551856 0.054883942 -0.97395664 0.20299482 -0.23393594 -0.26141456 -0.578536
-0.028938841 -0.08516349 0.39865598 -0.048901543 0.24469085 0.022148537 1.0062988 -0.03472659
0.07609473 0.41935542 -0.097126044 0.35803553 0.008426095 0.7198339 0.07997534 -0.081555754
-0.13008077 0.68084913 -0.29389006 0.562448 0.010900038 -0.29010478 0.101968095 0.96062565
0.33504194 0.014495284 0.2132047 0.0906102 -0.05197659 0.045653805 -0.13113196 -0.07464945
-0.76318634 -0.015037928 -0.9442715 0.0016204864 0.032881334 0.05729648 -0.18874095 -0.7463435
-0.049727052 -0.8684596 0.03952824 -0.14577577

fc1.bias f4 [3]
00000000: c38b 0e3f d78f 3abf b800 7d3e
0.5568201 -0.7287573 0.24707305
