save/IrisNN_Iris_e200.pt (torch_old, 2796 bytes, 6 tensors)

hidden_model.0.weight f4 [16, 4]
00000000: f2b5 6e3e 2c26 99be 4eda f23e 621e c1be
00000010: d587 e83e 75f2 613e 0c37 c5be 9ecc e1be
00000020: 700a 363d 24e9 97be ec94 74be 4894 ebbe
00000030: 2319 963e c926 eabd f6fb 1b3f 8532 c33e
00000040: 4570 1dbe 4527 c9bd d97d f93d 4357 123f
00000050: 240b 623e ce71 dfbe 0f58 883d 882a cf3e
00000060: 10a4 f53d b425 48be 4cc2 3dbe 38c3 933d
00000070: ab0f 4fbe 14ca b0be bb79 7f3e e795 f3be
00000080: fb69 d83e 81f3 1cbf d1f0 173f 3fe8 b53e
00000090: c712 ecbe a32c edbe 1f70 6ebe 8464 063e
000000a0: c0c6 4f3c fe36 a3be dca0 29be 3886 833d
000000b0: 581e 483e cbb6 edbd 707c 363e 8e36 c1bd
000000c0: 4b9a f23c 54f4 ecbe 2433 d2be 5b0a e73d
000000d0: dc75 ed3e 1a24 15bf e0df 1d3f 39af bb3e
000000e0: 8c9a 21be fc56 a03e 20ae 473e 266e 9bbe
000000f0: f9f2 953e 0606 6e3e 6a3a d03e 9303 573e
0.23311594 -0.29911935 0.47432178 -0.37718493 0.45416132 0.22065146 -0.3851856 -0.44101423
0.044443548 -0.2967006 -0.23884934 -0.46011567 0.29316053 -0.11433179 0.60931337 0.3812448
-0.15374859 -0.09821943 0.12182207 0.571644 0.22074562 -0.43641514 0.06657421 0.40462136
0.11994183 -0.19545633 -0.1853115 0.072149694 -0.2022082 -0.34529173 0.2494878 -0.47575304
0.42268357 -0.6130906 0.5935183 0.35528752 -0.46108076 -0.46323118 -0.23284958 0.13124281
0.012681663 -0.31877893 -0.16565269 0.064220846 0.19542825 -0.116071306 0.17820907 -0.094342336
0.029614588 -0.46280158 -0.41054642 0.11281272 0.46378982 -0.5825821 0.6166973 0.36657122
-0.15781611 0.31316364 0.19500017 -0.30357474 0.29286936 0.23244485 0.40669566 0.20997457

hidden_model.0.bias f4 [16]
00000000: 1a82 53be 189d ee3e a46d e3be 3947 85bd
00000010: 938e 41bd ecbe d3be d41c d5be 5772 923e
00000020: aee9 6d3e c524 803e 3eaa fcbe b211 073b
00000030: d971 313e ac9b 6a3e 9a0a abbe 005c 81be
-0.20655099 0.46604228 -0.44419587 -0.06507725 -0.04725511 -0.413566 -0.41623557 0.2860286
0.23233673 0.25028053 -0.49348634 0.0020609912 0.17328586 0.22910947 -0.33406526 -0.25265503

hidden_model.2.weight f4 [16, 16]
00000000: dec0 783e 238a 623d 7e06 333e 2e9c bcbe
00000010: 7caf bcbd cce1 8dbd 60b7 533e 5787 26be
00000020: e433 bdbe 1e35 32be 2834 d3bd 8e51 ec3b
00000030: 220a 4bbe 16f8 3cbe b08a 973c 133c ffbd
00000040: 9ff7 eb3d 40a4 ad3e 76f8 4a3e 10c4 6abe
00000050: 21af c13d ba6a 4dbe 1034 f0bd 4d1e 0bbc
00000060: f66c b5be 6f5e b4bd 0ebe 2bbe 084d 7fbe
00000070: 1dd4 80bd 6dfe 47be 6ef7 49be 79ab e03d
00000080: f5bb 423e 645a 373a c020 c83d 38b8 d03d
00000090: 3465 6cbd 3b03 d33d c038 153c 49c3 aa3c
000000a0: c8e8 98bd fe3b 22be 9e5e 4c3e d3ef 823d
000000b0: 64cc 4cbe b5e2 b9bd ac49 02be a8f0 2f3e
000000c0: d26d 78be f48b b2be a8b2 d8bd 4ead 783e
000000d0: c828 2d3e 8019 043e f6b1 54be c455 cd3c
000000e0: 912f 0a3f f01b 3c3e 80fd 75bd 2894 cabd
000000f0: d7ec 933c 47ea dc3e d844 373e ee1d 153e
00000100: bba6 7bbe 8334 6bbe 70bc cc3d 3447 843d
00000110: 25e8 783e c8ed 78bd ea3b 7b3e fe46 ccbd
00000120: ab1c c83d 08a6 6e3e 5e21 393e 4afe f63d
00000130: effe 403e 19dd 38be 1ab4 7abe 6464 67be
00000140: 6d0d 97bd 3c19 5f3d bc2c 95bd ac7b aabd
00000150: 16cb 393e 64ca f5bd 8e79 1a3e acbd 4a3c
00000160: c2f3 7b3e 8aee 0b3e 801e db3b d7ea 443e
00000170: 57f1 f43d 2ce8 d5bd a020 593e 3251 9b3b
00000180: 8023 95bd 0abb 243e f8d4 053d f4c6 9cbe
00000190: 0302 56be 80a2 52bd dc4a 2b3e a1d5 4f3e
000001a0: 70ef 87be 4f91 76bc 9408 263e 7ff1 febb
000001b0: 17e7 dd3d 4ce8 78be 1885 5b3d f0cd 5dbd
000001c0: 949f e0bd ce5d bc3e 20bd c33d 4a6c 94be
000001d0: 1fed 94bd c015 d63c 8cb6 babd 666f 5d3e
000001e0: 6c54 b6bd a593 4ebd 64b9 8dbd a2c3 20be
000001f0: 7f01 023d 8dea afbc 0664 633e ea8b 21be
00000200: 4f64 66bd 1aec d63e 260d 463e 342e b3bd
00000210: 6bdb ce3c 33b3 433d 48d7 96bd 158b a13b
00000220: 6e9a dcbe ae72 983d 2c4d df3d a602 7abe
00000230: 4f55 143c 8a34 75be 18cb a4bd cf5b 77be
00000240: 03df e73c 7e99 ba3d d419 aa3d 0e87 6c3e
00000250: a1d9 07bd c82d 76bd f2e3 3f3e 0474 5fbc
00000260: 2bd3 d23e 4fb9 5e3e 0cb4 aebd 82f5 1b3d
00000270: 237a c83d ec02 183f c423 0e3e 6cbc f8bc
00000280: dc4c 483e e8ca 71bd 966e 77be 50f1 ecbd
00000290: d813 dc3d 8894 77bd 10f9 f1bd d000 503d
000002a0: f076 113d 5841 c73d c0a1 91bb 80b4 3b3c
000002b0: 90b0 f5bc 8c7d 6fbe 0423 b8bd b807 453d
000002c0: 323d 443e 1db4 863e 7c35 b3bd fc47 70be
000002d0: c414 81bd 4e5b 20be e00d 703e 503a a7bd
000002e0: 7f4a 463d b72a 1dbd 6859 bb3d 4b34 433d
000002f0: 6d6d 7f3e dc38 8fbe 420a 5fbe 4b56 cabd
00000300: b9db 043e ca74 0c3d 7210 5abe 2dfd d03e
00000310: e686 7f3e 3df1 4ebe 6e4e 393e f3c5 5b3d
00000320: 6028 02bd da7f f73c 9601 5fbe 5949 1cbe
00000330: 3833 bdbd 0f10 573e 5c87 5c3e 23d5 cb3e
00000340: c604 dd3d 6c92 563e ae62 6cbe 6303 84bd
00000350: 8c37 023e 5166 2f3e b6aa 77be 393e bfbd
00000360: ae8d d9bd 2536 d13d e663 773e 832a 223e
00000370: 2625 2f3d 5fa9 5d3e 46e0 2ebe b152 393e
00000380: a810 503d 50ae ab3d 1830 47be affc 63be
00000390: 7611 453e b385 fe3d 8495 c03d 9058 64be
000003a0: 42ac 863d be35 6b3e 8000 ccbd 1897 3dbe
000003b0: f0f5 2f3e ac41 0f3e 6c9b 3bbe 45a4 d13d
000003c0: 083f 853d 0258 983e aeab 0f3e 10ac 9d3d
000003d0: 55f7 6d3b 40f2 36bc e057 c8bd a999 a83d
000003e0: b4d4 26be bf57 373e a46c 953d 453d 90bd
000003f0: 1f41 02be 23fc 03be b0ca 5cbe 2964 25be
0.24292323 0.05530752 0.17482945 -0.36837906 -0.092131585 -0.06927833 0.20675421 -0.16262566
-0.36953652 -0.17403075 -0.103126824 0.0072118705 -0.19828084 -0.18454012 0.018498749 -0.1246263
0.11521839 0.33914375 0.19821343 -0.22926354 0.09457231 -0.20060244 -0.1172868 -0.008491111
-0.35434693 -0.08807074 -0.16771719 -0.24931729 -0.062904574 -0.1953065 -0.19723293 0.10970206
0.19017012 0.0006994365 0.097718716 0.10191387 -0.057713702 0.103033505 0.009107769 0.020845072
-0.074662745 -0.15843198 0.19957969 0.06393399 -0.19999844 -0.09076444 -0.12723416 0.17181647
-0.24260643 -0.348724 -0.10580951 0.2428486 0.16910088 0.12900352 -0.20771012 0.02506531
0.5397883 0.18370032 -0.06005621 -0.0989154 0.01805727 0.4314749 0.17897356 0.14562199
-0.24575321 -0.2296925 0.09996879 0.064588934 0.24307306 -0.06077364 0.24534574 -0.09974478
0.09771093 0.23305523 0.18079135 0.120602205 0.1884725 -0.18053092 -0.24482766 -0.2259689
-0.07375608 0.054467425 -0.07283923 -0.0832437 0.18143877 -0.120014936 0.15085432 0.012374323
0.24604705 0.13665214 0.0066869855 0.1923021 0.119600944 -0.10444674 0.21203852 0.004739904
-0.07282162 0.16086975 0.032673806 -0.3062054 -0.20899205 -0.051424503 0.16727775 0.20296337
-0.26549864 -0.015049293 0.1621421 -0.0077802534 0.108350925 -0.24307364 0.053593725 -0.054151475
-0.10967937 0.36790317 0.09557557 -0.28988868 -0.0727179 0.026133418 -0.09116849 0.21624526
-0.08902821 -0.050433774 -0.06920126 -0.15699628 0.031739708 -0.021474147 0.22206125 -0.15776029
-0.056248005 0.41977006 0.19340953 -0.08749047 0.025251111 0.04777832 -0.073652804 0.00492991
-0.4308657 0.074437484 0.10903391 -0.24415073 0.009053542 -0.23945823 -0.080465496 -0.24156116
0.028304582 0.091113076 0.083057076 0.23098394 -0.03316653 -0.060102254 0.18739298 -0.0136385
0.41176733 0.21750377 -0.08530435 0.03807593 0.09788921 0.5937946 0.13880831 -0.030363284
0.1956057 -0.059031397 -0.24163279 -0.11569464 0.107459724 -0.060444385 -0.11815083 0.050782025
0.03551382 0.0972926 -0.004444331 0.011456609 -0.029991418 -0.23387736 -0.08991054 0.048103064
0.19163969 0.2630929 -0.08750436 -0.2346496 -0.06302789 -0.1565983 0.23442793 -0.08165419
0.04841089 -0.038370814 0.09147912 0.047657292 0.24944086 -0.27973068 -0.21781257 -0.0987974
0.12974443 0.034291066 -0.21295336 0.40818158 0.24953803 -0.20209213 0.18096325 0.053655576
-0.031776786 0.030212332 -0.21777949 -0.15262355 -0.09238285 0.2100222 0.2153601 0.39811048
0.10791926 0.20954293 -0.23084518 -0.064459585 0.12716502 0.17128874 -0.24186215 -0.0933804
-0.106227264 0.102154054 0.24159202 0.1583653 0.042760037 0.21646641 -0.17077741 0.1809795
0.050797135 0.08382857 -0.1945194 -0.2226436 0.19244942 0.12427845 0.09403518 -0.22299409
0.06575824 0.2296972 -0.09961033 -0.18514669 0.17183661 0.13989896 -0.18321007 0.1023641
0.06506163 0.29754645 0.14030334 0.07698834 0.0036310751 -0.011166155 -0.09782386 0.08232433
-0.16292077 0.17904566 0.07296112 -0.07042936 -0.12720154 -0.12889151 -0.21561694 -0.1615149

hidden_model.2.bias f4 [16]
00000000: 286f 1b3f 3cee c33e 0414 98bd 2581 393e
00000010: 9cb6 d63c 7539 fcbd ea42 083f 2ec9 dc3e
00000020: 09c3 333f 3406 033e b895 38bd 59d7 fc3e
00000030: 3035 22bd 873b 283e d83f 1dbe 7ad9 003e
0.60716486 0.38267696 -0.07425693 0.18115671 0.026210122 -0.123156466 0.532271 0.43122238
0.70219475 0.12795335 -0.045064658 0.49383047 -0.039601505 0.16428958 -0.15356386 0.1258296

fc1.weight f4 [3, 16]
00000000: df3a 253f 30f7 0a3f 97ee 0b3e c1bf 34bf
00000010: 58e3 6a3e 4a98 fd3d 72cb d83e aa31 9e3e
00000020: 0cc0 4b3f addc e3be e473 e83d 6760 0e3f
00000030: 1ea3 92be ca31 22be a507 dc3d 7cfe 013e
00000040: 1372 d0be 0d08 d1be 6da4 b93c e813 0b3e
00000050: 4a9d 6cbe 6560 7ebe cb7f f7be b0e4 08be
00000060: 8802 47be 15e6 e53e 6c52 d1bd 2d58 223e
00000070: 2e31 3fbe 2ef2 89bd 01e7 a1bc 9b07 99be
00000080: a758 bdbc 56e8 e0bd 4e58 2c3d 2cf2 ae3e
00000090: 2b2d 0c3b 624f 823d bfe0 8abe a5ce f8be
000000a0: dab2 f6be 994c aa3e a830 aebd 78a5 86be
000000b0: a54a df3e 55ad c3bc 7055 09be 1962 62bd
0.64542955 0.5428343 0.13665234 -0.70605093 0.22938287 0.123825625 0.42342716 0.30897266
0.79589915 -0.445043 0.113502294 0.5561585 -0.28640074 -0.15839306 0.107436456 0.12694734
-0.40712032 -0.40826455 0.022661412 0.13581812 -0.23106876 -0.24841459 -0.48339686 -0.13368487
-0.1943456 0.449021 -0.10220799 0.15853949 -0.18671104 -0.06735645 -0.019763472 -0.29888615
-0.023113562 -0.109818146 0.0420764 0.34169137 0.0021389227 0.06362797 -0.27124593 -0.48595157
-0.48183328 0.33261564 -0.08505374 -0.26298118 0.43611637 -0.023886362 -0.13411498 -0.055269334

fc1.bias f4 [3]
00000000: 9c7b 273e 4ef0 dc3e f7df a5bc
0.16355747 0.43152088 -0.020248396
