save/IrisNN_Iris_e300.pt (torch_old, 2203 bytes, 6 tensors)

hidden_model.0.weight f4 [12, 4]
0	0x3eb4f9a6	0.35346717
1	0x3f111c18	0.5668349
2	0xbee8f1fe	-0.45497125
3	0xbf2c2efb	-0.67259187
4	0xbece6f4e	-0.40319294
5	0x3ecc8750	0.39946985
6	0x3d35c5a0	0.044377923
7	0x3e7dfd60	0.24803686
8	0xbed083d2	-0.4072557
9	0xb9487000	-0.0001911521
10	0xbea47464	-0.3212005
11	0xbe670ae8	-0.22562754
12	0xbefbd184	-0.49183285
13	0x3c9553c0	0.018228412
14	0xbce47de0	-0.027892053
15	0x3e30285c	0.17202896
16	0x3d8b804f	0.06811582
17	0xbf2ca3c2	-0.67437375
18	0x3f546041	0.8295937
19	0x3f856f25	1.0424544
20	0xbe92671f	-0.285943
21	0x3e9eb36d	0.30996266
22	0x3ee154c1	0.44009975
23	0x3eb981ed	0.36231938
24	0xbe1e41cd	-0.15454789
25	0xbe544cea	-0.20732465
26	0x3e7d3ec1	0.2473097
27	0xbdb6ccfd	-0.08925817
28	0x3e64a3c4	0.22328097
29	0xbe915986	-0.28388613
30	0xbe9a8bd8	-0.30184817
31	0xbeecfbd4	-0.4628588
32	0x3d3bd025	0.0458528
33	0x3db86a0f	0.09004604
34	0x3f3ce3c6	0.73785055
35	0x3f3f5e05	0.7475284
36	0xbe99ec50	-0.30063105
37	0xbe7416c0	-0.23836803
38	0xbe2aec36	-0.1669167
39	0x3eeaa8fa	0.45832044
40	0x3f26489f	0.6495456
41	0x3a1d244b	0.0005994483
42	0x3f73f606	0.95297277
43	0x3f81252f	1.0089473
44	0xbe295aa6	-0.16538486
45	0xbdc6fe53	-0.09716477
46	0x3eaf8c61	0.34286788
47	0x3f06f836	0.5272249

hidden_model.0.bias f4 [12]
0	0x3f475caf	0.778758
1	0xbecbbe2e	-0.39793533
2	0xbdab8c28	-0.08376342
3	0xbeeb72a6	-0.45985907
4	0x3e64f7fd	0.22360225
5	0x3ef8261f	0.48466584
6	0x3d7a8de1	0.061170463
7	0xbe3afc74	-0.18260366
8	0xbe5e173f	-0.21688555
9	0xbda84d56	-0.08217876
10	0xbed6c4a9	-0.41946915
11	0x3ec323c5	0.38113227

hidden_model.2.weight f4 [12, 12]
0	0x3d2f16b8	0.042746276
1	0xbdebf828	-0.115219414
2	0x3e8db30c	0.27675664
3	0x3e84707c	0.2586707
4	0xbe3856e7	-0.180019
5	0x3ced8e08	0.02899839
6	0x3ddfec5f	0.10933756
7	0xbd5bbdc4	-0.05364777
8	0xbac27a27	-0.001483743
9	0xbe01bd5f	-0.12669896
10	0xbe99a2da	-0.30007058
11	0x3e4f45ea	0.20241514
12	0xbe65ebfc	-0.22453302
13	0xbe582b3b	-0.21110241
14	0xbe545366	-0.20734939
15	0xbe67e428	-0.22645628
16	0x3d5af564	0.05345668
17	0x3e0e9585	0.13924225
18	0xbe659d03	-0.22423176
19	0x3d8986e0	0.067151785
20	0x3e6c3527	0.23067151
21	0x3dc9c874	0.098526865
22	0xbe7395ae	-0.23787567
23	0x3e63778e	0.22213575
24	0xbd124a22	-0.03571523
25	0x3e84ffb6	0.25976342
26	0xbdeea75e	-0.116530165
27	0x3e8ec708	0.27886224
28	0x3e3d2fe0	0.18475294
29	0x3e66987d	0.22519107
30	0x3a3b3659	0.00071415823
31	0x3e2bd592	0.1678069
32	0x3e869ed1	0.26293042
33	0xbe57423b	-0.21021359
34	0x3eaa577b	0.33269867
35	0xbd83bf91	-0.06433023
36	0x3f6693c5	0.9006923
37	0xbe5ccb14	-0.21561843
38	0x3e8b3472	0.2718845
39	0x3e3944a4	0.1809259
40	0xbf5b7d34	-0.8573792
41	0x3e74d35b	0.2390875
42	0xbde063dd	-0.109565474
43	0x3db6a8e0	0.08918929
44	0xbf098daf	-0.53731817
45	0x3e9372b8	0.2879846
46	0xbe99901d	-0.29992762
47	0xbe8bc469	-0.27298287
48	0x3e8a8579	0.27054957
49	0x3e87cad2	0.26521927
50	0x3e2aa7e2	0.16665605
51	0x3e78f028	0.24310362
52	0xbe40291a	-0.18765679
53	0xbe1e63e1	-0.15467788
54	0x3d89c130	0.06726301
55	0xbdd5a746	-0.104322955
56	0x3e01574c	0.12630957
57	0xbe130d11	-0.14360453
58	0xbe757d84	-0.23973662
59	0xbe4e3b73	-0.20139866
60	0x3f1fc0d0	0.62403584
61	0x3e78b1e4	0.2428661
62	0xbdf5f4f8	-0.12009615
63	0xbe916da3	-0.2840396
64	0xbe8f0d10	-0.27939653
65	0x3ee261f5	0.4421536
66	0x3da71f1a	0.08160229
67	0x3bdd7b40	0.0067590773
68	0xbd41b8dc	-0.047295436
69	0xbe868129	-0.26270416
70	0xbecea2ff	-0.4035873
71	0x3e6a41f4	0.22876722
72	0xbe2b1f21	-0.16711093
73	0xbdb8226e	-0.08990942
74	0xbdb80464	-0.089852124
75	0x3e6d41a4	0.23169571
76	0x3e89860a	0.26860076
77	0xbd6c11b2	-0.057634063
78	0x3dec430b	0.11536225
79	0xbd8cda1a	-0.06877537
80	0x3e789f9b	0.24279635
81	0xbe08f0bc	-0.13373083
82	0xbe97aac9	-0.29622486
83	0xbb934634	-0.004494453
84	0xbefb9592	-0.4913755
85	0xbe888e7e	-0.26671213
86	0xbde93dbe	-0.113887295
87	0xbddfdff8	-0.109313905
88	0x3f539ca5	0.82660896
89	0x3ebc1971	0.3673816
90	0xbd856a16	-0.06514375
91	0x3ce145e0	0.02749914
92	0x3f248ff7	0.6428217
93	0xbd12115a	-0.03566108
94	0x3f98ca4d	1.1936737
95	0x3eb935e6	0.36173934
96	0xbea6ecfe	-0.32602686
97	0xbe0b33e4	-0.13594013
98	0xbdd65784	-0.10465911
99	0xbccaf8e0	-0.024776876
100	0x3ea25268	0.31703496
101	0x3b0638fc	0.0020480743
102	0xbdcca561	-0.09992481
103	0x3e65f800	0.22457886
104	0x3e8f0a4e	0.2793755
105	0xbdb82b2d	-0.0899261
106	0x3f0fba85	0.5614398
107	0xbdfffd2c	-0.124994606
108	0x3e8b4f89	0.27209118
109	0xbdbe1c10	-0.09282696
110	0x3e17a93c	0.14810652
111	0x3e4ac5da	0.19802037
112	0x3eac64a3	0.3367053
113	0x3e377e05	0.17919166
114	0xbaa1097b	-0.0012286151
115	0x3e23a752	0.15981796
116	0x3dad02bb	0.084477864
117	0xbe2de2da	-0.16981068
118	0x3dd3b2b6	0.10336821
119	0x3ed07275	0.40712324
120	0xbe38d059	-0.18048228
121	0x3cb33570	0.021876067
122	0xbe88e33e	-0.26735872
123	0xbd51b534	-0.0511982
124	0xbd08ea38	-0.033426493
125	0xbe23a7c4	-0.15981966
126	0xbe0a7dac	-0.13524503
127	0x3e5dbe6c	0.21654671
128	0x3e4735a8	0.19454062
129	0xbd58a550	-0.05289203
130	0x3ce1ff80	0.027587652
131	0xbe91782f	-0.28412005
132	0xbe132072	-0.14367846
133	0xbe600b0a	-0.21879211
134	0xbda47458	-0.08030003
135	0xbe67a7ee	-0.22622654
136	0xbe54999e	-0.20761725
137	0xbe34993c	-0.1763658
138	0x3e80adde	0.2513265
139	0xbc7a21c0	-0.015266836
140	0xbe541e13	-0.20714597
141	0xbde782d4	-0.1130425
142	0xbe81e7e4	-0.2537223
143	0x3db30110	0.08740437

hidden_model.2.bias f4 [12]
0	0xbe0a8ed3	-0.13531046
1	0xbe8caf3d	-0.27477446
2	0xbdee806f	-0.116455905
3	0x3f52492b	0.82142895
4	0xbe165091	-0.14679171
5	0x3ef22805	0.47296157
6	0xbe1aeb41	-0.15128805
7	0xbef1c33b	-0.47219262
8	0xbf15b143	-0.58473605
9	0x3eaa1f12	0.3322683
10	0x3d7052d0	0.058672726
11	0xbe721dca	-0.23644176

fc1.weight f4 [3, 12]
0	0xbe76e51a	-0.24110833
1	0x3e6ef3e5	0.23335226
2	0xbeafc574	-0.34330332
3	0x3faf2195	1.3682123
4	0x3e52c128	0.20581496
5	0x3f097e51	0.5370837
6	0x3e7ac0bd	0.24487586
7	0xbf8ea027	-1.1142625
8	0xbda141b2	-0.078738585
9	0xbd4fc384	-0.050723568
10	0xbe104a3b	-0.14090817
11	0xbd199f98	-0.037505716
12	0x3e490ace	0.19633028
13	0x3e33746a	0.17524877
14	0x3d007f24	0.03137125
15	0xbf3692c5	-0.713177
16	0x3e062b5d	0.1310248
17	0xbb96a516	-0.0045973165
18	0x3e8a3ea5	0.2700092
19	0x3ebc5d2e	0.3678984
20	0xbec2466b	-0.3794435
21	0x3f2dbec5	0.67869216
22	0xbda35988	-0.07976061
23	0x3c92aa70	0.017903537
24	0xbe3a9093	-0.18219213
25	0x3cf483ad	0.029847944
26	0x3e42b48a	0.19014183
27	0xbeec2cdf	-0.46127984
28	0xbdcadf39	-0.099058576
29	0xbf5a3d1a	-0.85249484
30	0xbe6539f3	-0.22385387
31	0x3fafa11f	1.3721045
32	0x3f5562f0	0.8335409
33	0xbde87cc4	-0.11351922
34	0xbe4db41e	-0.2008824
35	0x3e2ea260	0.17054129

fc1.bias f4 [3]
0	0x3efed365	0.49770656
1	0x3f2c4278	0.67288923
2	0xbf9813bf	-1.1881026
