save/IrisNN_WheatSeed_e300.pt (torch_old, 5676 bytes, 6 tensors)

hidden_model.0.weight f4 [28, 7]
-0.012844235 -0.14573124 -0.09866765 -0.12794945 0.16510662 -0.07472223 0.26272175 0.48354346
0.15866286 0.33946615 -0.012110998 0.34563044 0.1616095 -0.33717096 -0.24566337 -0.14186297
0.06136939 -0.2590636 -0.30618864 0.2451627 0.05610445 0.033216406 0.351982 -0.06124108
-0.032821868 0.22841708 0.16721793 -0.17800385 -0.3394986 -0.021720976 -0.37004372 -0.040372133
0.21212932 0.16157523 0.031603426 -0.15085916 -0.027551025 0.031493485 -0.07685754 -0.36103272
-0.1531493 -0.016064346 0.012294568 -0.20699552 0.27031177 0.13274719 -0.18358278 0.11646211
-0.5123808 0.29063657 0.14658925 -0.37686652 -0.15066762 -0.3481282 -0.37073424 0.13953874
-0.21936543 -0.012704968 0.04682648 0.070762694 0.20517597 -0.3243077 -0.15943132 -0.38159046
0.12723553 -0.15982303 0.086261526 0.17965984 0.27987516 -0.055384304 -0.23366046 -0.012519636
0.31546783 -0.36299288 -0.30263403 -0.27970964 0.19165325 -0.20944723 -0.17874934 0.4049634
-0.23104595 -0.059363086 -0.27812403 -0.015144868 -0.42715523 -0.49073067 -0.3337284 0.1189898
-0.5759976 0.7329719 0.58532465 0.2865179 0.66894543 0.31182158 -0.16397564 0.6012631
-0.5757379 0.25215533 0.42167914 0.37449938 -0.43152502 0.54662114 0.31461224 0.09332078
0.31740674 -0.46810347 0.22670065 0.34394366 0.0449875 -0.3000641 -0.015345062 -0.27599373
-0.027986921 -0.22990833 0.62345946 0.117465414 -0.35938144 0.29141408 0.04757116 -0.4235203
-0.03601826 0.3603023 0.018874615 0.11180889 -0.7541044 -0.32541236 -0.3432522 -0.3754513
0.01880002 0.043695927 -0.028466761 -0.11050969 0.28356323 -0.22027496 0.25992712 0.24835119
-0.21050288 -0.1847774 0.16857055 -0.28285292 0.32915118 -0.11091091 0.29030845 0.112165846
-0.10567113 0.023475355 -0.12041091 -0.17793836 -0.18007398 0.23851307 0.30742413 0.26778987
0.20119311 0.013705325 0.029744122 -0.40399688 0.22086737 0.1385116 -0.5647229 0.15549433
0.0018630463 -0.32438186 0.25249222 0.27514055 0.31832224 -0.18138218 0.29252914 0.21551126
-0.18039224 -0.2386227 -0.28496152 0.2768409 0.0032983124 0.27478024 -0.26363552 -0.11441159
-0.03648196 0.26592773 0.030149609 0.42025208 0.09875628 0.045551565 -0.26802546 0.043566704
-0.27624297 0.28694192 0.31938222 -0.32774848 -0.35430858 1.0381346 0.9027598 0.40593788
0.16919221 0.9351535 -0.377872 0.4290863
00000000: a070 52bc 923a 15be 4412 cabd 2e05 03be
00000010: b611 293e f807 99bd 7783 863e 0293 f73e
00000020: 8478 223e 82ce ad3e 356d 46bc 79f6 b03e
00000030: f67c 253e aca1 acbe 2e8f 7bbe 8744 11be
00000040: 785e 7b3d fca3 84be c2c4 9cbe ee0b 7b3e
00000050: c8cd 653d ed0d 083d fc36 b43e edd7 7abd
00000060: 3970 06bd 2be6 693e 2d3b 2b3e a446 36be
00000070: c3d2 adbe 30f0 b1bc 5f76 bdbe 405d 25bd
00000080: 6e38 593e fa73 253e 9872 013d d37a 1abe
00000090: b0b2 e1bc 50ff 003d 7c67 9dbd 48d9 b8be
000000a0: 2cd3 1cbe 6099 83bc 286f 493c a2f6 53be
000000b0: 4e66 8a3e e1ee 073e 20fd 3bbe b083 ee3d
000000c0: 632b 03bf 51ce 943e 7e1b 163e a6f4 c0be
000000d0: 9d48 1abe dc3d b2be e1d0 bdbe 3ee3 0e3e
000000e0: 55a1 60be 8028 50bc 20cd 3f3d 08ec 903d
000000f0: a619 523e a90b a6be f741 23be d35f c3be
00000100: 084a 023e a6a8 23be e2a9 b03d c0f8 373e
00000110: cc4b 8f3e a7da 62bd b044 6fbe 291f 4dbc
00000120: 0085 a13e 34da b9be d9f2 9abe 1a36 8fbe
00000130: c040 443e 5679 56be 110a 37be 5d57 cf3e
00000140: 4f97 6cbe b526 73bd 4666 8ebe 2e22 78bc
00000150: 17b4 dabe 0d41 fbbe 73de aabe edb0 f33d
00000160: 9474 13bf 0ca4 3b3f d6d7 153f 79b2 923e
00000170: 0240 2b3f 14a7 9f3e 3be9 27be 61ec 193f
00000180: 8f63 13bf 811a 813e 54e6 d73e 62be bf3e
00000190: d9f0 dcbe 5def 0b3f db14 a13e f71e bf3d
000001a0: 2383 a23e 42ab efbe 3724 683e 6219 b03e
000001b0: d044 383d 00a2 99be db69 7bbc 0d4f 8dbe
000001c0: d444 e5bc 176d 6bbe 0a9b 1f3f b591 f03d
000001d0: d800 b8be 3a34 953e fad9 423d a7d7 d8be
000001e0: e287 13bd 8b79 b83e f09e 9a3c 0ffc e43d
000001f0: fc0c 41bf 739c a6be c1be afbe 273b c0be
00000200: 8002 9a3c 80fa 323d 2033 e9bc e852 e2bd
00000210: 332f 913e c28f 61be 2b15 853e c64f 7e3e
00000220: 118e 57be 4936 3dbe c29d 2c3e 19d2 90be
00000230: 8186 a83e 4225 e3bd 4fa3 943e 35b7 e53d
00000240: 1b6a d8bd 634f c03c ff99 f6bd 7935 36be
00000250: 5065 38be c53c 743e b266 9d3e c11b 893e
00000260: 9105 4e3e 4d8c 603c f2a9 f33c aed8 cebe
00000270: 0e2b 623e fcd5 0d3e ae91 10bf e839 1f3e
00000280: 7631 f43a 6115 a6be a946 813e 39df 8c3e
00000290: 22fb a23e 40bc 39be 61c6 953e fcae 5c3e
000002a0: beb8 38be 8259 74be 7ae6 91be 17be 8d3e
000002b0: 8028 583b ffaf 8c3e 3cfb 86be a050 eabd
000002c0: 1c6e 15bd ae27 883e 50fc f63c 482b d73e
000002d0: bc40 ca3d 4794 3a3d a23a 89be 0073 323d
000002e0: b86f 8dbe 0dea 923e 1186 a33e a6ce a7be
000002f0: ef67 b5be 98e1 843f 441b 673f 17d7 cf3e
00000300: b940 2d3e 3866 6f3f 7078 c1be 33b1 db3e

hidden_model.0.bias f4 [28]
-0.09064284 0.267515 -0.24102423 -0.2808342 -0.23738058 -0.22297242 0.3611964 -0.33761
-0.30949703 -0.17656182 0.10493705 0.116488285 0.25966045 0.036642287 -0.3925782 0.5408268
0.49534488 0.56495327 -0.25092876 -0.28925002 -0.29395008 0.13066125 0.7482719 -0.06649611
-0.15950923 -0.0022128075 -0.22984296 -0.31606135
00000000: f4a2 b9bd baf7 883e 0ecf 76be 80c9 8fbe
00000010: e513 73be e252 64be bcee b83e 38db acbe
00000020: 6576 9ebe 9fcc 34be 3ce9 d63d 6991 ee3d
00000030: 37f2 843e 3916 163d 0300 c9be a073 0a3f
00000040: d89d fd3e c7a0 103f bc79 80be 9418 94be
00000050: a080 96be 10cc 053e bf8e 3f3f 1d2f 88bd
00000060: 6356 23be c004 11bb f45b 6bbe cbd2 a1be

hidden_model.2.weight f4 [28, 28]
0.09454624 -0.07627431 -0.084920496 0.010298097 -0.16130814 -0.12431838 -0.086876824 0.1401319
0.13897024 0.08300912 0.18496384 0.10162674 0.042641748 -0.1746834 0.14872609 -0.14722812
-0.10240294 -0.039992366 -0.074723765 -0.093891434 -0.13110042 -0.08327773 -0.121324934 -0.023548841
-0.09114571 0.047158748 -0.08903392 0.08314676 -0.02577737 0.4102687 0.15542345 0.12219948
0.08020328 -0.022257894 0.04849571 -0.06823668 -0.15725704 0.14813915 0.0818473 0.21494506
-0.5338078 0.50329924 0.45042598 0.0227433 -0.12933949 0.100190096 -0.02927886 -0.04455091
0.038402937 0.038849853 -0.120333545 -0.19686675 0.123517945 -0.006096488 -0.1379269 0.85264665
-0.008713171 0.1409143 0.056764245 -0.048468735 0.015651584 -0.09127422 0.058186874 0.10551001
-0.16963048 -0.093818046 -0.05210738 -0.19493878 0.6904256 -0.22239186 -0.10192197 0.29577425
0.42445293 -0.17191383 -0.04276772 0.112999365 0.17432344 0.061145194 0.47215205 0.123830736
-0.0987448 -0.07934525 0.1772225 -0.27859074 0.04631509 0.016808955 -0.018303275 0.11931319
-0.12608051 0.14154883 -0.23799664 -0.10212587 -0.032385334 -0.06098944 -0.14481768 0.08029432
-0.064989485 0.26201627 0.09806715 -0.090581894 -0.09883256 -0.2972543 -0.07342387 0.11542891
0.07482512 0.010839185 -0.21011157 0.20972972 0.027309969 -0.078328975 -0.18117546 0.46313122
0.12618758 -0.16098794 0.025908113 0.16153398 0.13689934 -0.14697942 -0.053242717 0.055331036
-0.00042583048 -0.0327639 0.0023093224 -0.17155674 -0.051625293 -0.060046494 0.17051834 -0.09554353
0.12504192 -0.069383316 -0.14351624 0.02011256 0.03671278 -0.04159738 -0.13913499 0.015282693
-0.0732543 0.1801922 -0.09928319 0.03537175 -0.08690645 0.045673363 0.078262046 0.18667078
0.13334452 0.106278405 -0.12960936 0.18728216 -0.18834089 -0.014230743 0.035179123 -0.06322865
0.12184775 -0.014075651 -0.026293177 0.09593421 -0.16676788 0.13054101 0.042374477 -0.13473414
-0.06320342 0.15288903 -0.008095763 0.14378712 -0.04127994 -0.0577329 0.1736676 0.03912496
-0.085098855 0.18235622 -0.14829016 -0.05656002 0.022301719 -0.08961905 0.23452549 0.115314856
0.09427048 -0.0040533654 -0.19206165 -0.036965374 0.21987732 -0.14014368 -0.41413647 0.46565938
0.5080296 0.3693291 0.109772936 -0.04465042 -0.14610729 0.20622891 0.49334338 0.1320682
-0.10387072 0.16326873 0.110570684 -0.3944282 0.08177121 0.07453282 0.14115967 0.048011914
-0.12893917 -0.18075052 0.1712154 0.16376092 -0.011234596 0.05907154 -0.06940097 0.08317293
-0.086253166 -0.022855893 -0.07957837 -0.017053053 -0.10155948 -0.09825344 0.020812735 -0.1336542
0.1482883 0.0074635297 -0.104833245 -0.1865018 0.116747245 0.032204047 -0.01795724 -0.07061016
0.10911246 -0.15425651 0.13265534 -0.104550354 -0.15547505 0.18442045 -0.102471024 0.16837983
0.042080253 0.022627886 0.0692263 0.1239677 -0.16319625 -0.022334315 0.075770035 0.038537674
-0.051570375 -0.11962904 -0.08387646 0.13692407 -0.17741483 0.010953725 -0.16976115 0.112312965
-0.16232444 -0.1426256 0.057145163 0.037726574 0.18185653 0.4048572 0.17373113 0.01897423
00000000: 76a1 c13d b535 9cbd ccea adbd 59b9 283c
00000010: f62d 25be a39a febd 7aec b1bd bd7e 0f3e
00000020: 374e 0e3e af00 aa3d 2967 3d3e ae21 d03d
00000030: 1da9 2e3d 35e0 32be a74b 183e f8c2 16be
00000040: a2b8 d1bd 09cf 23bd c608 99bd 274a c0bd
00000050: 303f 06be 848d aabd 3579 f8bd 80e9 c0bc
00000060: 9aaa babd 8829 413d 6a57 b6bd d948 aa3d
00000070: 102b d3bc bd0e d23e 5327 1f3e b943 fa3d
00000080: 9e41 a43d 3056 b6bc 70a3 463d acbf 8bbd
00000090: fd07 21be cab1 173e 8f9f a73d 8f1a 5c3e
000000a0: a1a7 08bf 38d8 003f 3c9e e63e 2850 ba3c
000000b0: 9271 04be 7730 cd3d 38da efbc 047b 36bd
000000c0: 664c 1d3d 0621 1f3d 6f71 f6bd 7097 49be
000000d0: faf6 fc3d 0cc5 c7bb b63c 0dbe 0d47 5a3f
000000e0: b0c1 0ebc d74b 103e a081 683d 2787 46bd
000000f0: c037 803c faed babd 5c55 6e3d a215 d83d
00000100: 9db3 2dbe ad23 c0bd 8c6e 55bd 089e 47be
00000110: bbbf 303f b1ba 63be 77bc d0bd b96f 973e
00000120: e551 d93e 2e0a 30be 342d 2fbd 366c e73d
00000130: d881 323e 6273 7a3d eabd f13e f89a fd3d
00000140: b73a cabd c37f a2bd d179 353e 72a3 8ebe
00000150: e4b4 3d3d efb2 893c c0f0 95bc 795a f43d
00000160: 401b 01be 2df2 103e 64b5 73be 5e27 d1bd
00000170: 7ca6 04bd 10d0 79bd 164b 14be 5971 a43d
00000180: 3519 85bd ff26 863e 6ed7 c83d 0083 b9bd
00000190: ba68 cabd b731 98be 415f 96bd fe65 ec3d
000001a0: ea3d 993d d696 313c 7d27 57be 63c3 563e
000001b0: 28b9 df3c f16a a0bd 0f86 39be 891f ed3e
000001c0: 5137 013e 06da 24be 403d d43c 2a69 253e
000001d0: 572f 0c3e c681 16be 0915 5abd cca2 623d
000001e0: 0042 dfb9 7033 06bd 0058 173b 92ac 2fbe
000001f0: 0b75 53bd 50f3 75bd 5c9c 2e3e 54ac c3bd
00000200: fd0a 003e d718 8ebd ecf5 12be 18c3 a43c
00000210: 2460 163d 0462 2abd 6779 0ebe 4364 7a3c
00000220: 5a06 96bd 4e84 383e fc54 cbbd f8e1 103d
00000230: 02fc b1bd fe13 3b3d da47 a03d a026 3f3e
00000240: 778b 083e 7ea8 d93d 51b8 04be e5c6 3f3e
00000250: 6fdc 40be 1028 69bc fc17 103d 067e 81bd
00000260: 508b f93d 8f9d 66bc ca64 d7bc 2879 c43d
00000270: 33c5 2abe 8bac 053e dc90 2d3d bff7 09be
00000280: cb70 81bd f18e 1c3e 17a4 04bc ee3c 133e
00000290: 2815 29bd 5579 6cbd ebd5 313e 7e41 203d
000002a0: 4f48 aebd 97bb 3a3e 60d9 17be 7bab 67bd
000002b0: 18b2 b63c 318a b7bd 7327 703e 322a ec3d
000002c0: e210 c13d 18d2 84bb cfab 44be 0169 17bd
000002d0: 8527 613e d381 0fbe b209 d4be e86a ee3e
000002e0: 3a0e 023f b418 bd3e a2d0 e03d 5ce3 36bd
000002f0: 269d 15be ac2d 533e 8197 fc3e e33c 073e
00000300: 2cba d4bd eb2f 273e e272 e23d 7ef2 c9be
00000310: aa77 a73d aaa4 983d 298c 103e 24a8 443d
00000320: a108 04be aa16 39be 1753 2f3e f1b0 273e
00000330: 5011 38bc 00f5 713d 1922 8ebd 9256 aa3d
00000340: 80a5 b0bd 483c bbbc fcf9 a2bd d8b2 8bbc
00000350: 6bfe cfbd 1939 c9bd 787f aa3c a6dc 08be
00000360: e3d8 173e a090 f43b d0b2 d6bd 54fa 3ebe
00000370: 2e19 ef3d 64e8 033d 101b 93bc 0f9c 90bd
00000380: 5a76 df3d 6bf5 1dbe cdd6 073e 7f1e d6bd
00000390: da34 1fbe b7d8 3c3e 54dc d1bd c36b 2c3e
000003a0: 585c 2c3d 1e5e b93c 85c6 8d3d c7e2 fd3d
000003b0: eb1c 27be 74f6 b6bc 522d 9b3d aed9 1d3d
000003c0: 753b 53bd 1200 f5bd 6cc7 abbd d335 0c3e
000003d0: 3cac 35be 4177 333c ded5 2dbe 5704 e63d
000003e0: 6138 26be 720c 12be 0c11 6a3d 2e87 1a3d
000003f0: 9938 3a3e 7149 cf3e 93e6 313e d86f 9b3c

hidden_model.2.bias f4 [28]
0.036305744 0.095600754 0.6059514 -0.02239222 -0.15130779 -0.16703933 0.58317256 -0.18285505
0.07467682 -0.03711051 0.5079108 0.20966181 0.035702884 0.8005405 -0.0681342 -0.13372198
-0.08533874 -0.022789799 -0.13655135 0.25227287 -0.10786746 -0.04926287 -0.090584144 -0.12777913
-0.06361247 -0.025533793 0.5011702 -0.16533771
00000000: 55b5 143d 54ca c33d a21f 1b3f e46f b7bc
00000010: 6ef0 1abe 5c0c 2bbe cc4a 153f 5b3e 3bbe
00000020: 29f0 983d 3101 18bd 7106 023f 96b1 563e
00000030: 303d 123d 39f0 4c3f f289 8bbd 6aee 08be
00000040: 14c6 aebd acb1 babc 1ed4 0bbe e929 813e
00000050: 9de9 dcbd ddc7 49bd 2e84 b9bd 88d8 02be
00000060: 4147 82bd 3f2c d1bc b14c 003f 4a4e 29be

fc1.weight f4 [3, 28]
0.12643717 0.45481366 -0.26222435 -0.14748758 0.019593764 0.1791934 0.19766007 0.116732225
0.116030574 0.23367439 -0.07784079 0.109660536 -0.08213506 0.62691045 -0.058106296 0.17945494
0.16315213 -0.11208021 0.07768883 0.32033387 -0.14043343 -0.036890484 0.30940905 0.43481153
-0.06645514 -0.13476972 0.15947202 -0.28464827 -0.18091464 0.8310159 -0.5017205 0.56466764
-0.010335455 0.06625216 -1.0396025 -0.11888592 -0.04449623 0.79264706 -0.61580175 -0.08898257
-0.012718603 -1.0888686 -0.13343334 -0.055248026 0.13176899 0.14586951 -0.02055846 -0.06817317
-0.13301568 -0.08814292 0.06857741 0.063132636 0.11434312 0.6652028 -0.45734572 0.16174275
0.16176409 -0.8949152 1.063084 -0.26974714 0.03260572 -0.18031275 0.71661085 0.14725684
0.03422494 -0.9880022 0.38481984 0.1741885 0.028978959 0.58150923 0.021202287 -0.14386746
-0.13628218 -0.13779612 -0.18096226 0.04221116 0.116843626 -0.13227911 -0.49843436 -0.43162867
-0.08771959 -0.87471384 0.36358058 -0.12272089
00000000: bf78 013e 56dd e83e 4542 86be fc06 17be
00000010: 1a83 a03c 7a7e 373e 6767 4a3e 4e11 ef3d
00000020: 70a1 ed3d 5748 6f3e fe6a 9fbd b495 e03d
00000030: 6d36 a8bd 347d 203f de00 6ebd 09c3 373e
00000040: 5a11 273e 4f8a e5bd 521b 9f3d cd02 a43e
00000050: c8cd 0fbe 7a1a 17bd dd6a 9e3e 9e9f de3e
00000060: a219 88bd 1301 0abe a24c 233e 6bbd 91be
00000070: b041 39be 75bd 543f c170 00bf 0f8e 103f
00000080: 0a56 29bc 36af 873d b211 85bf 767a f3bd
00000090: ae41 36bd ebea 4a3f 2fa5 1dbf 7e3c b6bd
000000a0: b061 50bc 0c60 8bbf c0a2 08be c14b 62bd
000000b0: 73ee 063e d15e 153e 376a a8bc 609e 8bbd
000000c0: 4335 08be 4684 b4bd 5072 8c3d af4b 813d
000000d0: ba2c ea3d bb4a 2a3f 3829 eabe e49f 253e
000000e0: 7ca5 253e 2a19 65bf 2313 883f 4c1c 8abe
000000f0: 938d 053d e8a3 38be cf73 373f 7fca 163e
00000100: 732f 0c3d b6ed 7cbf 1b07 c53e 785e 323e
00000110: 4865 ed3c cadd 143f 6bb0 ad3c fe51 13be
00000120: 8e8d 0bbe 6d1a 0dbe 2c4e 39be 9ce5 2c3d
00000130: b64b ef3d 2d74 07be ca32 ffbe 6ffe dcbe
00000140: 54a6 b3bd 3fed 5fbf 3c27 ba3e 1755 fbbd

fc1.bias f4 [3]
0.296661 -0.7115772 0.2793739
00000000: f3e3 973e ec29 36bf 190a 8f3e
