save/IrisNN_Iris_e200.pt (torch_old, 2796 bytes, 6 tensors)

hidden_model.0.weight f4 [16, 4]
000000 da ac c3 3e 30 17 04 3d 70 89 1e be b0 a3 a4 be
       0.38217813 0.032248676 -0.15482116 -0.32156134
000010 b2 26 ad be a4 18 42 3f 08 61 7c be 72 8c 2f be
       -0.33818585 0.7581885 -0.2464639 -0.1714342
000020 14 d8 c4 be 00 45 94 3d 07 2d 9f be 41 7b 60 be
       -0.38446105 0.07239723 -0.3108904 -0.21922018
000030 84 d1 fb be c0 53 95 3c e0 7d e4 bc 5c 28 30 3e
       -0.49183285 0.018228412 -0.027892053 0.17202896
000040 0f a0 06 be 22 fa d1 be 57 5a 15 3f 0f f5 51 3f
       -0.13146995 -0.4101115 0.5834097 0.82014555
000050 4d 58 c7 be 87 42 41 3e 3b 66 ce 3e 2b 5d a9 3e
       -0.38934556 0.18873034 0.4031237 0.33078894
000060 f0 f5 cc bd d4 c6 38 be 5a 34 a3 3e 00 10 c9 bb
       -0.10007846 -0.18044597 0.3187588 -0.0061359406
000070 c6 19 dd 3e 0c a5 45 3e 7f a1 03 bf 69 e9 52 bf
       0.43183726 0.19301242 -0.514183 -0.82387406
000080 20 dc d4 bd 0c 58 a6 3e 1a 4f 10 3f 32 fc 1b 3f
       -0.10393548 0.3248905 0.563707 0.60931695
000090 6a 02 99 be 84 a0 72 be 08 e0 27 be f8 c2 ec 3e
       -0.29884654 -0.23694044 -0.16394055 0.462425
0000a0 5d b5 04 3f d8 3f 08 3e 14 ce 67 3f 96 e9 77 3f
       0.5183924 0.13305604 0.90548825 0.968408
0000b0 4e dc 91 be bc 91 01 3e 00 9b eb 3d 46 c3 a9 3e
       -0.28488392 0.1265325 0.11504173 0.33156794
0000c0 74 35 21 3e 2e be cb be 28 8c ab bd a6 72 eb be
       0.15743047 -0.39793533 -0.08376342 -0.45985907
0000d0 60 70 2a 3f 93 90 fb 3e 39 08 a6 3e cd 39 e4 bb
       0.6657772 0.4913374 0.32428148 -0.006964898
0000e0 13 d1 73 3d 60 86 6a bd 89 61 15 3e 29 24 00 3f
       0.05952556 -0.057257056 0.14587988 0.50055176
0000f0 ca f3 ae 3e 0e 88 ff be 15 62 99 3f ed a1 a9 3f
       0.3417037 -0.4990849 1.1983057 1.3252541

hidden_model.0.bias f4 [16]
000000 5a 30 95 be de 09 27 3f ea fc a1 3e 30 4d be bd
       -0.29138452 0.6524943 0.3163827 -0.09292066
000010 b7 86 b3 3d 9c 9c 6b be 50 6b fb be 6b 31 92 3f
       0.08765929 -0.2300896 -0.4910531 1.1421331
000020 5b 2a df be 2e 35 bb be 84 1c f5 be de d2 c8 be
       -0.43587002 -0.3656401 -0.47873318 -0.3922338
000030 98 6c 07 3e 84 32 3f 3f 2a 51 a7 be 63 ca 61 3d
       0.13225019 0.74686456 -0.3267911 0.05512465

hidden_model.2.weight f4 [16, 16]
000000 22 6f 5b 3e 1c 96 59 3d e5 94 45 be 1a d4 53 3e
       0.21429113 0.05312167 -0.1929508 0.20686379
000010 5c f2 4b 3e 48 b1 66 3e 24 ae ce bd 7e 64 56 3e
       0.19916672 0.22528565 -0.100918084 0.20936772
000020 90 36 b5 bd de be 69 3e c0 13 07 bd 16 d0 14 3e
       -0.088482976 0.22826716 -0.03297782 0.14532503
000030 e8 aa 52 3d 90 ff 70 be f1 67 5e 3c 0b e9 a1 bd
       0.05143252 -0.2353499 0.013574586 -0.079057775
000040 44 d2 63 3e c6 54 c0 be ca 68 5c 3e 68 72 20 3e
       0.22248179 -0.37564677 0.21524349 0.15668643
000050 7b 09 bd 3e 3e d9 21 3e a0 4c 05 bd 10 fe a9 be
       0.36921296 0.15805528 -0.03254378 -0.33201647
000060 de d4 19 3e 3c 63 7f 3e f9 f9 5a 3f ae c0 61 be
       0.15022609 0.24940199 0.8553768 -0.22046158
000070 86 91 6f 3e a7 98 8b 3e de 19 95 3e fa fd 94 3f
       0.23395357 0.27264902 0.29121298 1.1640007
000080 7a 6a 26 be 56 d6 50 be fc 2e 43 3d 80 07 b9 bd
       -0.16251555 -0.20394263 0.04765223 -0.09034634
000090 23 a3 c8 3e 97 3f ac bd 78 9b 54 be 66 53 9d be
       0.39186963 -0.08410566 -0.20762432 -0.3072769
0000a0 62 bf 8e 3e 48 60 57 3e 1f 67 85 3e a0 e3 7b be
       0.27880388 0.21032822 0.26055238 -0.24598551
0000b0 00 f6 87 3d 01 45 b6 3e c0 6f 27 3e 37 bb 15 3f
       0.06638718 0.3559952 0.16351223 0.5848879
0000c0 34 6f d7 3d 96 8b 68 be e4 7a 09 be 34 0d 29 3e
       0.10519257 -0.22709498 -0.13425785 0.16508943
0000d0 4e ff 13 be 14 77 9f bd 10 5d 9f bd 58 78 4d 3e
       -0.1445286 -0.07786384 -0.07781422 0.20065439
0000e0 4a 59 7f 3e c0 55 19 bd 8c b0 ce 3d 78 f6 73 bd
       0.24936405 -0.037435293 0.100922674 -0.059561223
0000f0 90 90 63 3e 64 45 ec bd 2c 1f 74 be 00 9e f5 3b
       0.22223115 -0.11536673 -0.23840016 0.0074956417
000100 90 73 c8 3c 47 6f 82 be 28 fe c9 bd a0 e1 c1 bd
       0.024469167 -0.25475523 -0.098629296 -0.09466863
000110 63 1c c3 3d 6b 39 71 3e 08 e6 d1 bd fa e7 6c bd
       0.09526899 0.2355706 -0.10248953 -0.057838418
000120 fc e9 d6 3d 20 5e 06 bd 62 15 a5 3e 70 b0 e2 3d
       0.10493848 -0.03280461 0.32242876 0.11068809
000130 20 e5 66 bc 58 27 f2 bd 76 2d 4f bd 1a 2e c4 3d
       -0.014092714 -0.118239105 -0.050580464 0.09579106
000140 72 09 20 3e 66 f3 08 be 89 77 e4 bd a6 28 47 3e
       0.15628603 -0.13374099 -0.11155612 0.194491
000150 3c fd 04 3f 95 e4 9e bb 3c 0b 73 3e 9e 8d cc be
       0.51948905 -0.0048490264 0.23734754 -0.39951795
000160 66 4d ec 3e c8 a3 a4 bd a2 65 41 3f 40 9b 2f 3e
       0.461528 -0.08039051 0.75545704 0.17149067
000170 e0 93 b5 3c 00 59 3b 3e 05 28 46 3d a4 f1 8c 3f
       0.022165239 0.1829567 0.04837801 1.1011243
000180 a0 b5 e0 3c 4c 73 1d be 5b 17 3f bd 66 19 7e 3e
       0.027430356 -0.15376014 -0.046653133 0.24814376
000190 b2 0d 20 be 00 33 9b 3c ae 18 6d be 36 b4 4e bd
       -0.15630224 0.018945217 -0.23153946 -0.05046483
0001a0 c0 24 ed bc cc ba 0d be 35 41 f0 bd 2a 09 40 3e
       -0.028948188 -0.13840789 -0.11731187 0.18753496
0001b0 44 85 2c 3e 88 b8 71 bd 50 b8 c3 3c d6 22 7e be
       0.16847712 -0.059013873 0.023891598 -0.24817976
0001c0 bc d4 fe bd bb 2d 51 be 47 2b 93 bd b6 9e 48 be
       -0.124429196 -0.20427601 -0.07185989 -0.19591793
0001d0 ac a5 3f be 8f 67 1c be fc e0 5e 3e 41 d9 bc bc
       -0.18715543 -0.1527388 0.21765512 -0.023052813
0001e0 99 c2 37 be 94 7e c8 bd 89 18 66 be ac 05 9b 3d
       -0.17945327 -0.09789768 -0.22470297 0.07569441
0001f0 70 fb 95 bc 32 68 7e be b2 52 28 3e fe d4 a8 3d
       -0.018308371 -0.24844435 0.16437796 0.0824375
000200 f8 78 02 be 1c 17 85 bd 64 eb f0 bd 2c f7 d8 bd
       -0.12741458 -0.064985484 -0.11763647 -0.10594019
000210 d4 0c 61 be c4 9c e7 3d 50 20 50 3d ce ad 51 be
       -0.2197755 0.113091975 0.050812066 -0.20476457
000220 7c 17 5a be 52 15 4f 3e c2 d3 3e be bc 94 4e 3e
       -0.21298021 0.20222977 -0.18635467 0.20173925
000230 b2 73 36 3e c8 2a 25 3d 42 37 59 3e 82 c4 09 3e
       0.17817572 0.040324003 0.21212485 0.13453868
000240 50 01 39 3e cb 01 99 bd 64 46 f8 bd b0 0a 05 bd
       0.18066907 -0.07471045 -0.12122801 -0.032480896
000250 f1 ec 63 3e 67 f7 53 3e d8 3a 5c bd 00 c0 ba be
       0.22258355 0.20699845 -0.053767055 -0.3647461
000260 30 bd 54 3e ca fb 62 be dc ae a4 3e b4 6b 2a 3e
       0.20775294 -0.22166362 0.32164657 0.16642648
000270 e8 17 00 3d 99 a2 a9 3d fa 02 98 37 ec 03 98 3d
       0.0312728 0.08282966 1.8121198e-05 0.07422623
000280 d2 d5 1f be 9f 1a 1d 3c bc cd 05 3e f4 df e5 3d
       -0.1560891 0.0095888665 0.13066763 0.11224356
000290 17 d0 af bd 9c 30 c4 bd 24 aa 46 be 9e af 64 3e
       -0.08584612 -0.09579584 -0.19400841 0.22332618
0002a0 21 ac e7 3d e2 48 31 3e f8 37 32 be dc 3c 17 3e
       0.11312128 0.17312959 -0.17404163 0.1476931
0002b0 70 2b 13 be 84 6a 42 bd 1a c1 22 3e e5 c4 19 be
       -0.14372039 -0.047464862 0.15893975 -0.15016516
0002c0 08 75 3f be f6 2e f7 3e 0d 34 11 3e 40 da 55 3e
       -0.18696988 0.48278016 0.14180012 0.20884037
0002d0 3c e9 47 be 60 17 6a be 94 5c f3 bd 34 69 2f 3f
       -0.19522566 -0.2286048 -0.11882892 0.685199
0002e0 39 ea c9 be a0 f1 fc 3c 9d 53 b0 be 68 89 a8 bd
       -0.3943651 0.030876935 -0.34438792 -0.08229333
0002f0 7a 74 3a be a1 42 2d 3f 59 9b 7d bd b5 cc 11 bd
       -0.18208495 0.6767979 -0.06191573 -0.035595614
000300 74 2a 46 be 91 0f 2e 3f 8d aa 74 3e c8 67 20 be
       -0.19352132 0.679925 0.23893185 -0.1566459
000310 42 9a bf be 87 6a 49 be 86 ab 41 be 50 46 7f 3f
       -0.37422377 -0.19669543 -0.18913087 0.99716663
000320 b4 d9 5e be f0 b7 83 bc e6 31 5e be 78 7a 02 bd
       -0.21762735 -0.01607892 -0.21698722 -0.031855077
000330 fc c3 c0 bd f3 f6 11 3f 76 8d 0a be 07 9e 10 bf
       -0.09412381 0.5701744 -0.13530526 -0.5649113
000340 00 de 77 3d 09 b8 52 3d 10 35 74 bd c0 47 77 3d
       0.06051445 0.05144504 -0.059620917 0.06037116
000350 98 00 9a 3d d0 75 50 be ca 43 64 3e e9 63 9d bd
       0.075196445 -0.20357442 0.22291484 -0.07685072
000360 95 a0 46 bd f2 95 1a 3e 61 e0 a2 3d 42 ad 6f be
       -0.048492987 0.15096262 0.07952953 -0.23405936
000370 92 eb 02 3e 29 90 46 be 48 ba c7 3c f1 3c 16 3d
       0.12785175 -0.1939093 0.024380818 0.036679212
000380 2c 93 30 3e 8a ef 2d be 52 f6 50 3e b4 d8 38 be
       0.17243642 -0.16985908 0.20406464 -0.18051416
000390 6a 14 0a be bc 5e 88 3d 3e bd 0c 3e 92 5d 1d 3e
       -0.1348435 0.06658694 0.13744065 0.15367725
0003a0 00 63 88 3c d0 5d 8c 3d 24 c7 0d 3e 16 05 33 3e
       0.01664877 0.06853831 0.13845497 0.17482409
0003b0 ee c5 24 be 94 d7 d8 3d d0 50 a0 bc ac a2 a6 bd
       -0.16091129 0.10587993 -0.019569784 -0.08136496
0003c0 1c 3b 6f 3e 8a 5b 39 3e f2 0a ac bc 70 d2 b5 3d
       0.23362392 0.18101326 -0.021001313 0.088780284
0003d0 a6 bf 52 3d 0d d4 e9 3d 8c 9f b4 bd 0a 77 ab be
       0.0514523 0.114173986 -0.08819494 -0.33489257
0003e0 c4 fa 19 3e 80 3d 31 3c 8b 6c 90 3e 00 f8 fe 3d
       0.15037066 0.010817885 0.28207812 0.12449646
0003f0 7e 91 44 be d9 77 a4 be 5b 4e b4 3c 5c db 67 3e
       -0.19196126 -0.32122687 0.022010019 0.22642273

hidden_model.2.bias f4 [16]
000000 e1 02 dc bb 7d 15 e8 bd 20 60 31 3d 68 ad 3f bd
       -0.0067142104 -0.113322236 0.043304563 -0.046796232
000010 7c 77 fe bd a4 71 4c 3e e1 f4 ce 3d 1f 8d 20 3e
       -0.124251336 0.19965225 0.10105301 0.15678833
000020 ae 37 7f be d5 a4 3a be 62 41 58 be 2a fc 73 3f
       -0.24923584 -0.18226941 -0.21118692 0.95306647
000030 0b cf 71 3f 72 c5 92 bd fc b7 77 be 43 d3 1c bc
       0.9445655 -0.07166566 -0.24191278 -0.009571853

fc1.weight f4 [3, 16]
000000 81 58 a4 bd 28 6d 95 bf eb 25 47 bf 88 54 da 3d
       -0.08024693 -1.1673937 -0.77792233 0.10660654
000010 93 c2 34 3e 25 b6 98 bf ef 1e 61 bc 53 19 81 bd
       0.17652349 -1.1930586 -0.013740285 -0.06303658
000020 5e 0c 75 be 60 2f 7c be 6b b4 ac 3b ca 74 4e 3f
       -0.23930499 -0.24627447 0.005270531 0.80646956
000030 fd 70 8d 3f b0 90 5f 3e a8 84 b6 bd 6d e7 49 bd
       1.1050106 0.21832538 -0.08912021 -0.04929297
000040 24 a7 d3 3d 2c a5 c2 3d 6b b6 b6 3d 2e 6f 45 3e
       0.10334614 0.0950416 0.08921512 0.19280693
000050 7f 97 42 be e3 4b 99 3e 59 69 4f 3e 7b c0 19 be
       -0.19003104 0.2994071 0.2025503 -0.15014832
000060 20 f5 a0 bd 2d ff 92 be 3e 79 d3 3d 4d f4 36 3f
       -0.07859254 -0.2871031 0.103258595 0.71466523
000070 8c 40 38 3e fd 51 30 be c8 31 ca 3d 48 90 42 be
       0.17993373 -0.17218776 0.09872776 -0.19000351
000080 77 89 39 3e 2c 10 89 3f a0 52 e3 3e 4c 84 72 3e
       0.18118845 1.070806 0.44398975 0.2368328
000090 11 2a 8d 3e 43 92 74 3f 2f 9f 73 3c a5 a9 41 3e
       0.27571157 0.9553568 0.014869495 0.1891237
0000a0 c8 bb 3e 3e 16 48 aa 3e b3 f7 61 be 8b 51 8c bf
       0.1862632 0.33258122 -0.22067146 -1.0962385
0000b0 73 2c b5 bf e9 78 cf bd d4 4a 8b bd f8 c1 d9 3e
       -1.415419 -0.10130484 -0.06801382 0.425308

fc1.bias f4 [3]
000000 21 24 75 3f 0b d8 39 3e 96 47 a5 bf
       0.95758253 0.1814882 -1.2912471
