save/IrisNN_HTRU2_e200.pt (torch_old, 6825 bytes, 6 tensors)

hidden_model.0.weight f4 [32, 8]
000000 78 1a 15 3e 39 94 2d bd 8c eb b2 3f 2e a8 9f 3e
       0.14560878 -0.042377684 1.3978133 0.31182998
000010 af 75 2e be 65 02 80 3e 8d f5 1e bd 9a 88 04 bc
       -0.1703708 0.25001827 -0.038808394 -0.008089209
000020 59 fc 85 bc 58 46 b8 3d f8 ac 3f 3e 0e 55 56 be
       -0.01635568 0.08997792 0.18718326 -0.20930883
000030 c4 f7 66 3e f3 6e 55 be 15 94 74 3e 93 89 95 bc
       0.22555453 -0.20843105 0.23884614 -0.018254077
000040 9c 65 de 3d 20 c4 10 bc 62 21 65 3e 68 93 a7 be
       0.10859224 -0.008835822 0.22376016 -0.3272965
000050 ce 01 6f be 0c 7c 8f 3d 10 08 43 bd 0a ac f2 bd
       -0.23340532 0.07006082 -0.04761511 -0.1184922
000060 73 4f 0b be 11 64 92 be 3e a8 5d 3e 25 ca 52 be
       -0.13604526 -0.2859197 0.2164621 -0.20584925
000070 95 0c 94 3e 00 5e 5f bd ec 47 6a be 10 7e 21 3d
       0.2891585 -0.054533005 -0.22878999 0.039426863
000080 c0 58 2c 3c f4 53 84 be 73 02 03 be 70 f1 8a be
       0.0105192065 -0.258453 -0.12793903 -0.27137327
000090 a4 48 89 3d be 7f 55 be 70 20 06 bd d2 37 2b 3e
       0.06703308 -0.20849511 -0.03274578 0.16720513
0000a0 79 1a 40 be 27 a9 71 3e f6 6e e8 3e c2 0e b5 3e
       -0.18760099 0.23599683 0.45397156 0.35362822
0000b0 78 cc 34 bd e7 c1 78 3e 47 e6 e1 bd 7f e2 bd be
       -0.04414031 0.24292718 -0.1103025 -0.37086865
0000c0 5d 98 3f bd db 78 9c 3d 43 3a 88 3e 52 00 78 be
       -0.046776164 0.07640239 0.2660695 -0.24218872
0000d0 f3 68 a0 3e 6f ce 37 be a4 ae 97 bd 20 07 11 3d
       0.3133007 -0.17949842 -0.07406357 0.035407186
0000e0 d5 50 f1 be 6e c7 a7 3e 1d 89 0f 3e 51 50 9c bd
       -0.47131982 0.3276934 0.14017148 -0.07632507
0000f0 1d 8d 19 be f1 13 90 be b8 d8 33 3e f7 52 8f be
       -0.14995237 -0.28140214 0.1756314 -0.27992985
000100 38 e8 90 bd 00 9f bd 3a e9 40 0d be 70 ba 0c 3d
       -0.07075542 0.0014466941 -0.13794293 0.03435749
000110 6e 38 51 3e 2e fb eb bd f8 c5 f7 3d 78 33 47 be
       0.20431682 -0.11522518 0.120983064 -0.19453228
000120 70 1c db 3d 5e f7 95 be 28 40 24 3d 88 11 b8 3d
       0.106987834 -0.2929029 0.040100247 0.08987719
000130 fc 97 cd 3d ec 77 96 be a6 49 b2 be cc b4 d2 bd
       0.10038754 -0.29388368 -0.34821814 -0.102883905
000140 ec 6f 9f 3e 92 39 84 3e 03 d4 ae be 48 21 dd bd
       0.31140077 0.25825173 -0.34146127 -0.107973635
000150 3d 69 a0 be 9c ba dd 3e 39 8d 6a be 99 ca 72 be
       -0.3133029 0.43306434 -0.22905435 -0.23710097
000160 5a 73 b5 bd b8 c1 3b 3e 9f 28 68 3f 36 2e 81 3e
       -0.08859892 0.18335617 0.9068698 0.2523057
000170 8d 21 35 3e 74 a9 19 3e a1 61 bd 3d cc 9a 91 bd
       0.1768858 0.15006047 0.09247137 -0.07109603
000180 31 e7 cd 3e 94 e5 8a 3e 51 0a ef 3e d7 66 95 3d
       0.40215448 0.2712828 0.46687558 0.07295006
000190 53 27 a0 3e 8f 35 7d 3e eb 70 2e be a9 31 03 be
       0.31280002 0.24727462 -0.17035262 -0.12811913
0001a0 b9 4f 94 3e 4a 1c e0 3e 33 73 a8 bf c6 ab dc be
       0.28967074 0.43771583 -1.3160156 -0.43099803
0001b0 58 ea f8 3d ab e2 84 be 67 b7 2d be 1d 21 1b bb
       0.121540725 -0.25954184 -0.16964494 -0.002367086
0001c0 4b 16 92 3d 79 de 3b 3e 70 b9 88 bf c4 79 45 be
       0.07133158 0.18346585 -1.0681591 -0.19284731
0001d0 42 e3 40 bd 64 a8 e0 be ce 1d 88 3d 86 3c 19 3e
       -0.04709173 -0.43878472 0.0664631 0.14964494
0001e0 41 cc 42 3c e2 f7 a7 be a0 79 03 bf 24 b0 8f 3e
       0.011889518 -0.32806307 -0.5135746 0.28064072
0001f0 d8 57 be 3e 47 e4 0d bf bf ed 6b 3e 09 4e 85 be
       0.37176394 -0.5542645 0.23039912 -0.260361
000200 a4 9a 10 3e bc db c4 3d a2 0a 27 3f 86 52 c2 3d
       0.1412149 0.096122235 0.652506 0.09488396
000210 03 34 0c bf 88 ad 26 3e 40 9b 89 be 3c 0f 24 3e
       -0.54766864 0.16277134 -0.2687626 0.16021436
000220 6d c7 30 3d 50 19 bb be e1 4e 92 bf 9f 9b fa bd
       0.043158937 -0.3654275 -1.1430322 -0.122367136
000230 e9 a3 d1 3b 72 c5 09 be bf d6 81 be 77 c9 e1 be
       0.0063977134 -0.13454226 -0.2535915 -0.44099018
000240 05 83 90 3e 61 59 1a be 3c 00 4e be e9 52 9f 3e
       0.2822496 -0.15073158 -0.20117277 0.31117943
000250 62 22 3b be c5 c3 a8 be 2c b6 87 be b8 91 00 3e
       -0.18274835 -0.3296186 -0.26506174 0.12555587
000260 e6 bc 97 3c fc bc 40 bd 3b 6d 7c 3d 6c fc 82 3e
       0.018522691 -0.04705523 0.061627608 0.25583208
000270 e2 8e a4 3e 35 fe 82 be 52 75 5f 3e 4a 63 80 bd
       0.3214026 -0.2558457 0.21822098 -0.06268938
000280 c2 4d 8b be 29 2b 5f bc 26 42 91 be 02 d5 a2 be
       -0.27207762 -0.01362113 -0.2837078 -0.31803137
000290 6d a5 b5 3e 31 b4 b1 bd a1 00 64 be 26 c9 b2 3c
       0.35477772 -0.08676947 -0.22265865 0.02182443
0002a0 a6 b3 71 be d0 7b 28 3e 6d e5 16 be 2d af ff 3d
       -0.23603687 0.1645348 -0.14735956 0.12484584
0002b0 b7 80 f4 3d 8a aa 20 bf 94 9e 03 3e 9d 13 51 3e
       0.11938613 -0.6276022 0.12853462 0.20417638
0002c0 3a 40 c6 3d 2f c7 57 3e 58 ff d7 3d e6 1f a7 be
       0.09680219 0.21072076 0.1054675 -0.32641524
0002d0 8f fb 4b be ea ae b7 3d 57 d7 64 3d 2a d5 36 3e
       -0.1992018 0.08968909 0.055869427 0.17854753
0002e0 4f 91 8a be ba f7 a4 be 99 d1 45 3e 4b 8f 95 be
       -0.27063987 -0.3222025 0.19318236 -0.29210886
0002f0 54 a6 b9 bd bd 6e 9c 3e 6a 38 90 3e 44 cb 6f be
       -0.09064928 0.30553237 0.2816804 -0.23417383
000300 73 2d 14 be 72 d6 19 3e a0 f0 0b bc 88 f4 86 3d
       -0.14470463 0.1502321 -0.008541256 0.065896094
000310 a0 35 1f 3c 34 4e a1 be 5c d5 ea bd 3a b7 e0 bd
       0.009717375 -0.31504977 -0.11466476 -0.10972448
000320 32 11 b1 3e e1 11 61 3e 15 c0 c4 bc a7 89 c8 bd
       0.3458343 0.21979477 -0.024017373 -0.0979188
000330 8e 78 f2 3d de 06 eb 3d 19 22 f8 3b 84 af 79 3e
       0.118394 0.11475919 0.007572424 0.2438336
000340 ba a1 06 3f 43 a9 98 be 42 ac 82 3f f3 af bb 3e
       0.52590525 -0.29816636 1.0208819 0.36657676
000350 cc 90 28 bf 0f 2e 02 be 6b c8 bb 3d 71 1b 03 3e
       -0.6584594 -0.12712882 0.09169086 0.12803437
000360 a5 6e 11 b9 ed a5 45 bf 3f fa a4 bf b4 d8 29 3e
       -0.00013869496 -0.7720631 -1.2888869 0.16586572
000370 d8 f6 ee 3e 74 92 f9 be 68 60 46 be 26 45 82 3c
       0.46672702 -0.48744547 -0.19372714 0.015902113
000380 52 c9 de 3d ed 4d 14 be ea 28 28 bf d3 c7 33 3d
       0.108782426 -0.14482851 -0.6568743 0.04389174
000390 9e d2 24 be f7 71 3f be a9 e0 a6 3b 84 1e a9 3e
       -0.16095969 -0.18695818 0.0050926995 0.33031094
0003a0 4f 8f 8c 3e 50 fa ae bc b2 d9 b3 3f ba 09 b6 3e
       0.27453086 -0.021359593 1.405081 0.35554296
0003b0 13 e9 57 be 2a fd f8 3d 1b 4a ce 3e 1f 52 44 be
       -0.21085005 0.12157662 0.40290913 -0.19171952
0003c0 17 aa 26 3e 12 df 3e 3d 92 e5 16 bf a9 91 78 be
       0.16275822 0.046599455 -0.58944046 -0.24274315
0003d0 8f bd 53 3e c5 6f 3b 3f ea 6c b9 bd 20 ad 91 be
       0.2067778 0.7321742 -0.09053977 -0.28452396
0003e0 d6 84 98 3e d9 50 07 bd f4 9c 5f 3e ca f5 5f 3e
       0.29788846 -0.033036087 0.21837217 0.21871105
0003f0 2c 26 a5 3d 6a 60 99 be 4c 8c 7a 3e 97 c0 af 39
       0.08063921 -0.2995637 0.24467582 0.00033522092

hidden_model.0.bias f4 [32]
000000 04 03 35 be 1e 76 8c be b1 61 a8 be 57 3a 8b be
       -0.17676932 -0.27433866 -0.32887033 -0.27192947
000010 46 cf 83 be 53 15 a3 bd 17 87 96 be 70 40 2d 3e
       -0.25744075 -0.07963052 -0.2939994 0.16919112
000020 6a 24 1e be 0f 97 9e be e8 a5 3a be fe ee 31 be
       -0.15443578 -0.30974624 -0.1822735 -0.17376325
000030 e5 2f 48 be 9e 2a 2a 3e 51 3d 18 3f c9 ce c6 3e
       -0.1954952 0.1661782 0.5946856 0.3882964
000040 75 79 52 be e6 83 12 3f 34 aa b3 be 48 bd 97 be
       -0.20554145 0.5723251 -0.35090792 -0.29636598
000050 61 a9 4b 3e cd 27 85 3e 0c 11 8d be f1 45 31 be
       0.19888832 0.26006928 -0.27552068 -0.17311837
000060 90 ec 07 3d 8f d6 a5 bd 97 a1 00 be 14 b5 52 3f
       0.033184588 -0.080975644 -0.12561642 0.82307553
000070 b0 da fa 3e 61 3c 9c be a5 2c b5 bd 80 29 9f 3d
       0.4899497 -0.30514815 -0.08846406 0.07771587

hidden_model.2.weight f4 [32, 32]
000000 8a cd 83 3d d3 69 e4 3d e7 57 1f 3e 20 a8 1b 3c
       0.06435688 0.11152997 0.15560876 0.009500533
000010 6c 9e 2b 3d 8f 03 23 3d 22 e7 65 3d 64 bb f8 3d
       0.04189913 0.039798316 0.05612863 0.12145117
000020 76 75 79 bd a0 36 e1 3b 81 8f e2 3d 19 2a 18 be
       -0.060903035 0.006872967 0.110625274 -0.14859809
000030 9b 91 05 3d 8d 95 d3 3d fd a2 83 3d d3 da 1a be
       0.032609563 0.10331259 0.06427572 -0.15122537
000040 ae 1b f2 3d 82 32 c0 bc 0e f4 d4 3d b7 99 ec bd
       0.11821686 -0.023461584 0.10398112 -0.11552756
000050 0f bd 97 bd 04 5c a5 bc ce 77 85 bd c0 a8 b2 3d
       -0.07409107 -0.020185478 -0.065169916 0.08723593
000060 c7 6b 32 3e f1 86 14 3e 4b 68 44 be 30 e8 59 bd
       0.17423926 0.14504601 -0.1918041 -0.053199947
000070 00 7c f7 3d 15 73 90 bd a9 d6 03 3e 3a fd 5a bd
       0.12084198 -0.070532 0.12874855 -0.053464152
000080 59 ff c8 3d 88 ee 7d 3d 70 6a 86 bc ca 77 df 3d
       0.09814329 0.06199506 -0.016408175 0.1091152
000090 86 bd a0 3d 80 a8 8e 3a 51 5c 09 3e b4 a6 cc bd
       0.07848649 0.0010883957 0.13414122 -0.099927336
0000a0 68 f1 ce bc fc f6 c5 bd e9 d1 0b 3e 78 41 38 bd
       -0.025261596 -0.09666249 0.13654293 -0.04498431
0000b0 d4 46 d3 bc 6a b6 f1 bc b8 56 29 3e 60 40 a9 3b
       -0.02579061 -0.029505927 0.16536987 0.005165145
0000c0 d6 c4 0f 3e 87 64 1b 3c 88 1d 99 3c 68 56 12 3d
       0.1403993 0.009484417 0.01869084 0.035726935
0000d0 60 42 c0 bb 18 07 c7 bd 5a 97 d8 3d e4 62 22 be
       -0.0058672875 -0.0971815 0.10575743 -0.15858036
0000e0 48 07 94 bc 41 d8 0b 3d 82 4b bb bd a3 44 8c bd
       -0.018069878 0.034141783 -0.09145261 -0.06849029
0000f0 1c 2e ae bd 4f ee 1c be 8d c6 00 be 01 ed f2 bd
       -0.085048884 -0.15325283 -0.12575741 -0.11861611
000100 39 8b 12 be 78 18 3c 3d 56 3f 9d 3d 80 52 c0 ba
       -0.14310922 0.045921773 0.07678096 -0.0014673024
000110 d0 64 0c bc 43 32 92 bd 00 5e 8a bd 59 f6 c3 3d
       -0.008568957 -0.07138493 -0.0675621 0.095684715
000120 cf c3 cf bd 1a 30 90 3d 45 0d a3 3d 30 17 0b bc
       -0.101447694 0.07040425 0.07961515 -0.008489415
000130 44 25 c4 bc cd 6d e4 3c a6 64 77 bd 86 f1 a6 3d
       -0.02394355 0.027884388 -0.06039872 0.08151536
000140 6f 57 9e 3d f0 02 46 be cc 8e 67 3d 7b b0 13 be
       0.077315204 -0.19337058 0.056532666 -0.1442279
000150 82 51 7e bd a1 9d 0a 3e a4 00 c9 bd 4e 17 55 bd
       -0.06208945 0.13536693 -0.09814575 -0.05202418
000160 59 a9 15 3e b4 8d 87 bd a4 41 ac bc 59 15 ac 3c
       0.14615382 -0.066188246 -0.021027394 0.021006273
000170 b2 17 35 be d9 63 a7 3d f0 46 c9 bd a0 98 ae 3d
       -0.1768482 0.08173341 -0.098279834 0.08525205
000180 ea 71 da 3d 3a d3 83 bd 21 49 af bd dd 8a 0f 3e
       0.10666259 -0.06436773 -0.0855887 0.14017816
000190 08 6e e7 3c c4 e7 a1 bc 7f 85 34 be 55 f8 2c 3b
       0.02825071 -0.019763835 -0.1762905 0.0026393135
0001a0 04 c6 5b 3d 48 a1 a5 bd 2f 80 00 be dc 2b 2d bd
       0.05365564 -0.080874026 -0.12548898 -0.042278156
0001b0 29 12 6e 3d 81 12 b5 bd d2 90 1b be 35 62 00 be
       0.058122788 -0.0884142 -0.15191963 -0.12537463
0001c0 69 26 46 bd d3 51 5a bd 7f 36 08 be a9 78 ce bd
       -0.048376475 -0.05330069 -0.13302039 -0.10081608
0001d0 68 4c 10 be 14 61 4f 3c 68 0c 8a bd 2d c8 04 3e
       -0.14091647 0.012657423 -0.067406476 0.12966986
0001e0 f6 f5 0c be 58 1c a2 3c 99 7b fd 3d ae da 91 be
       -0.13765702 0.019788906 0.1237709 -0.28487152
0001f0 9f 38 68 bd a3 6b 84 3e 16 ff 92 3c 4e 5b 8d 3d
       -0.056694623 0.2586337 0.0179439 0.069021806
000200 20 b2 83 3b a5 ee 8e bd 5a ad be 3d 74 19 8b bd
       0.004019037 -0.069791116 0.09310408 -0.06791964
000210 2a 95 ea bd 10 38 fb 3c 6c c0 13 be 2a c9 c3 bd
       -0.11454232 0.030666381 -0.14428872 -0.095598534
000220 50 f6 9b bc ff 21 06 3e e8 56 8d bc 7e ab 89 bd
       -0.01903835 0.13098906 -0.017253354 -0.06722163
000230 a0 ab 11 bd 06 82 ee 3d a0 ba 75 3d ae 59 b7 3d
       -0.035564065 0.11645894 0.059992433 0.08952652
000240 aa 27 32 be 41 24 16 be 10 73 13 be e8 56 8d 3c
       -0.17397943 -0.14662267 -0.14399362 0.017253354
000250 08 b1 a2 bd 20 75 e3 bc 78 7f 6e 3d a0 31 4d bc
       -0.07943922 -0.02776581 0.058227032 -0.012524039
000260 d5 95 e3 bd 96 3b ee bd 50 9b 7c bc 56 74 a8 bc
       -0.111125626 -0.11632459 -0.015417889 -0.020563286
000270 52 90 03 be 8d 80 0f be 9d fd 17 3e c1 09 22 3e
       -0.12848023 -0.14013882 0.1484284 0.15824033
000280 1b 62 8c bd 1a 91 0a be 26 a8 a7 3d 47 cc 05 3e
       -0.0685465 -0.13531914 0.08186369 0.13066207
000290 4e 40 b1 3d 7f b4 29 be 4a fa 99 3d c8 e1 92 bc
       0.08654843 -0.1657276 0.07518442 -0.017929927
0002a0 84 dd 91 3d 6d 7f 1a be e6 0b b8 3d 3c 5f 2d bd
       0.07122329 -0.15087672 0.089866444 -0.04232715
0002b0 9e 86 d9 3d bb 76 d0 bd 67 a5 0b be 9e 77 ec 3d
       0.10621379 -0.10178896 -0.13637315 0.11546253
0002c0 8b dd a9 bd 50 62 a8 bd aa 11 cf 3d 40 aa 9f bc
       -0.08294209 -0.082218766 0.10110791 -0.019490361
0002d0 b0 f0 78 3d f6 76 b6 3d 35 fc 11 3e 12 a8 df 3d
       0.060776412 0.08909409 0.14256366 0.10920729
0002e0 df 5e 23 3e fa 1d 23 be 50 f1 25 3c 35 11 1a be
       0.15954159 -0.15929404 0.010128334 -0.15045626
0002f0 40 ab d9 bd 34 f3 31 be e4 01 10 3d 29 ac 01 3e
       -0.106283665 -0.17377931 0.035158053 0.1266333
000300 85 1b 01 be 5b d7 e8 bd 8d e8 1f 3e a0 38 15 3c
       -0.12608154 -0.11369201 0.15616055 0.009107739
000310 e6 c0 cb 3d 50 c3 8e 3c eb a8 2d 3e 45 1d 23 3e
       0.09948902 0.017427117 0.16958968 0.15929134
000320 25 ef af bd 64 3a 83 3d f7 4d 0c be 80 ff c8 3a
       -0.08590535 0.064076215 -0.13701616 0.0015334934
000330 c0 61 50 bd a0 b8 ab bb 4c 6e 76 3d e4 ae 18 bd
       -0.05087447 -0.005240515 0.06016378 -0.037276164
000340 78 4e dc bc fa 83 a2 bd 90 b5 e7 3c 88 79 85 3c
       -0.026892886 -0.07935329 0.028284818 0.016293302
000350 6c 3c 9a bd 66 df 9f 3d 50 22 8f 3c 3b f8 9d bd
       -0.07531056 0.07806282 0.017472416 -0.07713362
000360 35 13 0d be d6 ac 75 bd ba f9 f1 bd de e1 01 be
       -0.13776858 -0.059979282 -0.1181521 -0.12683818
000370 37 78 e6 bd 07 a5 d3 bd 40 e0 d7 3c 60 2f 42 3d
       -0.11253398 -0.10334211 0.026352048 0.04740846
000380 30 12 cb bc 52 1d 96 3d 7a 3b c6 3d f5 ee 15 3e
       -0.024788946 0.07329811 0.09679313 0.14641936
000390 9d 6a 00 be 52 4e 89 bd 4a bb 9b bd ab 73 32 3e
       -0.1254067 -0.067043915 -0.07604082 0.17426936
0003a0 0f be 0f 3e 06 37 2c be cc 42 90 3d 88 8c 5c bd
       0.14037345 -0.16817865 0.070439905 -0.05384496
0003b0 b4 1c 0e bd 52 1a b8 3d e3 c8 88 bd 8f 7a a9 bd
       -0.034695342 0.08989395 -0.06678941 -0.08275329
0003c0 9c 07 4d bd 60 e9 45 3d 28 33 5f bd e0 bd 1e bc
       -0.050056085 0.048318267 -0.054492146 -0.009688824
0003d0 44 24 6f bd 58 75 28 bd f6 fc f1 bd 63 5b f1 bd
       -0.058384195 -0.041127533 -0.118158266 -0.11785009
0003e0 72 e7 10 be e0 20 b6 bb 56 99 8a bd ce 9d 1b be
       -0.1415079 -0.005558118 -0.06767528 -0.15196916
0003f0 11 a3 c1 bd 10 da 15 3d ba 78 f6 bd 26 e5 98 3d
       -0.094549306 0.036584914 -0.120347455 0.074655816

hidden_model.2.bias f4 [32]
000000 2c 2d 2a 3d ba 4d 94 bd a6 1d 94 3a 79 e4 12 3e
       0.041546986 -0.07241388 0.001130034 0.14344968
000010 69 0b 9e bd 47 bd 08 be 24 b5 f0 bd 79 8e 9b bd
       -0.0771702 -0.13353454 -0.117533 -0.07595534
000020 20 93 25 bd d9 06 fc 3e 38 40 31 bd cb 35 69 3e
       -0.040423512 0.49223974 -0.043274134 0.22774427
000030 8a 8f 8b 3d 45 08 12 3e 18 01 86 bc 15 da f2 3d
       0.06814487 0.14260967 -0.016357943 0.11858002
000040 fb b0 c9 bd d8 d1 5c 3e 36 1c 68 3e 7c 97 01 bd
       -0.098482095 0.21564424 0.22667012 -0.031638607
000050 37 87 8b bd 0d eb 91 bd d4 93 64 bd 38 6a 0c be
       -0.068128996 -0.071249105 -0.055805042 -0.13712394
000060 c2 e6 1b 3c 9e 4f b5 3d 31 06 73 3c 93 ec 63 bd
       0.009515466 0.088530764 0.014833019 -0.055645537
000070 2d 61 05 3f eb 02 ce 3d db ca e4 bd f5 01 20 bc
       0.52101403 0.1005915 -0.11171504 -0.009766092

fc1.weight f4 [2, 32]
000000 49 d7 c6 3d 8d f4 ef 3c bc e3 b1 bd 68 4a 75 be
       0.09709031 0.029291416 -0.08686015 -0.23954165
000010 d6 ca 15 be 70 06 6d 3d cb 70 c4 bd 5c aa 32 bd
       -0.14628157 0.057867467 -0.09591826 -0.0436195
000020 c6 c3 1d be 86 24 d1 3f 36 ef 72 be 3c 2a 37 3f
       -0.15406713 1.6339271 -0.23724064 0.7154882
000030 d6 e3 1d bf 18 5d 1a 3e e1 26 f7 bd 79 52 9a be
       -0.61675775 0.15074575 -0.120679624 -0.30141047
000040 18 2c ba 3c 7b f9 5d 3f 82 aa c9 3e 98 cb 6a 3d
       0.022726104 0.867088 0.393879 0.05732307
000050 40 28 2c 3d 42 20 0b be 66 27 b8 ba 87 a3 cf 3d
       0.042030573 -0.13586524 -0.0014049828 0.10138612
000060 81 57 5b bf f1 0b 30 bf d5 2f 84 bd f7 58 f5 bd
       -0.85680395 -0.6876822 -0.06454436 -0.11979859
000070 5a f8 8c 3f 39 98 db 3e f9 8c a5 be f7 3c ce bd
       1.1013291 0.42889574 -0.32334116 -0.10070222
000080 95 7b f0 bd 0f 51 d4 3d 0d 6c 8a 3d 95 df 8c 3e
       -0.117423214 0.10367023 0.0675889 0.2751433
000090 93 2b c8 bd d0 84 97 3c 52 d2 9d 3d 60 3d a8 bd
       -0.09773936 0.018495947 0.07706131 -0.08214831
0000a0 5b 09 10 be 60 20 c7 bf 4c 5c 98 3d 1d 76 ea be
       -0.14066069 -1.5556755 0.07439479 -0.45793238
0000b0 84 f4 3c 3f cd 6b cc bd 76 06 1d bd c4 c4 cd 3c
       0.738106 -0.09981499 -0.03833624 0.02511824
0000c0 a6 f8 d6 3d 4c a1 25 bf 7e 1d 89 be b0 5d d7 bc
       0.10496645 -0.64699244 -0.26780313 -0.02628979
0000d0 3e e5 95 3d 38 8e cf bc 5f 55 8d 3d f2 23 06 3e
       0.07319115 -0.02533637 0.06901049 0.1309965
0000e0 71 43 4e 3f 0c 24 22 3f e6 93 ff 3c c3 ea db 3d
       0.8057166 0.63336253 0.031198453 0.107381366
0000f0 25 53 90 bf f4 2c fd be 5e 6a 2b 3d a8 93 ce bd
       -1.1275374 -0.4944836 0.041849487 -0.10086757

fc1.bias f4 [2]
000000 a3 3c 94 3e 8f e7 c1 be
       0.28952512 -0.37871978
