save/IrisNN_Iris_e200.pt (torch_old, 2796 bytes, 6 tensors)

hidden_model.0.weight f4 [16, 4]
0.38217813 0.032248676 -0.15482116 -0.32156134 -0.46755216 0.63743407 -0.1814236 -0.016353155
-0.39252216 0.04931881 -0.31459987 -0.22184816 -0.49183285 0.018228412 -0.027892053 0.17202896
-0.07498907 -0.36483467 0.48641777 0.66012377 -0.36243486 0.22001363 0.35748821 0.25586516
-0.10007846 -0.18044597 0.3187588 -0.0061359406 0.25920826 0.008215901 -0.3970551 -0.5829327
-0.043475643 0.37553805 0.480334 0.46828344 -0.29884654 -0.23694044 -0.16394055 0.462425
0.6049494 0.20286702 0.7450104 0.7033882 -0.28488392 0.1265325 0.11504173 0.33156794
0.15743047 -0.39793533 -0.08376342 -0.45985907 0.55071115 0.36499205 0.3093086 0.022611665
0.04560255 -0.066078186 0.08393257 0.42336708 0.41821203 -0.45242235 0.99487925 1.0016385
00000000: daac c33e 3017 043d 7089 1ebe b0a3 a4be
00000010: ff62 efbe e12e 233f 1cc7 39be 0df7 85bc
00000020: aaf8 c8be 8502 4a3d 3c13 a1be 2a2c 63be
00000030: 84d1 fbbe c053 953c e07d e4bc 5c28 303e
00000040: df93 99bd 9ccb babe c00b f93e dffd 283f
00000050: 1091 b9be 414b 613e b208 b73e c200 833e
00000060: f0f5 ccbd d4c6 38be 5a34 a33e 0010 c9bb
00000070: f2b6 843e fd9b 063c ce4a cbbe 143b 15bf
00000080: 8413 32bd 8646 c03e 57ee f53e d9c2 ef3e
00000090: 6a02 99be 84a0 72be 08e0 27be f8c2 ec3e
000000a0: f7dd 1a3f 5fbc 4f3e 00b9 3e3f 4011 343f
000000b0: 4edc 91be bc91 013e 009b eb3d 46c3 a93e
000000c0: 7435 213e 2ebe cbbe 288c abbd a672 ebbe
000000d0: 68fb 0c3f 3de0 ba3e b25d 9e3e 193c b93c
000000e0: bdc9 3a3d 0054 87bd d7e4 ab3d 92c3 d83e
000000f0: e31f d63e e7a3 e7be 68b0 7e3f b135 803f

hidden_model.0.bias f4 [16]
-0.29138452 0.40252155 0.27436385 -0.09292066 0.14082897 -0.18367793 -0.4910531 0.78627044
-0.37036863 -0.3656401 -0.41186035 -0.3922338 0.13225019 0.46235642 -0.3579065 0.07820636
00000000: 5a30 95be 4e17 ce3e 6b79 8c3e 304d bebd
00000010: 7835 103e 1116 3cbe 506b fbbe 0549 493f
00000020: f5a0 bdbe 2e35 bbbe 5cdf d2be ded2 c8be
00000030: 986c 073e fbb9 ec3e 853f b7be a82a a03d

hidden_model.2.weight f4 [16, 16]
0.21429113 0.053498138 -0.19260728 0.20686379 0.19868049 0.22516106 -0.100918084 0.21148783
-0.08863442 0.22826716 -0.033243723 0.14532503 0.05143252 -0.23400845 0.013585212 -0.07943726
0.22248179 -0.36035904 0.21550064 0.15668643 0.23485589 0.09142846 -0.03254378 -0.19426368
0.04764166 0.24940199 0.707111 -0.22046158 0.23395357 0.2740202 0.18175535 0.9556038
-0.16251555 -0.21908541 0.048912518 -0.09034634 0.3233222 -0.10750163 -0.20762432 -0.28206217
0.23570506 0.21032822 0.18583561 -0.24598551 0.06638718 0.31257018 0.12843181 0.47093827
0.10519257 -0.22709498 -0.13425785 0.16508943 -0.1445286 -0.07786384 -0.07781422 0.20065439
0.24936405 -0.037435293 0.100922674 -0.059561223 0.22223115 -0.11536673 -0.23840016 0.0074956417
0.024469167 -0.23087707 -0.098629296 -0.09466863 0.05406899 0.2084364 -0.10248953 0.011480667
0.06709902 -0.03280461 0.27535486 0.11068809 -0.014092714 -0.090998024 -0.085585475 0.034382395
0.15628603 -0.16795738 -0.11114512 0.194491 0.39503083 -0.04943433 0.23734754 -0.35493726
0.3767154 -0.08039051 0.61375266 0.17149067 0.022165239 0.09898521 -0.019326339 0.89478624
0.027430356 -0.15391731 -0.046652384 0.24814376 -0.15630224 0.018945217 -0.23153946 -0.050302606
-0.028948188 -0.13840789 -0.11730705 0.18753496 0.16847712 -0.059057157 0.023891598 -0.24799806
-0.124429196 -0.20452562 -0.071359426 -0.19591793 -0.18881321 -0.15273921 0.21765512 -0.022403358
-0.179471 -0.09789768 -0.22573757 0.07569441 -0.018308371 -0.24900135 0.16437796 0.079186924
-0.12741458 -0.064985484 -0.11763647 -0.10594019 -0.2197755 0.113091975 0.050812066 -0.20476457
-0.21298021 0.20222977 -0.18635467 0.20173925 0.17817572 0.040324003 0.21212485 0.13453868
0.18066907 -0.014485226 -0.120972075 -0.032480896 0.17623661 0.17057037 -0.053767055 -0.23447214
0.15750897 -0.22166362 0.26982814 0.16642648 0.0312728 0.17119816 -0.05573018 0.012128498
-0.1560891 0.023263471 0.1344044 0.11224356 -0.08579077 -0.09579584 -0.19400841 0.24005952
0.11312766 0.17312959 -0.17397118 0.1476931 -0.14372039 -0.03124333 0.15893975 -0.1499065
-0.18696988 0.29578248 0.1327825 0.20884037 -0.09218388 -0.12637351 -0.11882892 0.29629594
-0.28156412 0.030876935 -0.2499712 -0.08229333 -0.18208495 0.39357856 0.09276376 0.084061705
-0.19352132 0.47143406 0.20197238 -0.1566459 -0.24938458 -0.10303486 -0.18913087 0.57160884
-0.0871857 -0.01607892 -0.070440955 -0.031855077 -0.09412381 0.30010003 -0.023804972 -0.38724872
0.06051445 0.052159127 -0.059620917 0.06037116 0.075905316 -0.20329046 0.22291484 -0.077180296
-0.04742529 0.15096262 0.081049316 -0.23405936 0.12785175 -0.19322991 0.024439447 0.038142953
0.17243642 -0.16985908 0.20406464 -0.18051416 -0.1348435 0.06658694 0.13744065 0.15367725
0.01664877 0.06853831 0.13845497 0.17482409 -0.16091129 0.10587993 -0.019569784 -0.08136496
0.23362392 0.224131 -0.02152469 0.088780284 -0.004389374 0.07785928 -0.08819494 -0.23116018
0.09804782 0.010817885 0.21935683 0.12449646 -0.19196126 -0.26977846 -0.030942747 0.14322652
00000000: 226f 5b3e dd20 5b3d d83a 45be 1ad4 533e
00000010: e672 4b3e 9f90 663e 24ae cebd 4490 583e
00000020: f685 b5bd debe 693e 922a 08bd 16d0 143e
00000030: e8aa 523d e99f 6fbe 8294 5e3c 01b0 a2bd
00000040: 44d2 633e fb80 b8be 33ac 5c3e 6872 203e
00000050: 107e 703e d83e bb3d a04c 05bd 0fed 46be
00000060: e723 433d 3c63 7f3e 3a05 353f aec0 61be
00000070: 8691 6f3e 604c 8c3e 131e 3a3e 73a2 743f
00000080: 7a6a 26be ed57 60be 7e58 483d 8007 b9bd
00000090: 7d8a a53e d129 dcbd 789b 54be 746a 90be
000000a0: ab5c 713e 4860 573e b14b 3e3e a0e3 7bbe
000000b0: 00f6 873d 3309 a03e a183 033e d21e f13e
000000c0: 346f d73d 968b 68be e47a 09be 340d 293e
000000d0: 4eff 13be 1477 9fbd 105d 9fbd 5878 4d3e
000000e0: 4a59 7f3e c055 19bd 8cb0 ce3d 78f6 73bd
000000f0: 9090 633e 6445 ecbd 2c1f 74be 009e f53b
00000100: 9073 c83c 0a6b 6cbe 28fe c9bd a0e1 c1bd
00000110: 7277 5d3d 5a70 553e 08e6 d1bd 6819 3c3c
00000120: 366b 893d 205e 06bd 50fb 8c3e 70b0 e23d
00000130: 20e5 66bc 2c5d babd 7047 afbd 8ed4 0c3d
00000140: 7209 203e 05fd 2bbe 0da0 e3bd a628 473e
00000150: 7b41 ca3e a77b 4abd 3c0b 733e 56ba b5be
00000160: d7e0 c03e c8a3 a4bd e51e 1d3f 409b 2f3e
00000170: e093 b53c c2b8 ca3d 4552 9ebc b610 653f
00000180: a0b5 e03c 809c 1dbe 9216 3fbd 6619 7e3e
00000190: b20d 20be 0033 9b3c ae18 6dbe 1b0a 4ebd
000001a0: c024 edbc ccba 0dbe ae3e f0bd 2a09 403e
000001b0: 4485 2c3e ebe5 71bd 50b8 c33c 34f3 7dbe
000001c0: bcd4 febd 2a6f 51be e424 92bd b69e 48be
000001d0: 4058 41be ab67 1cbe fce0 5e3e 3f87 b7bc
000001e0: 3fc7 37be 947e c8bd c027 67be ac05 9b3d
000001f0: 70fb 95bc 36fa 7ebe b252 283e c12c a23d
00000200: f878 02be 1c17 85bd 64eb f0bd 2cf7 d8bd
00000210: d40c 61be c49c e73d 5020 503d cead 51be
00000220: 7c17 5abe 5215 4f3e c2d3 3ebe bc94 4e3e
00000230: b273 363e c82a 253d 4237 593e 82c4 093e
00000240: 5001 393e 7153 6dbc 35c0 f7bd b00a 05bd
00000250: 5f77 343e 00aa 2e3e d83a 5cbd 7719 70be
00000260: 084a 213e cafb 62be ea26 8a3e b46b 2a3e
00000270: e817 003d 924e 2f3e 5445 64bd 9cb6 463c
00000280: d2d5 1fbe 0993 be3c 4fa1 093e f4df e53d
00000290: 12b3 afbd 9c30 c4bd 24aa 46be 2ad2 753e
000002a0: 79af e73d e248 313e 8025 32be dc3c 173e
000002b0: 702b 13be 03f2 ffbc 1ac1 223e 1781 19be
000002c0: 0875 3fbe cd70 973e 23f8 073e 40da 553e
000002d0: e7ca bcbd 0f68 01be 945c f3bd 1ab4 973e
000002e0: 2c29 90be a0f1 fc3c 73f8 7fbe 6889 a8bd
000002f0: 7a74 3abe 2183 c93e edfa bd3d 8b28 ac3d
00000300: 742a 46be ce5f f13e d9d1 4e3e c867 20be
00000310: ac5e 7fbe f103 d3bd 86ab 41be f554 123f
00000320: 6b8e b2bd f0b7 83bc 5943 90bd 787a 02bd
00000330: fcc3 c0bd b6a6 993e a502 c3bc 7745 c6be
00000340: 00de 773d cfa4 553d 1035 74bd c047 773d
00000350: 3f74 9b3d 602b 50be ca43 643e b410 9ebd
00000360: 0541 42bd f295 1a3e 2ffd a53d 42ad 6fbe
00000370: 92eb 023e 10de 45be 3c35 c83c c93b 1c3d
00000380: 2c93 303e 8aef 2dbe 52f6 503e b4d8 38be
00000390: 6a14 0abe bc5e 883d 3ebd 0c3e 925d 1d3e
000003a0: 0063 883c d05d 8c3d 24c7 0d3e 1605 333e
000003b0: eec5 24be 94d7 d83d d050 a0bc aca2 a6bd
000003c0: 1c3b 6f3e 9982 653e 8c54 b0bc 70d2 b53d
000003d0: bdd4 8fbb b074 9f3d 8c9f b4bd 41b5 6cbe
000003e0: 4ccd c83d 803d 313c 149f 603e 00f8 fe3d
000003f0: 7e91 44be 6720 8abe a57b fdbc f9a9 123e

hidden_model.2.bias f4 [16]
-0.0034258906 -0.091281086 0.0053432044 -0.046796232 -0.09438359 0.13425104 0.10123777 0.15467815
-0.24923584 -0.08482078 -0.19415654 0.68360204 0.6442526 -0.071058735 -0.24191278 0.04988096
00000000: e884 60bb 94f1 babd 0c16 af3b 68ad 3fbd
00000010: 2f4c c1bd 1b79 093e bf55 cf3d f363 1e3e
00000020: ae37 7fbe 84b6 adbd f9d0 46be 8b00 2f3f
00000030: bded 243f 3e87 91bd fcb7 77be fa4f 4c3d

fc1.weight f4 [3, 16]
-0.0810751 -0.9815497 -0.6601306 0.10660654 0.17772281 -0.9798964 -0.013866699 -0.064964466
-0.23930499 -0.18856272 0.0003246401 0.61477935 0.8041636 0.21895862 -0.08912021 -0.02957205
0.10477176 0.22229631 0.114459634 0.19280693 -0.06589303 0.34696952 0.20259097 -0.1485674
-0.07859254 -0.15577798 0.10818211 0.4097187 -0.19889627 -0.17144503 0.09872776 -0.028783403
0.18059106 0.75770783 0.30095357 0.2368328 0.15037419 0.69463277 0.014955294 0.18947063
0.1862632 0.1435443 -0.22064918 -0.59960234 -0.7357432 -0.10268073 -0.06801382 0.24436693
00000000: b40a a6bd d746 7bbf 52fe 28bf 8854 da3d
00000010: f8fc 353e 7eda 7abf 2731 63bc 170c 85bd
00000020: 5e0c 75be 9616 41be 7534 aa39 2e62 1d3f
00000030: aadd 4d3f b036 603e a884 b6bd 1541 f2bc
00000040: 9492 d63d a5a1 633e d069 ea3d 2e6f 453e
00000050: edf2 86bd fda5 b13e 0274 4f3e 0d22 18be
00000060: 20f5 a0bd 4384 1fbe 958e dd3d a6c6 d13e
00000070: 77ab 4bbe 498f 2fbe c831 ca3d 2ccb ebbc
00000080: ddec 383e 24f9 413f 9616 9a3e 4c84 723e
00000090: b1fb 193e 74d3 313f 0d07 753c 9704 423e
000000a0: c8bb 3e3e 47fd 123e dcf1 61be 8a7f 19bf
000000b0: ab59 3cbf 464a d2bd d44a 8bbd 533b 7a3e

fc1.bias f4 [3]
0.86816037 0.06423217 -1.0845689
00000000: c23f 5e3f 288c 833d 27d3 8abf
